runs/checkpoint_e030.pt (torch, 158519 bytes, 12 tensors)

net.0.weight f4 [128, 18]
00000000: 6a6a a53e e76d 93bd d389 22be ef42 5bbe
00000010: 9c92 60ba 6652 87bc bb14 033e a3e1 cebd
00000020: a604 0f3e 2282 6b3e 1891 8e3d c6fe 7ebd
00000030: caaa 8f3e f7f7 043e e720 0e3e 0efc 8cbd
00000040: 6cd6 3fbe cfd4 ec3d 4f5d ad3d 62bd bb3e
00000050: 3d99 1f3e 7506 373d 675b 1e3d 288f 36be
00000060: 894c 4e3e 72dd 773e dbab 4abe 3263 f0bd
00000070: d230 6a3e 0183 f3bb 6c06 183e b5cc 113e
00000080: 71b7 12be 91fe c6bd 8c2e 593e beb2 873c
00000090: 32eb 54be bc72 8abe 9e52 32be b720 83bd
000000a0: 7642 abbd f606 e93d 8e04 55be c01a b03e
000000b0: 692f 4a3d db5e 2d3d 7b77 b2bd 1676 5b3e
000000c0: 197f 043e aa01 823e 018d 453d 53e0 20be
000000d0: 52fa 53bc 6d6a 0e3c 5bce 8d3e 2122 cc3e
000000e0: cdfa c2bd bd6b 313e 9407 013e d751 23bd
000000f0: 4018 e33d 9976 d53e 008e 3f3e 3d68 0a3d
00000100: 3612 373d b211 9abd 3476 d43c 687c afbb
00000110: 575c fb3c a68b 4fbe 2f84 22be 4eab 01bd
00000120: 3bb3 aabd 95a6 b03d d9fc acbd 2427 aebc
00000130: fea8 353e 82cd 1bbe 0571 e73c bcf4 6c3d
00000140: 04e1 b03d 2aff 24be 6baf a63c d6df 6f3e
00000150: 2d51 903d 44a2 79be a100 65be 349b 273e
00000160: 48cd 693e 80a5 703e d1b4 cd3c a5c2 e8bd
00000170: 96ea 1abe c32c 1abe 8858 16bd 3be8 fc3d
00000180: 0516 113e 7812 b63e 5adf 563e c86b 80bd
00000190: 1de3 4d3e 1423 1abe 3f32 69be 4309 1ebe
000001a0: 56a5 f7bd 7e05 263e dd3e 80bd 1173 2e3e
000001b0: 9be2 adbe 8c6c 0ebe 7a0a 9e3d 192c a33b
000001c0: a631 0dbd c8dc 093e c093 1ebe 1c45 303d
000001d0: a323 f43d 3588 693e ce58 1b3d e294 4dbe
000001e0: 1969 14bd 6e82 a43e ced6 d33d 1335 183e
000001f0: a7b8 0c3e 5ed8 683d 2ed3 a23d 9422 babc
00000200: 5254 1b3e 2d5e 49be 6918 34be 4ab0 fa3d
00000210: d2ed 52bd 2492 c43d df2a dc3d bdc9 35be
00000220: 247b b6bd 0b56 413e 7ab2 513e 7dbe 37be
00000230: 8485 9abd 3498 373e 4b5d 113e 5555 71bc
00000240: 1f7d 06bd 7783 60bd dfc1 3b3e 6218 3d3e
00000250: 3adb 103e cae5 8fbc ac93 253e ef5b e6bd
00000260: 4eb8 7fba ab0f 01be e92b 4bbe 1aad 423e
00000270: e9cb ee3d 178d 093e 8202 3bbd b071 06be
00000280: 067b 6abe f732 403c 5c29 ea3c 1578 b4bd
00000290: 7ad1 28be 635a cf3c c617 6f3e 5c38 f9bb
000002a0: 5c27 263d 24be cbbe fa6c 1f3e b63f 183e
000002b0: 0fc3 ec3d ce8b 6e3e 703c 1e3e 13ea 553e
000002c0: 7b2c 16be 121c 07be 62f6 2b3e 65ce 1c3d
000002d0: 5631 94bd 5fc2 e23e 3156 0f3d 42f3 573e
000002e0: 23e7 08be 71c3 2abe e488 973e dd9c 0ebd
000002f0: 0fd1 31bc ac25 06be 4a1f 1f3e 5d9e 01be
00000300: c7e0 0fbd e90d 003d c18c 39be bf75 3ebe
00000310: 0011 65be d7b4 03be ef84 3fbd 81e3 74bc
00000320: ef05 693e 3453 353e 4353 473e 7c3e 783d
00000330: 1319 18be 32fa bdbe 476f 88bd 74b0 24be
00000340: 6f6e 1dbd 04db 0d3e b1a4 9e3d 39ed 6b3e
00000350: 2cd7 8abd 81fc 2abd 9792 26be e781 edbd
00000360: 5bf1 8b3e ad9f a23e 7053 0d3d 8fe3 44be
00000370: 5c2d 3fbe c048 433e 5a3f 573d 49ec 173e
00000380: b2a9 72bd e02e 3c3e 0721 20be 1545 27be
00000390: fa35 0e3d bb41 933e d98a 87bd f8e3 a03d
000003a0: c2f9 b63c 814e cabc 2775 043d b0bc a9be
000003b0: 8bef 583e 4247 163e 0859 0c3e 102b 303e
000003c0: f3d6 223e e30e c23e 85c1 473e 7823 05be
000003d0: 3317 723c 8ecd 5bbd 4aca 55be d05e b03e
000003e0: 07a8 573e d5d2 6e3e 5d0b 3e3e 2d93 9e3d
000003f0: 5c3b a53c 078b 3c3e 8bfb 69bd 1dd8 d23c
0.3230775 -0.071986966 -0.15872888 -0.21412252 -0.00085667684 -0.016518783 0.12800877 -0.101016305
0.13966617 0.2299886 0.06961268 -0.06225469 0.2805999 0.12985216 0.13879739 -0.06884013
-0.18734139 0.115640275 0.08465063 0.36667925 0.155858 0.044683892 0.038661387 -0.17828047
0.20146383 0.24205568 -0.1979212 -0.1173767 0.22870186 -0.0074313884 0.148462 0.14238246
-0.1432779 -0.097165234 0.21209162 0.016564723 -0.20792845 -0.2704066 -0.17414328 -0.06402724
-0.08362286 0.11378281 -0.20802519 0.3439541 0.04936162 0.04232679 -0.08714195 0.21431765
0.12939109 0.25391895 0.048230175 -0.15710573 -0.012938099 0.008692366 0.276965 0.39869788
-0.09520493 0.17326255 0.12600547 -0.03987297 0.1108861 0.41692045 0.18706512 0.033790816
0.0446951 -0.07522906 0.02593527 -0.0053554066 0.03068368 -0.20268115 -0.15870737 -0.03165751
-0.08334967 0.08625523 -0.08446664 -0.021258898 0.17740247 -0.15215114 0.028252134 0.057850584
0.08636668 -0.16112962 0.020347318 0.2342523 0.07046733 -0.24378306 -0.22363521 0.16367799
0.22832215 0.23500633 0.025110634 -0.113652505 -0.1512855 -0.15056138 -0.036705524 0.12348982
0.14168556 0.35560966 0.2098364 -0.06270558 0.20106168 -0.15052444 -0.22773074 -0.1543322
-0.12092082 0.16213033 -0.0626199 0.17036082 -0.3396195 -0.13908595 0.07716842 0.004979622
-0.034471177 0.13463128 -0.1548605 0.043034658 0.1192086 0.22805865 0.037926488 -0.20076326
-0.03623304 0.3213076 0.10343705 0.14863996 0.13742314 0.05684697 0.079504356 -0.022721566
0.15168884 -0.19664831 -0.17587437 0.12240656 -0.051496334 0.095981866 0.107503645 -0.17752738
-0.08910206 0.18880479 0.2047824 -0.1794376 -0.07544997 0.17929155 0.14195745 -0.014729817
-0.03283417 -0.054812875 0.18335675 0.18466333 0.14146128 -0.017565627 0.16169614 -0.11248004
-0.00097549416 -0.12603633 -0.19840969 0.19011346 0.116599865 0.13432728 -0.04565669 -0.13129306
-0.22898492 0.011730901 0.028584175 -0.08811966 -0.16486159 0.025311654 0.23348913 -0.0076055955
0.04056488 -0.39793503 0.15568915 0.14868054 0.11560642 0.23295519 0.15452743 0.20890073
-0.14665405 -0.13194302 0.16793206 0.03828277 -0.072359726 0.44288918 0.034994308 0.21088889
-0.13369422 -0.16676117 0.29596627 -0.034817565 -0.010853066 -0.13100308 0.1553928 -0.12658067
-0.035126474 0.031263266 -0.181201 -0.18599604 -0.22369766 -0.12861954 -0.046757635 -0.014946819
0.2275617 0.1770752 0.19465356 0.060606465 -0.14853315 -0.37104946 -0.066618495 -0.16082937
-0.038435396 0.13853079 0.07746256 0.23039712 -0.06779322 -0.041744713 -0.16266857 -0.115970425
0.27332577 0.31762448 0.0345034 -0.19227432 -0.18669647 0.1907072 0.05255065 0.1483623
-0.059243865 0.18377256 -0.15637599 -0.16334946 0.034719445 0.28761086 -0.0661828 0.078559816
0.02233589 -0.024695637 0.032338288 -0.3315177 0.21185128 0.1467562 0.13705838 0.17203927
0.15902309 0.37901983 0.19507416 -0.13001812 0.014776039 -0.05366283 -0.20877948 0.34447336
0.21060191 0.23322614 0.18559022 0.07742915 0.020169906 0.1841241 -0.057124656 0.025737816

net.0.bias f4 [128]
00000000: d22b 67be f006 af3d ded2 ebbc f9a7 34bd
00000010: a564 c8bd df3f 803d 4dde d63c bf52 2dbe
00000020: ef17 bebd b8a1 56bc c76d 4f3e 77e4 9e3d
00000030: 7ff6 23be c19c 86bd 1e7b 3ebe e2ee 39be
00000040: 31d2 333e 0e83 21bc 963d 393e 47fc 95bd
00000050: f43a 233e e61c 593e a91a 893d 3b7c 113e
00000060: f8b1 883d 37f6 36bd 78db 4ebb da5f 39be
00000070: 6d19 5fbc 3faf 2f3d 11e6 883d 6d96 4abe
00000080: 0cec 4f3e 27c1 14be caa5 5b3e dbe1 f1bd
00000090: 1df6 403d 2d04 a2bd 9948 463e 41a9 853d
000000a0: 2c7a 4fbd 7a80 68be 74f7 e3bc 3329 d63d
000000b0: 201d e83d c213 213e 066b 4a3e 9606 25bd
000000c0: c363 43be 3e8e e83c ddd2 f9bd d809 6f3e
000000d0: 821d 3abe fb8d 5a3e 09ab 433e 8fe7 3bbe
000000e0: 5eea 31be b430 383e ea91 a63d b516 cbbb
000000f0: dec9 01be cb23 2bbd 4251 613e 2b20 17be
00000100: 1e00 473e e875 e23d 014b cabd d138 63be
00000110: ae10 4bbe 768b 61be 74d2 92bd e19c bfbd
00000120: 6932 0e3d f05d 4c3e c650 2c3e 449c 6cbd
00000130: b945 f23d ef63 093e 4117 02be ddf2 82bd
00000140: 73c4 25be 8c88 68be 555f 97bd e0b7 4e3e
00000150: 8804 8f3d 184f 33be 2a46 a03d 799e 64bd
00000160: 13d5 343e 5669 593e 52da ac3d 62dc d13d
00000170: 89bd 50bd a21d 8c3d fde3 5bbe 2254 063d
00000180: 6551 24be ce8a 093d dc22 3fbd e336 3b3d
00000190: 116e 613e a0bd a3bd 8b90 ffbd d38c 2bbe
000001a0: d452 22be 8299 133e fa48 61be 4782 78bd
000001b0: 59bc 3bbe 2740 3f3e 21e0 9dbd 4d59 98bd
000001c0: f647 c23d d6fd 64be bc9f 3dbe ce38 17be
000001d0: a34b a0bd d4e8 16be d597 613e 3d23 11be
000001e0: c827 b83b 4e4f 97bd 2b6c 86bd c2fa 2dbe
000001f0: 9a90 3cbd 2e59 50bd cff3 14bd ebde 4cbe
-0.2257531 0.08546245 -0.028787073 -0.044105504 -0.097848214 0.062621824 0.026229048 -0.16926096
-0.09281909 -0.01310008 0.2025672 0.0775842 -0.16012 -0.06572867 -0.18601653 -0.18157533
0.1756065 -0.009857906 0.180899 -0.07323509 0.15940458 0.2120243 0.06694538 0.14207546
0.0667457 -0.044668403 -0.003156392 -0.1810297 -0.013616902 0.042891737 0.06684507 -0.19783945
0.20304888 -0.14526807 0.21449962 -0.11810657 0.047109712 -0.07910953 0.19363631 0.06526423
-0.05065362 -0.2270526 -0.027827956 0.10457077 0.1133368 0.15730193 0.19767389 -0.040289484
-0.19081025 0.028388139 -0.12198422 0.23343599 -0.18175319 0.21343224 0.19108213 -0.18350051
-0.1737456 0.17987329 0.081333 -0.0061977752 -0.12674662 -0.04178218 0.22003654 -0.14758365
0.19433638 0.11057645 -0.09877587 -0.22189642 -0.19830582 -0.22025856 -0.07169047 -0.09356094
0.034716044 0.1995771 0.16827688 -0.057766214 0.11829705 0.13417028 -0.12704183 -0.06393979
-0.1618822 -0.22708338 -0.0739123 0.2018733 0.06983286 -0.1751064 0.07825883 -0.055815194
0.17659406 0.21231589 0.08440079 0.10247113 -0.050962005 0.068415895 -0.2147369 0.03279508
-0.16046675 0.03357964 -0.046664104 0.04570664 0.22014643 -0.079951525 -0.12478741 -0.16752939
-0.15851909 0.14414027 -0.22000495 -0.060671117 -0.18333568 0.18676816 -0.07708765 -0.07438908
0.09486382 -0.22362456 -0.18517965 -0.14767763 -0.078269266 -0.14737254 0.22030576 -0.14173599
0.0056199767 -0.07388173 -0.065636 -0.16990188 -0.04603634 -0.0508663 -0.036365326 -0.20006911

net.2.weight f4 [128, 128]
00000000: 4a46 3b3c 29ed fe3b 8e17 bebd 5f48 fbbc
00000010: 892c d5bc 41c7 7cbd 6bcd acbd 347e 003d
00000020: 0279 6f3d a1a1 473c 6482 5fbd 2a53 283b
00000030: a182 f63b 87bf c0bd fbb1 633c aa6b bbbc
00000040: 194a 8a3d 82fe 553d 9794 263d 8df6 beba
00000050: 1ed8 dc3d 0684 733d 9f00 0a3d 22d1 72bb
00000060: d0a9 28bc 5e8f 2c3d 6bd1 a93d 27f8 93bd
00000070: ba77 f7bc e28d 423d 3fa7 853d 3f88 473d
00000080: af79 c93d c466 1ebd 7f49 6dba 9409 5cbd
00000090: 51c6 b33c a753 d8bd b8f2 8d3d 3c22 23bd
000000a0: dc12 ea3d 4f7f fcbc 83ec 4fbd c8b6 74bc
000000b0: b9ec 4dbd de72 6abd d7e2 05bb 2a94 9fbd
000000c0: a114 913d 0035 ffbd 47bb 8d3d 85ea 8a3d
000000d0: 0740 973d de54 4bbc 7d7a b0bd 85d2 a9bc
000000e0: 2f01 6b3d d7af 70bd 2536 9a3b 5938 b3bd
000000f0: c951 c73d d964 eebd 57bb b43d 6d6c eb3b
00000100: 9a0b c2bd 3794 aebd 9316 f03b e908 933d
00000110: b5bc 3ebb 9815 ae3d 6260 0fbc 76d3 843c
00000120: 2213 04bd af73 71bc 6f7d f7bc bb31 253d
00000130: 9d46 903c 380f 88bd 649e 25b9 ce67 cfbc
00000140: c626 b33c 562b 8ebd 6348 b4bd c8b8 19bd
00000150: 8074 16bd 3cc2 9dbd d89a 12bc babd 2e3d
00000160: 93ad 01bb cf23 a33a 79d3 cdbc f39a 21bd
00000170: 44ec 0cbd 38ff e03d b7a7 08bb 182b 2e3d
00000180: 6583 acbc 5a51 b63c 5462 203d df94 eebc
00000190: 6af2 193b 4f2c 81bb f46b d33d 61a1 803d
000001a0: 82a5 de3d b1f0 7d3d 3129 773d a319 cf3c
000001b0: 214c c33b a5ae 633d b46d 70bd ed89 3f3d
000001c0: 111d 463c 2d58 c1bd d3e6 be3a 8d7d cabb
000001d0: f001 8fbc 5080 a03d 51a3 a13d 5d05 b0bd
000001e0: d15d 81bd c218 e3bc 4812 0dbd d76b b4bd
000001f0: 85c0 063d abe3 99bc 8991 223d 055f 333c
00000200: ec15 a7bc 91d8 363d 46ef 36bd 55d9 e43d
00000210: fec2 573d 5fe2 1abc c6a9 5d3d 51e4 b3bd
00000220: d016 023d 7d21 c2bd b6f4 a13d 786e 65bd
00000230: 7f3f 40bd 0b15 0cbd 8706 2ebd 0429 bf3d
00000240: 5e56 223b 0258 453d 5f70 a8bd 7578 00bd
00000250: e8da 80bb 72ff 2ebb 1ca7 bf3d e3e9 403d
00000260: 0fd4 84bc a802 ff3c 194a 523d 7c2f da3c
00000270: dc5b 53bd 4ece 2d3d 5344 963c 51a5 e0bb
00000280: 346a 4b3d 5de0 b0bb c68f 8d3c 29bd 243d
00000290: d1ff 6a3c ed25 0d3d bf98 8b3c a4ae 8cbc
000002a0: 3120 45bd 035c 39bd 8240 9d3d db36 113c
000002b0: ca59 953c 37ee 20bd baf9 62bb 5bba 2dbd
000002c0: 74d9 933d 6208 f73c f2ad 9abc d2ec 16bd
000002d0: 94cf bcbd 82fe 57bd c9e5 3fbd 1834 e53c
000002e0: 5748 a6bd 0e4f 93bb 99fd 4e3c 0530 aa3c
000002f0: fdb1 413d 5d6e 12bb eef4 20bd 067d fd3c
00000300: dac1 9b3d c0f5 19bd 34cc 413d bffa ba3d
00000310: 4938 d2bc b2e7 44ba 54f7 eebd b82b c1bb
00000320: 8fb5 d7bd f671 6f3d 9fdc 62bd 5d6a cc3d
00000330: 4fb6 99bd a546 b4bd 8cbd b7bd 518a 0cbc
00000340: 8199 b1bd ce8d 87bd 3b93 56bd 3318 023d
00000350: 0394 b1bd f928 0ebd c200 9a3d 5a81 05bb
00000360: caa1 92bd 8d5a 82bd 3531 8dbc 498d debd
00000370: 231e b63c e891 e63d 3e91 96bc 75e8 f43c
00000380: a605 0b3d cc96 f7bb 3b34 fabd a0ef 3f3d
00000390: 9fb3 baba 6615 7abd 0a32 843d 2abb b03a
000003a0: 19c4 b33d 2b51 5abd a861 6b3d 16b1 cdbc
000003b0: eedf 633d e363 65bd c6d1 95bd 1c94 39bd
000003c0: be30 583d f6ac 88bc cf6f cf3d 7142 68bd
000003d0: e30d 48bd f7e8 3e3d ac75 9fbd a771 5cbd
000003e0: 3a81 dabc 07eb 393d 84ea a83d 08f0 79bd
000003f0: f27b 6bbd 7f5f cd3d e522 2cbd 9cbd 0f3d
0.011430332 0.0077797365 -0.092818365 -0.030674158 -0.026022213 -0.06171346 -0.08437618 0.031370357
0.05846501 0.012184531 -0.05456771 0.0025684335 0.0075228964 -0.09411531 0.013897414 -0.022878487
0.06752414 0.05224467 0.04066905 -0.0014569327 0.107834086 0.05945208 0.033692 -0.0037050922
-0.010294393 0.042128913 0.082918964 -0.07225066 -0.030208457 0.04749859 0.0652604 0.04871392
0.098376624 -0.038672224 -0.0009051784 -0.053720072 0.02194515 -0.105628304 0.069310606 -0.03982757
0.114293784 -0.030822424 -0.050762665 -0.014936157 -0.050274584 -0.057238452 -0.0020429397 -0.07791932
0.07084013 -0.12461281 0.06920486 0.06783012 0.07385259 -0.012410371 -0.08617113 -0.020730266
0.057374176 -0.058761444 0.0047061616 -0.08750982 0.09732396 -0.11640329 0.08824795 0.007184556
-0.09474869 -0.085243635 0.00732691 0.07179434 -0.0029104177 0.085002124 -0.008751007 0.016214114
-0.03224481 -0.014737054 -0.030211179 0.04033063 0.017611796 -0.06643528 -0.00015794631 -0.025318053
0.021869075 -0.069418594 -0.08802869 -0.037529737 -0.036732197 -0.07703063 -0.00894805 0.042661406
-0.0019787296 0.0012446585 -0.025125252 -0.03945441 -0.034405008 0.10986179 -0.002085192 0.042521566
-0.021058748 0.022255588 0.039156273 -0.029123722 0.0023490437 -0.0039420496 0.10323325 0.062807806
0.10871412 0.06199712 0.060342018 0.02528078 0.005960003 0.055586476 -0.05869837 0.046762396
0.012091891 -0.09440646 0.0014564641 -0.0061795176 -0.017456979 0.07836974 0.07892478 -0.08594773
-0.06316722 -0.027721766 -0.034441262 -0.08809631 0.032898445 -0.018785318 0.039689574 0.010947947
-0.020396195 0.044640128 -0.044661783 0.11174265 0.052676193 -0.009453385 0.054116987 -0.08783782
0.031760037 -0.09479044 0.07908003 -0.056013554 -0.046935555 -0.034199756 -0.042486694 0.09333995
0.0024770717 0.048179634 -0.08224558 -0.031364877 -0.0039323457 -0.002670255 0.093580455 0.04709805
-0.016214399 0.031129196 0.051340196 0.02663397 -0.051601276 0.042433076 0.018343126 -0.0068556448
0.04966183 -0.00539784 0.01728047 0.04021946 0.014343218 0.034459997 0.017040608 -0.017173119
-0.048126403 -0.045253765 0.076783195 0.008863176 0.018231291 -0.03928968 -0.0034633712 -0.04241405
0.0721921 0.030155364 -0.018881772 -0.036846943 -0.0921928 -0.052732952 -0.04685 0.027978942
-0.081192665 -0.004495508 0.012633705 0.02077485 0.047288883 -0.0022343614 -0.039296083 0.030943405
0.076053336 -0.03758788 0.047313884 0.09129857 -0.025661604 -0.0007511332 -0.11668268 -0.0058951043
-0.105326764 0.05845829 -0.055386182 0.09981225 -0.07505476 -0.08802537 -0.089717 -0.008577899
-0.08671857 -0.06618844 -0.052386504 0.03176136 -0.08670809 -0.034707043 0.07519676 -0.002037129
-0.07159765 -0.063649274 -0.017235378 -0.10866792 0.022231167 0.11258298 -0.018379804 0.029896
0.033940934 -0.007555818 -0.122169934 0.046859384 -0.0014244205 -0.061055563 0.06454857 0.0013483514
0.08777637 -0.053300064 0.05746618 -0.025108855 0.055633478 -0.056003463 -0.07315402 -0.045307264
0.05278086 -0.016684037 0.10128748 -0.05670399 -0.04884137 0.04660889 -0.07786116 -0.053819325
-0.026672948 0.045390155 0.08247855 -0.061019927 -0.05749125 0.1002798 -0.042025466 0.035092935

net.2.bias f4 [128]
00000000: 2441 e6bc fc10 81bd 42c4 b83d 0d9b 86bc
00000010: ed66 fb3c 952b 2a3d 2f5b 82bd 0a98 af3c
00000020: 0148 423d c5db 5c3d 3100 1fbd b28e ab3d
00000030: b5a2 89bd 1638 b2bd 5752 0abb a9cb 273d
00000040: f12b 9d3d 6e16 b73d 3a45 8e3d 9a97 983d
00000050: 059c 053d 0244 a33c 7d04 0dbd 04ae 97bc
00000060: 8c3b bdbd 7df8 f93c 5c69 95bd fa4b 683d
00000070: 891f 57bd 1528 b139 9bf9 c5bb c269 b2bc
00000080: 1072 9dbd 3b56 ab3d 87fe 84bc 9d8a 423c
00000090: 4b44 3e3d 0db1 81bb 66b2 4d3d 08ea b83c
000000a0: 1626 53bd 6a4a 763d 4e00 8a3d 6389 a23d
000000b0: aee6 4e3d 4b3b 6e3d 2f0d 903d 20a7 553b
000000c0: 560a d73c d204 80bb b52e 513d 5c45 68bc
000000d0: 60b2 e03c fb42 33bd ea89 7bbd ddd3 153b
000000e0: 8828 b23d bb32 053c 8c31 963d 7d19 a03d
000000f0: d89f 94bd 21bd 963d f3bc 9cbd 87a6 243b
00000100: a642 80bd 6b2c 983d 37f3 773d 73cc 3d3c
00000110: 45f9 963d 5ea8 383d b4aa aabc 86df 97bd
00000120: f973 7f3d 1a25 2abd 0531 7abd 14cc 893d
00000130: 03f5 953d e6da b4bd f07c 84bd 904e cebb
00000140: a543 a23c b333 a93d baaf eb3c 4660 0dbd
00000150: f8b4 6b3d ed24 003d ec1e b3bd e92b 1dbc
00000160: 1980 483d d22a fbbc 3a02 90bd cd7e abbd
00000170: 2a5c 4d39 718c 4cbc a5b1 84bd 2ebb 8abd
00000180: 8fae b13d 0163 6c3d e0b2 1e3d 1fdc b83d
00000190: 9acd 93bb 528b 653d b11c 813d 5df9 0cbb
000001a0: 8bb2 29bd b2e9 83bc fce5 4e3d d010 0c3c
000001b0: 1dbd 9ebd 7235 82bd 6834 563d b84d 123d
000001c0: 518d 3abd 14bd 483d 8ecf 2a3d 5c4f c63c
000001d0: bc10 b3bd bf50 8ebb d093 2bbc e65f 74bd
000001e0: 581b 1c3d 9657 69bd 6df8 94bd 17d6 c1bc
000001f0: f0bb a2bd 691c 943d 0f89 9d3d 3a2e 08bd
-0.028107233 -0.06302068 0.09021808 -0.016431356 0.030688727 0.04154547 -0.06365048 0.021434803
0.04743195 0.053920526 -0.038818542 0.08376826 -0.06720487 -0.08702104 -0.0021106207 0.04096571
0.07674397 0.08939825 0.06946798 0.07450791 0.032619495 0.01992989 -0.03442811 -0.018515594
-0.09239873 0.030513996 -0.07295486 0.056713082 -0.05252031 0.00033789934 -0.006041718 -0.021778945
-0.07687771 0.083660565 -0.01623465 0.011873868 0.046451848 -0.0039578737 0.050218962 0.022572532
-0.051549993 0.06012956 0.06738339 0.07936361 0.050512962 0.058162015 0.070337646 0.0032600835
0.026250046 -0.0039068246 0.051069934 -0.014176693 0.027428806 -0.04376505 -0.061410822 0.0022861876
0.08699137 0.008129771 0.07333669 0.078173615 -0.0725705 0.07360292 -0.07653227 0.0025123672
-0.06262712 0.07430347 0.060534682 0.011584389 0.07371763 0.045082442 -0.02083335 -0.074156806
0.06236646 -0.04153929 -0.061081905 0.06728378 0.07322123 -0.08830814 -0.064691424 -0.0062959865
0.019807646 0.08261814 0.028770316 -0.03451564 0.057545632 0.031285215 -0.08746132 -0.0095929885
0.04895029 -0.030660067 -0.07031675 -0.08373795 0.00019584657 -0.012484656 -0.064791955 -0.06773983
0.086758725 0.057711605 0.038744807 0.0902636 -0.0045105936 0.05604107 0.063043006 -0.0021510937
-0.041430037 -0.016102646 0.0505123 0.00854893 -0.07750914 -0.0635785 0.052296072 0.03571865
-0.045544926 0.049008444 0.041701846 0.024207763 -0.08743426 -0.004343122 -0.010472253 -0.05966177
0.038112015 -0.056968294 -0.07273946 -0.023661656 -0.079460025 0.07231981 0.076921575 -0.03324721

net.4.weight f4 [3, 128]
00000000: 6d0d 0bbe dfc5 bcbd cc20 413e 7027 88bd
00000010: a556 80bc 1ee2 ccbd 3100 033d 5805 acbd
00000020: 53ef 6e3d 4de0 193c 6c1f f2bd a4c8 8e3d
00000030: 2914 c63d c81a dbbd 001e 5d3c f417 e5bd
00000040: e0fe 463d f4a5 61bc d1b7 9cbd ee57 a93d
00000050: 1cb2 613d de65 133d 8972 e6bd 4cab 81bd
00000060: 7e0e 06be 55e4 f83d f940 373e 77a2 c6bd
00000070: a95e 213e 7357 bb3d a11f 153e a473 d9bd
00000080: 757d c0bd 0de8 7b3d f2fc f5bc 0c6c aabd
00000090: fd23 c3bd 40e1 54bd 546a b33d 84a6 433d
000000a0: 46c0 2cbc 4c78 753d 264c c1bd b240 c73d
000000b0: 70d7 ad3d faf0 10be 5e71 bfbd 17a4 85bd
000000c0: 8e8a 0e3e 8f2f 37be 4798 29bc c584 d4bd
000000d0: df91 fbbd fbdb 2b3e be8f 9f3d c069 903d
000000e0: 9d65 173e 24db 49bc 5ee4 433d db6b 1d3d
000000f0: 4a09 cb3d 157f a23d c986 babd b4d8 8fbd
00000100: 2d21 373d fe6a 07bd c0c7 823d 6287 92bd
00000110: a329 c33d 5e8d c4bd ef49 b0bd 744f db3c
00000120: 1c2d 5dbc e9e5 273d 6af3 d23d 756b 1fbe
00000130: b43a 943c 1174 a63d 3cb3 d63c 80d8 563d
00000140: 7952 3bbc f571 b6bd 7a42 6c3d 68d6 fdbd
00000150: b5d4 253d 22f5 173e e96d 18be 72f2 813d
00000160: e8e5 763d 0494 e4bd d141 c13d 7b88 b1bd
00000170: 6ff1 da3d 2dd7 d33d acfd ba3d 17da 893c
00000180: 971e fc3d 12ad 4b3d 8593 2bbd e595 923c
00000190: 55b3 b23d 6bfe e5bc a564 f9bd 4baf f9bd
000001a0: 4a72 27be 00a4 a3bd 7a05 9cbd 4770 7e3d
000001b0: 948a 8f3d 71a0 8a3c 5e85 b83d 4d68 a23d
000001c0: 71cf a93d 65a0 373d 3da0 1f3e becb 83bd
000001d0: e357 00be 4560 673d dac2 a23a a029 18be
000001e0: 271a 2ebd da7c 813c cbbf 0bbe 484e e03a
000001f0: c243 c0bd 5950 0e3d 00bf 9e3d a190 bbbd
00000200: 0106 f73d 75e9 a8bc 6874 103d 314d 89bd
00000210: 2cbf 463d c9b5 1abe f2e7 83bd be97 a4bd
00000220: 5c53 acbd 6542 6b3d 6452 12bd a93a 3ebd
00000230: f8b4 53bc aa59 a83d fa5a 9a3d e8ff 943d
00000240: d163 40bd 3690 ff3d 680a 88bb 0e9d 893d
00000250: 18d2 423d 0a2a 0b3d e10f 293d 2ae3 b43d
00000260: 137b 05be b03e 1bbd fb03 b7bc 2bd7 bcbd
00000270: aaf5 303d 94b4 55bd f61a b93d 1d51 fa3c
00000280: 3dc7 d1bb 5bfa febc bedc dbbd 98b6 c7bd
00000290: ad4c c33d 8ad2 c53d 9b99 533d ea22 6dbc
000002a0: ee72 4dbd 9962 9bbd 0296 93bd 34ef 223e
000002b0: 8047 01be 8e90 c0bc 10ac b8bb 75ad 8dbc
000002c0: c86d c9bc 0daa 8bbd d06e d33d e864 7abd
000002d0: a442 2ebd 4785 d03d e465 e63c ce94 c5bd
000002e0: e89e f0bc 9337 c23d dc31 d53d 0951 11bd
000002f0: 8b29 40bc acbb 563d d34c 9e3d 6521 d33c
00000300: b099 493e 38da 65bc abf9 4fbd e1a0 163e
00000310: 734d a8bd 6f89 c8bd c233 9c3d 874c bc3d
00000320: 0539 a3bd 2e74 e13d f842 a6bd 267e a2bc
00000330: 5970 d1bc bcc5 113d 9b75 13bd 72d1 eebd
00000340: eacc 833d 36b7 003e c39f c2bd 5e1b 4e3c
00000350: 7ba7 e13d 7f6a 553d 0e07 7ebd 5afc c23c
00000360: ee30 91bc e5f5 dd3d f26f 053e 9349 983c
00000370: ee6e a0bc fc25 563b 6ccd 973d f451 203d
00000380: c95a acbd 0684 68bc d616 b3bd 7398 08bc
00000390: 1210 b53d 94e3 83bd c00c c1bd 49af 913d
000003a0: eed4 ad3d aef6 fdbc 146a ca3d ec3a f93d
000003b0: 6cb1 223d 8c68 06bd 19cd 97bd 8822 debc
000003c0: 0c9b 1ebd c194 ad3d d642 88bd 761b 83bd
000003d0: aa77 e8bc d115 0cbd 3e8f 153e 19db 1abe
000003e0: ccad f0bd 45e8 90bc a280 593b bf24 09bd
000003f0: 7233 963d d419 1f3e 9b07 1e3c d9c2 4f3d
-0.1357934 -0.092174284 0.18860167 -0.06648147 -0.015666315 -0.10004066 0.031982604 -0.08399457
0.058333706 0.009391856 -0.118223995 0.06971863 0.09671814 -0.106984675 0.013495922 -0.11186209
0.04858291 -0.013772476 -0.07652248 0.082687244 0.0551015 0.03598582 -0.112523146 -0.063315004
-0.13091466 0.12152926 0.17895879 -0.096989565 0.15758766 0.09147539 0.14562847 -0.1061776
-0.09398929 0.061500598 -0.03002784 -0.083213896 -0.095283486 -0.051972628 0.08760515 0.047766224
-0.010543888 0.059929177 -0.09438352 0.097291365 0.08488357 -0.14154425 -0.09347795 -0.06525438
0.13920042 -0.17889236 -0.010351247 -0.10376886 -0.12283682 0.16783135 0.077910885 0.0705142
0.14784856 -0.012320314 0.04782521 0.038432937 0.09913881 0.07934395 -0.091077395 -0.07023755
0.044709373 -0.03306102 0.063857555 -0.071547285 0.09529426 -0.09597276 -0.08607852 0.026771285
-0.013499524 0.040990744 0.10300334 -0.15568335 0.018094398 0.08127607 0.026208512 0.052452564
-0.011433237 -0.08908454 0.057680584 -0.1239441 0.040486056 0.14839604 -0.14885677 0.06345071
0.06027785 -0.11161044 0.094363816 -0.0866861 0.10690581 0.10343776 0.09130415 0.016827626
0.12310522 0.0497256 -0.041888732 0.01789374 0.08725611 -0.028075418 -0.121773995 -0.121916376
-0.16352192 -0.07990265 -0.07618232 0.062118795 0.070088536 0.016922208 0.09009813 0.0793005
0.082915194 0.0448307 0.1558847 -0.06435345 -0.12533526 0.056488294 0.001241769 -0.14859629
-0.04250541 0.015806604 -0.13647382 0.0017113173 -0.09387924 0.034744594 0.07751274 -0.09158445
0.12061692 -0.020619133 0.035267264 -0.06704176 0.04852216 -0.15108408 -0.064407244 -0.08036755
-0.08414337 0.057436366 -0.035723105 -0.04644266 -0.012921564 0.08220227 0.07536884 0.07275373
-0.046970192 0.12478678 -0.004151631 0.06719409 0.047563642 0.03397564 0.04127491 0.088323906
-0.1303523 -0.03790158 -0.022340765 -0.092207275 0.043203034 -0.052174166 0.090383455 0.030556256
-0.006401925 -0.031125238 -0.107354626 -0.09751624 0.09536109 0.09659298 0.05166016 -0.014473656
-0.050158434 -0.075871654 -0.07206346 0.15911561 -0.12624931 -0.023506429 -0.005635746 -0.017294625
-0.02458848 -0.06819544 0.1032387 -0.061131388 -0.042544022 0.10181671 0.028124757 -0.09647523
-0.029372647 0.09483256 0.104099005 -0.03547767 -0.011728655 0.05242507 0.07729497 0.02577276
0.19687533 -0.014029078 -0.05077521 0.14709808 -0.08217897 -0.097918384 0.076270595 0.09194284
-0.0796986 0.11008488 -0.08118242 -0.019835543 -0.025566267 0.035588965 -0.03600083 -0.11661042
0.06435569 0.1256989 -0.095031284 0.012579767 0.110182725 0.052103516 -0.062018447 0.023801971
-0.017723527 0.10837916 0.13030985 0.01858977 -0.019584145 0.003267645 0.07412228 0.039140657
-0.084157534 -0.014191633 -0.0874459 -0.008337128 0.08840956 -0.064398915 -0.0942626 0.07113511
0.08487879 -0.031001415 0.09883514 0.121694416 0.039719984 -0.032814547 -0.07412166 -0.027116075
-0.038722083 0.08475638 -0.06653373 -0.06401722 -0.028377373 -0.034200493 0.14605424 -0.15122642
-0.11751899 -0.01768888 0.0033188243 -0.03348231 0.07334031 0.15537196 0.009645368 0.05072293

net.4.bias f4 [3]
00000000: 5f6d 593c 7247 a83b 2b60 c33c
0.013270705 0.00513547 0.023849567

net.0.weight f4 [128, 18]
00000000: 1029 7d3d 3ce9 fabc 27be 7e3d c02f 68bc
00000010: af80 a9bd 73a5 703e 01f3 923d a59f 94bd
00000020: ea7a 463c ecd9 92bc b5a0 75bd 2475 5c3e
00000030: f249 9dbe 6a31 15be 076d 83bd e451 15be
00000040: e55b d0bb 2b37 4abd 6601 8fbd dc8e c2bd
00000050: 2244 39bc f348 08be 4df2 8a38 3ff3 2fbe
00000060: 2890 18be 8a64 473d b9f5 3ebd 5c6a 043e
00000070: 8337 18be 99a6 12be 5488 5f3d ca76 d3bd
00000080: f887 aabd 7378 423e d368 c8bd 75b9 e8bd
00000090: 8256 1fbe ed9b 4e3e 34f0 013d 6d13 333e
000000a0: 3ec5 1b3e 272a 23be aa37 c03d 0304 1c3e
000000b0: 8867 93bc 4295 8b3d 8528 633e dccf d0bb
000000c0: cacf 3bbe 9be5 04bd a95e 1c3b 3778 5f3e
000000d0: f9e8 7fbb 5f12 053d cded 45be 09eb ec3c
000000e0: f497 b3bd 03e9 e13d 896c 9739 2ede edbd
000000f0: 469c af3d 4484 48be 9cde aabd 8c16 49be
00000100: 0f35 893d b091 89bd ed9c 01be f3fb 1bbe
00000110: 5f32 e33c bf0b 87bd 9499 bdbd 22d6 093d
00000120: a1b1 65be 2df8 c1bd 0be3 efbd dc81 d93d
00000130: f2d2 ccbd 90e1 05be df90 ce3d 2e72 4dbe
00000140: 65d6 a23b d733 263e f428 ad3d 12db 573e
00000150: 051e 043e 8ece 13be fe76 003d 7b89 663e
00000160: 7d65 6bbe f067 163d 1c44 6a3e 6b43 0ebe
00000170: e093 a63d 3672 9f3b e321 cbbd d96e 35be
00000180: aac1 59bd c621 fe3d c16c 5c3c d6ba f9bd
00000190: b99a 2a3e 338b d23d 5912 523d fa0f ba3d
000001a0: f8cd c0bd 6ea5 3dbe 8a0f 723d c536 2d3e
000001b0: 2956 813e 88d8 803c 11d4 373c 4649 043e
000001c0: 1f31 3c3e 6b06 3dbe a91b 0b3d 5e79 e33d
000001d0: be6a 22bd 0246 ee3d edd4 2dbe e5a0 d73d
000001e0: 787d 9dbc cf1a 32be 43ca 2b3c 436e 2c3d
000001f0: 46a8 643e f037 75bd 9c4c c0bc 1918 d43d
00000200: 4b3a 3d3d d6da 27be cc47 11be eb36 6fbe
00000210: 5563 a6bd 2308 d0bd 30c8 06bd ac7e 3b3e
00000220: 4b71 5b3e b6cb ccbd 9b76 323e 8720 053e
00000230: 37d7 b53d eda0 a63d 1f22 0a3e de72 88bd
00000240: 2944 193e 0b95 fcbd 10fa 833b ae14 c13d
00000250: a713 36be 4414 10be 9678 6b3d 43f0 463e
00000260: e56b 66bd bdec 2dbe e352 d43c 1070 5ebe
00000270: a78e 063e c46b 043e 2f09 053d dcdd c5bd
00000280: 49d2 e23d 4d34 e83d b4c6 10be adaf 51be
00000290: 48e8 863d fccf 8fbb 1032 be3d 72e0 bbbd
000002a0: c470 93be c260 913d a45d 383d 8260 6bbe
000002b0: aaee b53d 1b81 9f3d 0af2 b6bd dc09 22be
000002c0: d65f bebd 25a3 6ebe 9abb 003e 2459 01be
000002d0: a1e7 c1bd d175 ccbd 1897 eb3b cdf3 c1bc
000002e0: 327c 6e3e 9d80 1cbe df4c 8b3c ba65 bb3b
000002f0: 87eb 44bc db76 33be 579d 103d 37e9 cb3b
00000300: 06db 01bc ca1d e93c d60e 9d3d 65d8 f5bc
00000310: 5350 9dbd ff27 63be 2c2e 7dbb eaad 0b3e
00000320: 5f5c 98bd f8af 4b3e ea73 6cbe 4cb5 42be
00000330: f191 0dbe 4a49 463e 4976 27bb d4f3 c7bd
00000340: 2546 1abe 02f3 19bd 8bd5 923d 0a7b f7bd
00000350: 75fa 2bbd 37ca 023d 8f85 26be 82a5 503e
00000360: d696 72bd 2e90 40be 2841 363b e38a 233e
00000370: dbcc 23be c630 6f3e 3083 103d f5dc 1a3e
00000380: b42e 2cbd ccb8 e93d de55 2dbe 30ee 6dbe
00000390: 0c0d 58bd d49e 4fbe f9b2 d9bd 218d e7bd
000003a0: c447 433e ee8d 0e3e c01a d03d 0e3f 4d3e
000003b0: 8148 b73d c96f 9b3d 18f3 ce3d b565 1d3e
000003c0: 6059 003e 5437 5bbd 15ec 97bd 5004 dcbd
000003d0: af1b bebd 5f1a 7b3c 572c 0cbe 3b81 c5bd
000003e0: d43a c93d 550b 103e d3dc dfbd bbdb 5dbd
000003f0: a870 39bd 0175 d7bd 748e ff3c 459d e43d
0.06180674 -0.030628793 0.062193062 -0.014171541 -0.082764976 0.23500614 0.071752556 -0.07257012
0.012114266 -0.017926179 -0.059967715 0.2152906 -0.30720478 -0.14569631 -0.0641728 -0.1458202
-0.006358611 -0.04936902 -0.069826886 -0.094999045 -0.011307748 -0.13309078 6.625485e-05 -0.17182635
-0.14898741 0.048679866 -0.046621058 0.12931198 -0.14864926 -0.14321364 0.054573372 -0.103253916
-0.08326715 0.1899126 -0.09785619 -0.11363498 -0.15560344 0.20176668 0.031723216 0.17487879
0.1521196 -0.15934049 0.09385617 0.15235905 -0.017993703 0.06815578 0.22183426 -0.006372435
-0.18340984 -0.03244553 0.0023860133 0.21823202 -0.0039048775 0.032488223 -0.19328995 0.028920667
-0.08769217 0.110307716 0.0002888183 -0.11614643 0.08574729 -0.19581705 -0.083432406 -0.19637507
0.06699573 -0.06717241 -0.12657519 -0.1523283 0.02773398 -0.06594037 -0.09257808 0.03365148
-0.22431041 -0.09471164 -0.11713227 0.10620472 -0.10001172 -0.13074327 0.10086226 -0.20063087
0.0049694055 0.16230713 0.08455077 0.21079662 0.12902077 -0.14434263 0.03136348 0.22513382
-0.22987933 0.036720216 0.22877544 -0.13892905 0.08133674 0.00486591 -0.09918573 -0.17718066
-0.053163208 0.124087855 0.013453663 -0.12193839 0.16660585 0.102804564 0.05128703 0.090850785
-0.094142854 -0.18520138 0.05909685 0.16915424 0.25261047 0.01572825 0.011219994 0.12918577
0.18378113 -0.1845948 0.033961926 0.11107133 -0.03965258 0.11634447 -0.16975756 0.10528735
-0.019224867 -0.17393039 0.010485235 0.04209734 0.22329816 -0.0598678 -0.02347403 0.10356159
0.04619817 -0.16392073 -0.14187545 -0.23360793 -0.08124415 -0.10157802 -0.032905757 0.1831004
0.21429937 -0.09999792 0.17428057 0.1300069 0.088789396 0.08136163 0.13489579 -0.06662534
0.14967407 -0.12333115 0.0040276125 0.094277725 -0.17780934 -0.1407023 0.057488047 0.1942759
-0.05625524 -0.1698484 0.02591843 -0.21722436 0.13140355 0.12931734 0.03247946 -0.09661457
0.11075265 0.113381006 -0.14138299 -0.20477171 0.06587273 -0.0043888073 0.092868924 -0.09173669
-0.2879697 0.07098533 0.045011178 -0.22986034 0.08883412 0.07788297 -0.08932884 -0.15824074
-0.09295623 -0.23304422 0.12571564 -0.1263166 -0.09468008 -0.09983409 0.0071896426 -0.023675824
0.23289564 -0.15283437 0.017004428 0.005718914 -0.012019045 -0.17525809 0.0353063 0.0062228697
-0.007925754 0.028456587 0.07668845 -0.030010412 -0.07681336 -0.22183226 -0.0038632257 0.13640562
-0.074394934 0.19891346 -0.23091093 -0.19014472 -0.13825203 0.19363895 -0.0025552681 -0.097633034
-0.1506582 -0.037585266 0.07169636 -0.12084015 -0.0419869 0.03193113 -0.16261886 0.20375636
-0.05922588 -0.18805 0.0027809832 0.1597095 -0.15996115 0.2335845 0.03528136 0.15123351
-0.042036727 0.114122 -0.16927287 -0.23235393 -0.052746817 -0.20275432 -0.106298395 -0.11306215
0.19070345 0.1392133 0.10161352 0.20043585 0.08949376 0.07589681 0.1010496 0.1537083
0.12534094 -0.053519562 -0.07418076 -0.1074301 -0.09282624 0.015326112 -0.1368879 -0.096437894
0.09825674 0.14066823 -0.10930791 -0.05416463 -0.045273453 -0.105203636 0.031195857 0.11162809

net.0.bias f4 [128]
00000000: d33b 95be f386 a23e 1bb4 3abe f908 87be
00000010: 32a1 4dbe cb1c 993e e3db ad3e 3947 bc3e
00000020: 5c50 933e c97d 34be bac3 753e 0625 6b3e
00000030: df05 44be a869 68be 81d9 52be 499a b83e
00000040: e8a9 9b3e 398f 8d3e 2779 b8be e7f3 93be
00000050: 612c 983e cf69 a2be 92d7 52be 3947 bcbe
00000060: baa1 98be 9f71 acbe b6ab 6c3e ac32 853e
00000070: 39dc 923e 041e a2be f9b3 a13e a3fc 403e
00000080: 4493 9abe 7c99 b9be 806e 5e3e ff21 72be
00000090: 94e5 913e 9905 9a3e f3e2 b4be bb6c 85be
000000a0: 1ceb 50be 78e6 3cbe a321 b93e f7fa b13e
000000b0: cd4a 5fbe 63b6 96be 279c 39be 9a2a af3e
000000c0: 810f b33e 3eea 6d3e 1587 a33e bd5e 95be
000000d0: e506 29be bf5d 8bbe a141 a1be 90b6 bf3e
000000e0: 4e21 babe e89d 883e 7a1c a23e d52b 82be
000000f0: 4508 4dbe 5c08 a5be 7bc9 b33e 835a 503e
00000100: 4ea6 62be 7181 4fbe cf57 823e 5846 5dbe
00000110: 46fc b8be 515a 903e 5a95 be3e 933c 9abe
00000120: 3aa4 62be cabb 95be c6a8 b63e 7ffe b33e
00000130: c935 89be b682 823e 2b69 58be f2e5 4bbe
00000140: b26d a7be 75ae b23e 5da0 69be 351b 643e
00000150: df64 6e3e a9de b03e 6851 663e bcfe 80be
00000160: 05b7 b8be 1718 47be 4a4f 87be bc2c 60be
00000170: 282e c23e d08e aabe c0ad 263e 6be8 59be
00000180: 6e8b a1be 3f2a 483e c98b b3be aa9d 8e3e
00000190: 98ff 863e c58d 9a3e 20a7 91be 67d1 49be
000001a0: 79b9 92be 4f88 903e a3b6 6bbe 8905 6ebe
000001b0: 505d a6be 6b26 563e f48d acbe 715c a6be
000001c0: ba1b 92be 8d4d a8be a226 753e 48ff b5be
000001d0: e9bf ad3e 3b89 3b3e 23bc b73e ddc7 863e
000001e0: 8c82 553e e3a9 c0be bc14 90be 13cd 8d3e
000001f0: 7cef aa3e edaa 6b3e 9331 aebe 7a35 60be
-0.29147205 0.31743583 -0.18232767 -0.26374033 -0.20081022 0.2990478 0.33956823 0.3677309
0.28772247 -0.17626108 0.24000445 0.22963342 -0.19142865 -0.22696555 -0.20590784 0.3605521
0.30403066 0.27648333 -0.36029932 -0.2889702 0.29721358 -0.3172135 -0.20590046 -0.3677309
-0.29810888 -0.33680436 0.23112378 0.26015222 0.28683642 -0.31663525 0.3158262 0.18846373
-0.3019048 -0.36249912 0.2172184 -0.23645781 0.28495467 0.30082396 -0.353294 -0.26059517
-0.20402187 -0.18447292 0.36158475 0.34761783 -0.21805878 -0.29436025 -0.18125974 0.3421219
0.34972766 0.23233888 0.31938997 -0.29173842 -0.16506536 -0.2721996 -0.31495383 0.37443972
-0.36353534 0.26682973 0.3166235 -0.25424066 -0.20022686 -0.3223294 0.35114655 0.20347027
-0.22133753 -0.20264222 0.25457618 -0.21608865 -0.3612997 0.28193906 0.3722332 -0.3012434
-0.2213296 -0.29244834 0.3567564 0.35155103 -0.26798847 0.2549035 -0.21133868 -0.19911936
-0.32700878 0.34898725 -0.2281508 0.22276004 0.23280667 0.34544876 0.22491992 -0.25194347
-0.36077133 -0.19442783 -0.2642768 -0.21892065 0.3792584 -0.33312082 0.16277218 -0.21280067
-0.3155169 0.19547366 -0.35067585 0.27854663 0.26366878 0.30186287 -0.2844782 -0.19708787
-0.2865713 0.28228995 -0.23018889 -0.23244299 -0.32493067 0.20913093 -0.33702052 -0.32492402
-0.2853678 -0.32871667 0.23940518 -0.35546327 0.33935478 0.18314068 0.35885724 0.2632436
0.20850581 -0.37629613 -0.2814082 0.27695522 0.33385837 0.23014422 -0.34022197 -0.218954

net.2.weight f4 [128, 128]
00000000: d679 7a3c 381d cfbd ad5e 523e c2f1 f63d
00000010: e410 373d 9d53 c539 0e3c bcbd 0529 cdbd
00000020: b9a7 3dbd bbc8 cd3d 7ae5 5dbd 99d9 f8bd
00000030: b369 233d 3ef9 d13d 6905 a63d 737e 903b
00000040: d514 acbd 1fef 22be 1755 8c3d aec4 813a
00000050: 8c92 8cbd 5e0f 053e b62e 0e3e 65d5 153e
00000060: 20d2 813c 41f1 5c3d b3aa c2bd cf1f a8bc
00000070: 8b5d d9bd 6def 953c ba88 1138 d302 0fbe
00000080: fffb 1d3e 0cf3 763b a9f1 29be 9270 813d
00000090: 0e75 7fbd aef3 1cbe 787b 00bc d30b 873d
000000a0: c7e7 5c3e 58ee e23d ffb8 6a3b 5005 eabd
000000b0: 18a0 073e cbbf 553d 1361 c13d 7dc1 76bc
000000c0: 3f4b a1bd b64f 6ebd 28bf 083c 44c6 173e
000000d0: a722 3c3e 89a8 c83d 501b 163e e754 e8bd
000000e0: 735a b73d 398c dbbd 8adf 7ebd 3362 283e
000000f0: 46e4 3f3e 16ac 263e de9d e2bd 0bfd 27be
00000100: 92d5 3d3e 44a3 223e c85a f5bd c774 0a3e
00000110: 037b 1b3e 910a 0abe b36d c5bc 72cf 013e
00000120: db5d 0f3e 8f2c e03d 89ac d3bc dcb8 7dbd
00000130: fea4 133d 9a3b 0bbe ad4a 6e3d 66a4 093e
00000140: ef2f 263e f51a 98bc 9e6d 0f3d 3a1a 05bd
00000150: d19d afbd 8cf6 94bd 1678 14be 95e9 983c
00000160: 885f 423d c617 433e cd1c f73d 7b7a 153e
00000170: 246c 04be b9ab 813d bf41 57be 1530 303e
00000180: a686 ee3c 2ec3 36be 2000 193e 27c5 bcbd
00000190: ca52 dcbd 9322 26be 37d2 2b3e b0b3 2d3e
000001a0: d5d8 073e b6c8 19be 9744 0e3e a61c 283d
000001b0: 05e4 563c 4ae0 2fbd 9cb7 b1bb fb02 d33d
000001c0: a771 dc3d b3bf 0e3e 2f0d 30be ae03 f83d
000001d0: 8b9d 25be 6c0a 83bd 7d4b b1bd 21bc fdbc
000001e0: 1263 f2bd 9d4c 1b3e caa7 053e 2d63 3bbd
000001f0: 0f1b b5bd 0c15 dabd 4916 053e 62b3 0c3d
00000200: f5f9 0ebe f0c5 373e c013 74be 9ef8 39be
00000210: 8239 9fbd ed52 173d 81be d73d 5af2 cc3d
00000220: 1dcd e23d 3d65 59be 21c1 493e 38a8 b93d
00000230: 2fa6 bebd de39 54be fae6 ddbd fce2 253e
00000240: c52c 183e 1f1e 493e 711e f3bd 0a4f fbbd
00000250: 40ec 1d3e 7422 09be c47c e5bd 3fed 98bd
00000260: abfb 17be 8dc8 6cbd fe46 ae3d 1277 513d
00000270: 8d57 8f3d 38ba d0bd 0deb 243d 6ba8 673e
00000280: 8816 23be 97b8 2ebe e54a f43d eafd fdbd
00000290: da46 8b3d fbf4 a93d 3760 2ebe a326 42be
000002a0: dc64 3cbe dea2 62be d6f7 0e3e 00e2 3d3e
000002b0: 8203 d2bd 3a60 d8bc 27bc aebd 767d 043e
000002c0: 0b6b c43c 0091 1d3e c97a e13d 761d 2abe
000002d0: c65e d5bd cbf1 d7bc d3d4 eabd 40e3 1c3d
000002e0: 52c3 72bd f116 113e ecaa 2c3d c70b 0ebe
000002f0: 5617 1cbe 1fca eebc a522 c53d 93bb 6b3e
00000300: 9df6 57be 1c6d e2bd 2146 463e dade 0cbe
00000310: 044e bbbc 72fb 3a3e 5e49 d03c 0af2 d6bd
00000320: af3e 1abe 262c fabd 86a0 7a3d 9e12 f83c
00000330: 2742 f2bc 4298 363e 5845 1dbe 570a 2abe
00000340: d2c6 dcbd 3f7e 943c 90e3 c0bd 6408 f03d
00000350: d040 983d 190a 483e 5e40 f63d 5376 10be
00000360: 876e 55bd a3da 5fbe 91c1 11be dc96 42be
00000370: 46ec 413d 2e46 45bd 13b8 133e a379 18be
00000380: e773 3abd cbbb f43d 19d6 10be 14b3 253e
00000390: 21cb 0c3e ec1a 303e 6ede 32bd 0976 00be
000003a0: cf5c 23be 7ff9 2f3e 4727 96bd c050 2ebe
000003b0: 2c0a 54bd 62da 573e f3f6 24be ca04 26be
000003c0: 7a28 debd 37ed 8dbd bdd6 c13d 6592 bebd
000003d0: 83e2 843d 6563 4c3d 1dd3 9e3d 0e22 173d
000003e0: fe6e da3d 29d8 36be d3e2 13be 2ae9 113e
000003f0: e3d8 0a3e 1e36 ac3d 0658 0ebe 0184 1fbe
0.015287837 -0.10112995 0.20543928 0.120578304 0.044693843 0.00037637065 -0.09191142 -0.100175895
-0.04630253 0.10048052 -0.054173924 -0.121508785 0.039895725 0.10252617 0.08106501 0.004409605
-0.08402411 -0.1591153 0.06852167 0.0009900534 -0.06863889 0.12994143 0.13885006 0.14632185
0.015847266 0.053941015 -0.095052145 -0.02052298 -0.10613545 0.018302644 3.469803e-05 -0.13965921
0.1542816 0.0037681488 -0.16596092 0.06320299 -0.06236749 -0.15327331 -0.007841937 0.06594052
0.21572791 0.11080617 0.0035815833 -0.114267945 0.13244665 0.05218486 0.094423436 -0.01506078
-0.0787568 -0.058181487 0.008346356 0.14821726 0.18372594 0.097977705 0.14658856 -0.11344319
0.08952799 -0.10720105 -0.062224902 0.1644371 0.18739423 0.16276583 -0.11065267 -0.16405122
0.18538502 0.15882593 -0.11980206 0.1352111 0.15183644 -0.13480593 -0.02410016 0.1267679
0.14000647 0.10945999 -0.025839107 -0.061943874 0.03604602 -0.13596955 0.058176685 0.1344162
0.16229223 -0.018567542 0.03501665 -0.032495715 -0.08575023 -0.072735876 -0.14498934 0.018666068
0.047454387 0.19052038 0.1206604 0.14597504 -0.12931877 0.063315816 -0.21021174 0.17205842
0.02911694 -0.17847893 0.14941454 -0.09217291 -0.10757978 -0.16224127 0.1677941 0.16963077
0.13266309 -0.15017971 0.13893352 0.041042946 0.0131158875 -0.042938508 -0.0054234993 0.10303303
0.10763865 0.13940315 -0.17192529 0.12110077 -0.16173379 -0.06398472 -0.08656976 -0.030973496
-0.118353024 0.15165944 0.13052288 -0.04574888 -0.08843052 -0.106485456 0.12996782 0.03435076
-0.13962539 0.17946601 -0.23835659 -0.18161246 -0.077746406 0.03694432 0.105343826 0.100071624
0.110742785 -0.21230026 0.19702579 0.09065288 -0.09309041 -0.207252 -0.10835071 0.16199869
0.14860828 0.19640397 -0.118710406 -0.12270935 0.15422153 -0.13392049 -0.11205438 -0.07467126
-0.14842097 -0.057808448 0.085096344 0.051138945 0.06999121 -0.101917684 0.040263224 0.2262284
-0.15926564 -0.17062603 0.119283475 -0.12401946 0.06800623 0.082986794 -0.1702889 -0.18960051
-0.1839785 -0.22132441 0.1396173 0.18543243 -0.10254575 -0.026413072 -0.08531981 0.12938485
0.023976823 0.15387344 0.110097475 -0.16612801 -0.10418467 -0.026360413 -0.11466374 0.03830266
-0.059268303 0.14168908 0.04215519 -0.1387168 -0.15243277 -0.029149113 0.096257485 0.23020773
-0.21090169 -0.11055967 0.1936269 -0.13756886 -0.02286435 0.18259981 0.02542561 -0.10495384
-0.15062974 -0.12215452 0.061188243 0.030282315 -0.02957256 0.17831519 -0.15358484 -0.16605507
-0.107801095 0.018126605 -0.09418404 0.117203504 0.07434237 0.19535102 0.12023996 -0.14107637
-0.05210736 -0.21860747 -0.14233996 -0.19002861 0.04734447 -0.04816263 0.14425687 -0.1489015
-0.04552069 0.11949881 -0.14144172 0.16181594 0.13749363 0.1719777 -0.043669157 -0.12545027
-0.15953372 0.17185019 -0.0733171 -0.17022991 -0.051767513 0.210794 -0.16109829 -0.16212764
-0.10847564 -0.06930011 0.09464786 -0.09305266 0.06488516 0.049899478 0.077551104 0.03689771
0.10665701 -0.17855896 -0.14441995 0.14249101 0.13559298 0.084087595 -0.13900766 -0.15577699

net.2.bias f4 [128]
00000000: d989 00bd 8a5a 183d 82c9 4ab9 0da9 213e
00000010: 26b7 4ebb 3c19 903d c4eb d5bd ca7e ed3d
00000020: eb32 a4bc 77d0 fbbd 655e 1d3d 3a9c dabd
00000030: fb07 dcbd 8563 7dbc 879c 02be 54a5 4a3c
00000040: adcb d6bc 8677 153e 9612 17be 884e 0fbe
00000050: 9c89 dbbc fe00 11be 442e 13be 0e9f e4bd
00000060: e143 db3b 743f d53d c156 01be e02a fa3d
00000070: 7b62 87bc 88ba cc3d 5f80 703d 5df2 e03d
00000080: b3fb 52bc dac6 f4bd 50dc e7bd 2d6b 0cbe
00000090: 377e c2bd 4727 cbba 5800 47bd 7d1b 843c
000000a0: 24ee 08be 1d8b d1bd 647d 113d 4ac4 e83d
000000b0: 9d32 e9bd d8a9 d3bd c6a3 4abc e83b 92bc
000000c0: 2c94 a43b 4249 bcbd 4eac a03d 1ac9 19be
000000d0: 144d 01be 033c 68bd 8db4 f6bd c35b 1b3d
000000e0: 28fd b53d d64f d83d a57b c33d e4bc 203e
000000f0: c950 3a3d a7f8 c23c d9ec 1a3c a71a e53c
00000100: 8720 e03d 499a ed3c f160 7ebd e95b 1dbd
00000110: 6a71 40bc 7fe0 0d3e bae0 843c 528a b73b
00000120: 98fd c93d 9716 52bd ff7b 18bd 09e4 713c
00000130: af87 03bd 2f91 b03d b545 c3bd a27f 8ebd
00000140: f575 d83c 4bbd 033d 2629 38bc af51 ea3d
00000150: d56f e8bd 1b2a 0e3e c0fb a6bd 4b00 00be
00000160: 05e1 74bc 13fb 08ba 92fb d33c 42c1 12be
00000170: 268f bfbd 4a16 ca3d 3898 203d 5ed5 8b3c
00000180: 0d96 8d3c 4246 15be 0d2a 9f3c 6973 d33d
00000190: 8f7e 1cbe eef0 403b a61e c0bd 5a3e ed3d
000001a0: de15 dd3d 5559 043e a2ca a73d 6da4 33bb
000001b0: 4763 86bd a4b2 dd3d 51d2 543d 5569 b73d
000001c0: 360b 3b3d bb98 703b c7d0 61bd 3304 b23d
000001d0: 7791 f13d 5694 fdbd 4028 36bb f53d 273e
000001e0: 2d66 a63d 0b29 14be 31d2 5abd 6971 9a3d
000001f0: c487 953d 762e 82bd b121 61bd f3ed eabc
-0.03138146 0.03719572 -0.00019339289 0.15787144 -0.003154227 0.07036063 -0.10445359 0.11596449
-0.02004381 -0.12295621 0.0384201 -0.10674329 -0.1074371 -0.015465622 -0.12755023 0.012368519
-0.026220167 0.14596376 -0.14753184 -0.13994801 -0.026799016 -0.14160535 -0.14373118 -0.1116315
0.0066914414 0.10412493 -0.1263075 0.12215209 -0.016526451 0.099965155 0.058716174 0.10983727
-0.012877393 -0.119519904 -0.11321318 -0.1371276 -0.0949673 -0.0015499376 -0.048584312 0.016126389
-0.13372093 -0.10231612 0.035519972 0.11365564 -0.11386607 -0.103351295 -0.012368148 -0.017850831
0.0050225463 -0.0919366 0.078453645 -0.1501812 -0.12627059 -0.056697857 -0.12046156 0.037929308
0.08886176 0.105621025 0.09545068 0.15697056 0.0454872 0.023800207 0.009455883 0.02796681
0.10943704 0.029004233 -0.06210417 -0.03841773 -0.01174579 0.1385517 0.01622044 0.005601206
0.09862822 -0.051291075 -0.037227627 0.0147638405 -0.03211182 0.086214416 -0.0953478 -0.06957938
0.026423434 0.032162946 -0.011240279 0.11441361 -0.11349455 0.1388325 -0.08153486 -0.12500112
-0.014946227 -0.0005225401 0.025876794 -0.14331535 -0.09353475 0.098675326 0.039207667 0.017069515
0.017283464 -0.14577582 0.019429231 0.10324747 -0.15282653 0.002944048 -0.09380846 0.11584158
0.107951865 0.12924702 0.08192946 -0.0027411238 -0.065619044 0.108250886 0.051958386 0.08955637
0.04566499 0.0036712128 -0.055130746 0.08692207 0.11795323 -0.123818085 -0.0027794987 0.16332228
0.08124957 -0.14468782 -0.05342311 0.075411625 0.07301286 -0.06356518 -0.05496377 -0.028677916

net.4.weight f4 [1, 128]
00000000: 9ddb b53e ca78 a1be ca07 c4be 0491 bcbe
00000010: a966 a0be 48ed c4be 27d6 9a3e a631 b3be
00000020: a32c af3e 0a17 c13e fb81 cabe 6329 be3e
00000030: 51b1 b13e 2ae7 c1be 812c 9b3e cbfb b1be
00000040: 7781 c43e 0cd3 a0be cf3e a13e 158f ac3e
00000050: 89a2 bf3e 8ae0 a53e e4a0 9f3e 6772 9d3e
00000060: f5e8 b03e 7c8f 95be dc07 a23e 29e2 afbe
00000070: 2fb7 b1be a598 9ebe 279b abbe 7a19 acbe
00000080: fba3 b03e 4858 be3e 7146 a33e 4c70 963e
00000090: 587b af3e 0434 bc3e d711 a53e 032d b73e
000000a0: 7684 ab3e a6f4 9c3e 631d 93be 7eca a1be
000000b0: 2ee7 973e c2a1 963e dee7 b93e b764 b23e
000000c0: 4d8e b6be 2fb9 ab3e cfda b2be 040d c73e
000000d0: 7ad9 a93e 0c12 bb3e 4294 b13e 48e1 b1be
000000e0: 9dac 92be 20c2 a0be 4841 9ebe 0b1b 87be
000000f0: 09ad bcbe 47a6 ce3e ddbb ca3e 04d9 a2be
00000100: eb19 b5be 6e9f a5be 7ffd ad3e ec9c b93e
00000110: 41ff ca3e 879d c5be b159 bebe 7fdc bdbe
00000120: 2379 abbe 77e7 ae3e 4626 c73e f569 ac3e
00000130: a739 be3e 2e15 b8be e0c0 bf3e 3c30 a73e
00000140: 3826 a5be 1fea a2be 5b05 be3e 57f3 a8be
00000150: d78e 973e 1f89 a6be 4511 b53e efef a53e
00000160: 6c29 aa3e 7861 9ebe 796d a2be 76b2 9d3e
00000170: c79e b73e d76a b5be 1051 bdbe 71b1 cc3e
00000180: fd35 babe c1e6 bc3e 417d acbe bc76 9cbe
00000190: f73b b53e 8762 b83e ab13 ba3e 4e0e a6be
000001a0: 01f7 c8be dc43 b6be c18c babe bec7 9d3e
000001b0: 4fbd af3e de78 a8be f7d4 cbbe d452 b6be
000001c0: ad80 adbe ce9b b1be 6e0d b03e e151 b2be
000001d0: 1119 a9be 6f31 bb3e 65a6 ad3e 2e73 a1be
000001e0: c293 a1be 9398 9f3e 736a c43e 84dc a7be
000001f0: 3b41 b8be a79d cb3e 9fc2 c23e 0fb8 c93e
0.35519114 -0.31537467 -0.38287193 -0.36829388 -0.31328323 -0.3846228 0.3024151 -0.34998816
0.34213743 0.3771289 -0.39552292 0.3714095 0.34705594 -0.37871677 0.3030739 -0.34762415
0.38380024 -0.31411016 0.31493232 0.33702913 0.37428692 0.32397872 0.31177437 0.30751345
0.34552732 -0.29211032 0.3164662 -0.34352234 -0.3471007 -0.30975834 -0.3351681 -0.33613187
0.34500107 0.37176728 0.3188968 0.2938255 0.3427379 0.36758435 0.32240173 0.3577653
0.33499497 0.30655402 -0.28733358 -0.31599802 0.29668564 0.29420286 0.36309713 0.34842464
-0.35655442 0.3353972 -0.34932563 0.38877118 0.33173734 0.36537206 0.34683424 -0.34742188
-0.28647318 -0.31398106 -0.3090918 -0.2638782 -0.36850765 0.40361235 0.39596453 -0.31806195
-0.35371336 -0.32348198 0.33982465 0.36252534 0.39647868 -0.38596746 -0.37177804 -0.37082288
-0.33490857 0.3416097 0.38896388 0.3367459 0.3715336 -0.3595366 0.3745184 0.32653987
-0.3225572 -0.31819245 0.3711346 -0.32998154 0.29601166 -0.3252649 0.35364738 0.32409617
0.33234727 -0.30933738 -0.31724146 0.30800217 0.35863325 -0.35433075 -0.36975908 0.39979127
-0.36369315 0.368948 -0.3368931 -0.30559337 0.35397312 0.3601267 0.3634313 -0.3243279
-0.3925095 -0.35598648 -0.36435512 0.30816454 0.34324118 -0.32904714 -0.39810917 -0.35610068
-0.33887234 -0.34689182 0.34385246 -0.34828094 -0.33026937 0.36561152 0.3391601 -0.31533188
-0.31558043 0.31171092 0.38362464 -0.32785428 -0.35987267 0.39768717 0.3803911 0.39398238

log_std f4 [3]
00000000: 6b25 3d3b 24d4 623c 9411 593c
0.0028861414 0.013844524 0.01324882
