runs/checkpoint_e070.pt (torch, 158519 bytes, 12 tensors)

net.0.weight f4 [128, 18]
000000 6d 2d 11 3f 36 fc 84 bc a7 64 1d be ef 42 5b be
       0.5670994 -0.016233545 -0.15370427 -0.21412252
000010 9c 92 60 ba 66 52 87 bc 2b bb 8a 3e 4d a2 0a be
       -0.00085667684 -0.016518783 0.27095923 -0.13538475
000020 1a 81 0e 3e 22 82 6b 3e 18 91 8e 3d c6 fe 7e bd
       0.13916436 0.2299886 0.06961268 -0.06225469
000030 3d 8a f6 3e aa fd 92 3e 36 81 04 3e 0e fc 8c bd
       0.48152342 0.28709155 0.12939915 -0.06884013
000040 6c d6 3f be cf d4 ec 3d 34 ab bb 3e 72 4f dd 3e
       -0.18734139 0.115640275 0.36654055 0.43224674
000050 a1 20 21 3e 75 06 37 3d 67 5b 1e 3d 28 8f 36 be
       0.15735103 0.044683892 0.038661387 -0.17828047
000060 03 06 02 3f b0 43 b5 3e b8 18 45 be 32 63 f0 bd
       0.50790423 0.35403204 -0.1924771 -0.1173767
000070 d2 30 6a 3e 01 83 f3 bb ed f5 c9 3e 2f c4 43 3e
       0.22870186 -0.0074313884 0.3944544 0.19117807
000080 0b 69 14 be 91 fe c6 bd 8c 2e 59 3e be b2 87 3c
       -0.14493196 -0.097165234 0.21209162 0.016564723
000090 ef 97 b9 be 81 af d1 be ee 16 30 be b7 20 83 bd
       -0.3624873 -0.4095421 -0.17196247 -0.06402724
0000a0 76 42 ab bd f6 06 e9 3d 1f f7 a9 bc f1 73 f4 3e
       -0.08362286 0.11378281 -0.02074772 0.47744706
0000b0 2b 46 44 3d db 5e 2d 3d 7b 77 b2 bd 16 76 5b 3e
       0.04791848 0.04232679 -0.08714195 0.21431765
0000c0 dc b0 72 3e 6f cd ce 3e be 13 3c 3d 53 e0 20 be
       0.23700279 0.40391108 0.045917265 -0.15710573
0000d0 52 fa 53 bc 6d 6a 0e 3c 5a e3 0b 3f ef 78 f6 3e
       -0.012938099 0.008692366 0.54643786 0.4813914
0000e0 33 5b b4 bd bd 6b 31 3e 94 07 01 3e d7 51 23 bd
       -0.08806457 0.17326255 0.12600547 -0.03987297
0000f0 b1 c1 cc 3e f5 e0 07 3f 8e 4a 3e 3e 3d 68 0a 3d
       0.39991525 0.5307763 0.18583128 0.033790816
000100 36 12 37 3d b2 11 9a bd 43 82 6e 3e d0 54 1e bd
       0.0446951 -0.07522906 0.23291878 -0.038655102
000110 8a 40 ef 3c a6 8b 4f be 2f 84 22 be 4e ab 01 bd
       0.02920558 -0.20268115 -0.15870737 -0.03165751
000120 9a 5a 1a be f5 e5 14 3e ee a1 a1 bd 24 27 ae bc
       -0.15073624 0.14540847 -0.07892214 -0.021258898
000130 fe a8 35 3e 82 cd 1b be fe 72 e3 bd 07 ea 45 3d
       0.17740247 -0.15215114 -0.111059174 0.04831889
000140 69 6c ab 3d 2a ff 24 be 6b af a6 3c d6 df 6f 3e
       0.08370287 -0.16112962 0.020347318 0.2342523
000150 99 5c 08 be f6 57 00 bf e6 f8 53 be 34 9b 27 3e
       -0.13316573 -0.5013422 -0.20700416 0.16367799
000160 48 cd 69 3e 80 a5 70 3e 57 22 59 3b 8e d4 21 be
       0.22832215 0.23500633 0.003313204 -0.1580374
000170 d4 dc 14 be c3 2c 1a be 88 58 16 bd 3b e8 fc 3d
       -0.14537364 -0.15056138 -0.036705524 0.12348982
000180 0f a6 b4 3e 07 55 0b 3f b7 b1 52 3e c8 6b 80 bd
       0.35282943 0.54426616 0.20575605 -0.06270558
000190 1d e3 4d 3e 14 23 1a be 8e ff 46 be 1b 3a 94 be
       0.20106168 -0.15052444 -0.19433424 -0.2895058
0001a0 7e 5b eb bd 7e 05 26 3e dd 3e 80 bd 11 73 2e 3e
       -0.1149206 0.16213033 -0.0626199 0.17036082
0001b0 a4 c4 0b bf 56 4e 92 be 02 27 95 3d 19 2c a3 3b
       -0.54596925 -0.2857539 0.07282831 0.004979622
0001c0 a6 31 0d bd c8 dc 09 3e b5 c9 f8 bd 04 8d 8a 3d
       -0.034471177 0.13463128 -0.121478476 0.06765178
0001d0 9f 97 ea 3d 35 88 69 3e ce 58 1b 3d e2 94 4d be
       0.11454701 0.22805865 0.037926488 -0.20076326
0001e0 ce 2c 39 3d fc 63 0f 3f a1 58 c5 3d 13 35 18 3e
       0.045208745 0.5601194 0.09636045 0.14863996
0001f0 a7 b8 0c 3e 5e d8 68 3d a6 96 bd 3d 61 0a 07 3d
       0.13742314 0.05684697 0.092572495 0.032968882
000200 f5 42 19 3e 2d 5e 49 be 69 18 34 be 4a b0 fa 3d
       0.14966948 -0.19664831 -0.17587437 0.12240656
000210 3e a5 7c bd 96 d8 2c 3e ce 21 dc 3d bd c9 35 be
       -0.061681025 0.16879496 0.10748635 -0.17752738
000220 24 7b b6 bd 0b 56 41 3e 4e 38 8b 3d 8a 98 d9 be
       -0.08910206 0.18880479 0.06797849 -0.4249919
000230 77 cf 8d bd 34 98 37 3e 4b 5d 11 3e 55 55 71 bc
       -0.069243364 0.17929155 0.14195745 -0.014729817
000240 56 cb 43 bd 2a 88 c8 bd 2f 99 2f 3e 62 18 3d 3e
       -0.047801338 -0.09791596 0.17148279 0.18466333
000250 3a db 10 3e ca e5 8f bc 53 14 cf 3d 88 d7 57 be
       0.14146128 -0.017565627 0.101112984 -0.21078312
000260 ea 81 44 bb ab 0f 01 be e9 2b 4b be 1a ad 42 3e
       -0.0029984661 -0.12603633 -0.19840969 0.19011346
000270 22 9a 51 3e 7f 7c b9 3e 8e 7e 42 bd b0 71 06 be
       0.20468953 0.36227795 -0.047483973 -0.13129306
000280 06 7b 6a be f7 32 40 3c 43 78 92 bd 93 2c e0 bd
       -0.22898492 0.011730901 -0.07151844 -0.10946002
000290 0d 60 27 be 63 5a cf 3c c6 17 6f 3e 5c 38 f9 bb
       -0.16345234 0.025311654 0.23348913 -0.0076055955
0002a0 50 5f 37 be 01 a2 11 bf fd ef 1b 3e b6 3f 18 3e
       -0.17907453 -0.56887823 0.15228267 0.14868054
0002b0 0f c3 ec 3d ce 8b 6e 3e 86 ca e3 3d b7 4c c4 3e
       0.11560642 0.23295519 0.11122613 0.3833978
0002c0 5a b4 12 be 12 1c 07 be 62 f6 2b 3e 65 ce 1c 3d
       -0.14326611 -0.13194302 0.16793206 0.03828277
0002d0 4a 5b 44 3e 49 ae 0f 3f 5f 6f 26 3d 42 f3 57 3e
       0.19175449 0.56125313 0.040633556 0.21088889
0002e0 23 e7 08 be 71 c3 2a be cd db d5 3e b9 f9 40 bd
       -0.13369422 -0.16676117 0.41769257 -0.047113154
0002f0 96 b9 f9 bb ac 25 06 be 4a 1f 1f 3e 5d 9e 01 be
       -0.0076210005 -0.13100308 0.1553928 -0.12658067
000300 8c a1 c6 3d d5 ff c8 3b 82 33 3c be bf 75 3e be
       0.09698781 0.006134013 -0.18379024 -0.18599604
000310 00 11 65 be d7 b4 03 be b2 dd 19 bd 11 3f 5d 3c
       -0.22369766 -0.12861954 -0.03756494 0.013503806
000320 86 66 61 3e 34 53 35 3e 43 53 47 3e 7c 3e 78 3d
       0.22011766 0.1770752 0.19465356 0.060606465
000330 f0 3d b3 be 81 4a 0c bf 4d 62 85 bd 74 b0 24 be
       -0.35008192 -0.54801184 -0.0651289 -0.16082937
000340 6f 6e 1d bd 04 db 0d 3e ca e7 65 3d c0 34 c3 3e
       -0.038435396 0.13853079 0.056129254 0.38126183
000350 ef e7 89 bd 81 fc 2a bd 97 92 26 be e7 81 ed bd
       -0.06733691 -0.041744713 -0.16266857 -0.115970425
000360 17 bd 0e 3f 05 2b c1 3e 1e 08 19 3d 8f e3 44 be
       0.5575728 0.37728134 0.037361257 -0.19227432
000370 5c 2d 3f be c0 48 43 3e e4 d2 a1 3e 9c 6b 4e 3e
       -0.18669647 0.1907072 0.3160621 0.20158237
000380 a8 ee 6a bd e0 2e 3c 3e 07 21 20 be 15 45 27 be
       -0.057356507 0.18377256 -0.15637599 -0.16334946
000390 d1 c7 97 3e 3b 54 de 3e a8 a8 8b bd f8 e3 a0 3d
       0.29644635 0.43423638 -0.06819278 0.078559816
0003a0 c2 f9 b6 3c 81 4e ca bc cc 3a 46 3c 5a 1f e0 be
       0.02233589 -0.024695637 0.012098979 -0.4377392
0003b0 d6 a4 54 3e 42 47 16 3e 08 59 0c 3e 10 2b 30 3e
       0.20766005 0.1467562 0.13705838 0.17203927
0003c0 d0 52 da 3e d3 ff 0b 3f 4f 13 46 3e 78 23 05 be
       0.42641306 0.5468723 0.19343303 -0.13001812
0003d0 33 17 72 3c 8e cd 5b bd 7a c9 d9 bc dd a1 00 3f
       0.014776039 -0.05366283 -0.02658533 0.50246984
0003e0 81 46 4b 3e d5 d2 6e 3e 5d 0b 3e 3e 2d 93 9e 3d
       0.19851114 0.23322614 0.18559022 0.07742915
0003f0 2c 35 86 3e 4d 60 41 3e 10 ca 6c bd 1d d8 d2 3c
       0.26212442 0.18884392 -0.05780989 0.025737816

net.0.bias f4 [128]
000000 ed 36 63 be 71 25 ad 3d 33 ea e7 bc 16 b5 2a bd
       -0.22188921 0.08454407 -0.028309917 -0.041676603
000010 79 24 b2 bd e1 6e 7d 3d df f8 be 3c 0b b9 21 be
       -0.08698363 0.06187332 0.02331203 -0.15793245
000020 d7 dd b3 bd 61 90 77 bc 5f 01 4b 3e 69 df 92 3d
       -0.08782547 -0.015110106 0.19824742 0.07171518
000030 82 16 21 be f2 fd 80 bd 58 3b 38 be 00 eb 32 be
       -0.15731242 -0.06298436 -0.17991388 -0.17472458
000040 fb 0d 30 3e ec bc 21 bc 7e 44 37 3e 70 90 92 bd
       0.17192833 -0.009871703 0.17897221 -0.071564555
000050 6b cf 1f 3e 23 c7 51 3e f2 b9 83 3d ed 0f 0c 3e
       0.15606467 0.20486121 0.06431951 0.1367795
000060 b8 3a 87 3d 8e 70 2c bd 45 28 85 bb 99 a4 33 be
       0.066029966 -0.042099528 -0.0040636384 -0.17543258
000070 2b db 6c bc de a6 1d 3d 0b 17 88 3d d8 23 47 be
       -0.014456551 0.038489215 0.0664502 -0.19447267
000080 77 d2 4a 3e f9 29 0f be c1 8c 52 3e cc 3d ed bd
       0.19806848 -0.13980855 0.20561506 -0.115840524
000090 78 3f 4c 3d 11 35 a2 bd 4f 0c 44 3e 08 b2 7e 3d
       0.049865216 -0.07920278 0.1914532 0.062181503
0000a0 14 b9 4b bd ae 2f 62 be 9e c8 be bc f2 99 d6 3d
       -0.04973705 -0.22088501 -0.023289021 0.104785815
0000b0 50 ef dd 3d c8 6d 1a 3e 9a 0a 46 3e 8f 05 2d bd
       0.10836661 0.1508094 0.19339982 -0.04224163
0000c0 52 b9 37 be 42 cc e5 3c f9 6b ed bd 2d 17 6b 3e
       -0.17941788 0.0280515 -0.1159286 0.2295806
0000d0 ae c5 33 be 5a d5 53 3e 6a 76 3f 3e 77 4d 39 be
       -0.17555878 0.20686856 0.18697515 -0.18095957
0000e0 a4 b3 27 be 06 b1 32 3e 80 b0 a2 3d c8 ec 65 bb
       -0.16377121 0.17450342 0.07943821 -0.003508376
0000f0 16 1f fb bd d0 0b 1b bd 59 f6 5b 3e c8 66 0f be
       -0.122617885 -0.037853062 0.21480693 -0.14004052
000100 a5 3e 35 3e 03 7d d0 3d 39 bc bf bd fe c7 5b be
       0.17699678 0.10180094 -0.093620725 -0.2146301
000110 04 2c 47 be f2 33 59 be 24 6c 93 bd 74 1c b1 bd
       -0.19450384 -0.21211222 -0.071983606 -0.08648005
000120 60 71 07 3d bd 2f 45 3e 0d eb 2a 3e d0 a8 5a bd
       0.033067107 0.19256492 0.16691227 -0.05338365
000130 e7 48 f0 3d 2f 0d 00 3e 21 2b ff bd 23 3d 76 bd
       0.11732655 0.12505029 -0.12459398 -0.0601169
000140 23 0d 1b be 1a 58 5e be dc d7 91 bd f9 2b 48 3e
       -0.1514173 -0.21713296 -0.0712125 0.19548024
000150 e9 c7 85 3d df 28 2c be c4 2c 9b 3d 62 66 5a bd
       0.065322705 -0.16812466 0.07576898 -0.053320296
000160 20 79 2f 3e e8 19 52 3e 1b f3 9e 3d 5d ae c9 3d
       0.1713605 0.20517695 0.077612124 0.0984771
000170 0c d4 35 bd 01 41 87 3d 30 c2 55 be 2e 9f e9 3c
       -0.044391677 0.066041954 -0.20874858 0.028518286
000180 cc eb 1f be e1 6f 06 3d aa c8 38 bd 41 18 2a 3d
       -0.15617293 0.03282154 -0.045113243 0.041527037
000190 ad ae 5d 3e 2a 33 a0 bd 64 0b f9 bd 37 ec 23 be
       0.21648665 -0.07822259 -0.12160376 -0.16008078
0001a0 91 e5 1e be 51 ba 0c 3e 02 3a 5c be dc cc 5c bd
       -0.1551726 0.13742949 -0.21506503 -0.053906307
0001b0 7a 4e 35 be 2d fe 38 3e d1 68 96 bd 79 2a 8c bd
       -0.17705718 0.1806571 -0.07344211 -0.068440385
0001c0 ad 0d bf 3d 82 85 5f be 90 bf 38 be fc 41 14 be
       0.0932878 -0.21828273 -0.18041825 -0.14478296
0001d0 8d 9b 9a bd 1b a0 14 be 32 2e 5f 3e af a7 0a be
       -0.075492 -0.145142 0.21794966 -0.13540529
0001e0 f3 f0 01 3c 0d 4a 97 bd 6a 22 81 bd e6 73 23 be
       0.007930982 -0.07387171 -0.06305392 -0.1596218
0001f0 bc 78 2e bd 4a f3 49 bd 4e eb 1c bd 97 ed 48 be
       -0.04259561 -0.049304284 -0.03831034 -0.19621883

net.2.weight f4 [128, 128]
000000 83 54 9a 3c 94 d8 01 3c 88 6a f8 bd 11 a2 05 bd
       0.018839126 0.007925171 -0.12129694 -0.03262526
000010 18 05 e7 bc 23 55 9d bd 9b c7 ca bd 97 6b e5 3c
       -0.028200671 -0.07682254 -0.09901353 0.028005404
000020 71 45 7d 3d ab 7f db 3c bc 40 3f bd e4 ec 9c 3c
       0.061833803 0.026794275 -0.046692595 0.019155927
000030 2d f2 8f 3c 4e b5 e1 bd 04 fc 66 3c b6 04 b7 bc
       0.017571533 -0.11020909 0.014098171 -0.022341114
000040 a0 b1 9e 3d 8a 98 24 3d 94 de cf 3c e7 c8 e5 3a
       0.07748723 0.040184535 0.025374688 0.0017531187
000050 7c 21 e5 3d 65 f0 38 3d d4 21 ff 3c e5 30 01 3c
       0.11188027 0.045151133 0.03114406 0.0078851925
000060 fa 3a e5 3a 1e 0e 0a 3d 4a 45 22 3e 30 f4 a7 bd
       0.001748889 0.03370487 0.15846744 -0.08200872
000070 15 c6 31 bd a5 92 26 3d f0 93 94 3d 36 59 4a 3d
       -0.043401796 0.040667195 0.07254779 0.049401484
000080 8d 44 d8 3d 82 83 11 bd ff 2f 90 39 a0 26 9c bd
       0.1055995 -0.035525806 0.0002750158 -0.07624555
000090 f1 2a aa 3c b4 17 fa bd 13 a9 7a 3d df 54 fa bb
       0.02077243 -0.12211552 0.061196398 -0.007639512
0000a0 ac 7b 0b 3e 69 bb f8 bc c9 6d 80 bd bd 29 a3 bc
       0.13621396 -0.030362802 -0.0627094 -0.019917363
0000b0 98 6a 8c bd 38 f3 83 bd fc 8a ae ba dc 2f 9b bd
       -0.06856269 -0.06442875 -0.0013316567 -0.07577488
0000c0 f6 6f 95 3d b4 7e 0d be 47 9c 86 3d a6 56 7d 3d
       0.072967455 -0.13817865 0.06572776 0.061850213
0000d0 13 20 96 3d 12 e4 75 bc b3 e5 b6 bd 6e 0e c0 bc
       0.073303364 -0.0150079895 -0.089305304 -0.02344438
0000e0 38 32 8d 3d 24 f0 9b bd d9 d7 24 3c 8f 4d cb bd
       0.06894344 -0.076141626 0.010061228 -0.099269025
0000f0 5e 4e df 3d 7d fd 16 be 96 da c8 3d cc b0 d4 ba
       0.10903619 -0.14745136 0.09807317 -0.0016227006
000100 6f 08 ca bd 01 38 c3 bd 9b 1f 2d bc de d0 92 3d
       -0.0986489 -0.09532166 -0.010566617 0.071687445
000110 b0 fc 24 3c 00 c8 9d 3d 46 57 3e bc 52 23 41 bb
       0.010070011 0.077041626 -0.011617487 -0.0029470515
000120 d5 a5 21 bd 6c cc 60 bc 5c 71 b0 bc 4f 12 5b 3d
       -0.03946479 -0.013720613 -0.021538429 0.053484257
000130 a4 13 31 3c 7e c0 88 bd 15 42 ea bb 4d 32 fa bb
       0.010807905 -0.0667734 -0.007148991 -0.007635391
000140 b3 88 d9 3c e8 31 82 bd 53 19 ba bd 45 48 0c bd
       0.026554441 -0.06357175 -0.090868615 -0.03424861
000150 e3 b2 02 bd f2 34 b1 bd 0c 33 02 ba 6e 76 03 3d
       -0.03190888 -0.08652677 -0.0004966713 0.032095365
000160 58 96 98 3b 17 59 2a bc ab c9 f6 bc 49 d0 2e bd
       0.0046565942 -0.010397217 -0.03012546 -0.042679105
000170 0b 2a 03 bd d0 80 07 3e 46 d2 6e ba fb 4f a1 3d
       -0.032022517 0.13232732 -0.00091103127 0.07876583
000180 62 18 95 bc 95 7f ec 3c 17 d5 c8 3c e7 d9 30 ba
       -0.018200103 0.02886943 0.024515672 -0.0006746337
000190 f0 d7 a1 3a 42 12 da bc d3 4b f5 3d ff 5e 77 3d
       0.001234768 -0.026620034 0.11977353 0.06039333
0001a0 21 ef 00 3e a5 53 99 3d d8 e7 88 3d 14 f5 52 3c
       0.1259122 0.07486657 0.06684846 0.012875814
0001b0 6e f8 c3 b9 b1 97 7f 3d 43 13 8b bd 7f e6 50 3d
       -0.00037378393 0.062400524 -0.06790783 0.05100107
0001c0 ec 42 70 3a 5f 22 dd bd 13 8f 8c 3c 31 62 80 3b
       0.00091652456 -0.107975714 0.017158067 0.0039179553
0001d0 5f 13 29 bc a8 a1 b1 3d 59 cb af 3d 69 78 b5 bd
       -0.01031956 0.086734116 0.08583707 -0.08860857
0001e0 79 c4 5f bd 6e 7c e8 bb cc 2d 68 bd 83 27 c0 bd
       -0.05463073 -0.0070949113 -0.0566843 -0.09382536
0001f0 29 49 ce 3b 5a e4 15 bc 52 75 2a 3d e3 50 9d 3c
       0.0062953425 -0.009148682 0.04161579 0.019203609
000200 2d 63 7c bc b7 35 80 3d 65 f9 7b bd ca 38 0d 3e
       -0.015404505 0.06260245 -0.061517138 0.13791195
000210 36 64 4a 3d 7d a1 21 bc 01 08 0f 3d 3e 31 ae bd
       0.049411975 -0.009865162 0.034919742 -0.08505486
000220 56 b5 04 3d 33 bc ce bd 41 da bd 3d c4 47 6c bd
       0.032399498 -0.1009449 0.09270144 -0.05768563
000230 9c 9d dd bc 4e e1 09 bd 6f ae 15 bd 84 25 d7 3d
       -0.027052693 -0.033662133 -0.036543306 0.105052024
000240 a6 61 a4 3c 44 ec 93 3d f4 42 c1 bd 53 4d 66 bd
       0.020066094 0.072227985 -0.094365984 -0.056226086
000250 9b ce 3e 3c e3 59 37 bb 81 c4 f3 3d 08 5e 82 3d
       0.011645938 -0.002797716 0.119027145 0.06365591
000260 43 0b a1 ba 04 79 2b 3d ad 52 28 3e 27 b3 eb 3c
       -0.0012286681 0.041863456 0.16437788 0.02877195
000270 14 22 cd bc 8b 45 22 3d d5 fe 87 3b f4 8b 00 bc
       -0.025040664 0.039617103 0.0041502514 -0.007845867
000280 b5 97 81 3d eb 75 ff 3b 3c 79 82 3c da d3 ba 3c
       0.06327764 0.0077960393 0.01592695 0.022806097
000290 c8 ed c6 3c 52 54 cf 3c c6 ef 5d 3c 1d 1e a4 bc
       0.024283305 0.025308762 0.013545936 -0.02003389
0002a0 51 2a ec bc 4d 5e 0e bd 18 92 a6 3d 55 16 6b 3c
       -0.028828772 -0.0347579 0.08133334 0.014348586
0002b0 d7 54 97 3c 93 1d fa bc 2d 27 a0 3b 15 ef 7b bd
       0.018473072 -0.03053168 0.0048874826 -0.061507303
0002c0 77 22 86 3d e3 89 ba 3b 32 67 08 bd 25 3f 00 bd
       0.065495424 0.005692707 -0.03330154 -0.03131022
0002d0 b7 ce cf bd 25 e8 40 bd ea 1d eb bc ac 59 48 3c
       -0.101468496 -0.04709639 -0.028700788 0.012228411
0002e0 d4 36 aa bd 8f a0 43 bc 6f be 32 3d 03 82 80 3c
       -0.08311239 -0.011940136 0.043638643 0.015686994
0002f0 a7 bd 2e 3d 9f 14 ac bb d9 98 c2 bc 15 9f c4 3c
       0.042661335 -0.0052514817 -0.023754524 0.024001637
000300 7d 1a 9c 3d a7 40 3f bd 18 da 20 3d 32 c7 c4 3d
       0.0762224 -0.046692517 0.03927049 0.09608306
000310 c3 8e a7 bc f0 98 c1 3b 92 ba 0f be b5 d6 1a bc
       -0.020453816 0.005908124 -0.14036015 -0.009450604
000320 bf 78 12 be e9 c0 4f 3d 08 a1 2d bd 8f de ee 3d
       -0.14303873 0.050721083 -0.0423899 0.116635434
000330 e5 ff a4 bd 3c 7d c0 bd 56 60 f6 bd de 6e d5 bc
       -0.080566205 -0.093988866 -0.12030093 -0.026053842
000340 73 7a be bd ca d9 85 bd 02 be 86 bd e0 d9 49 3d
       -0.09300699 -0.065356806 -0.0657921 0.049280047
000350 6b 04 c8 bd 2f 05 fc bc 8a d9 b5 3d 0c c6 1a bc
       -0.09766468 -0.03076419 0.08879383 -0.009446632
000360 3e 2f 9c bd cf 4a 8d bd 30 8a 83 bc b6 10 04 be
       -0.07626198 -0.06899034 -0.016057104 -0.12897
000370 fa db ea 3c 73 d8 07 3e 44 e4 f0 bc 71 cc 35 3d
       0.028669346 0.13266163 -0.02940572 0.044384424
000380 85 cd 2d 3d cd 12 14 bd d8 83 1d be c6 3e 36 3d
       0.042432327 -0.036150742 -0.15382326 0.04449346
000390 2e 63 7d bc e2 8d 9d bd 53 ff a4 3d 6e 99 02 bc
       -0.015465541 -0.076930776 0.08056512 -0.007971151
0003a0 5c bb c1 3d b7 86 37 bd 17 42 89 3d d6 53 ae bc
       0.09459564 -0.04480621 0.06702059 -0.02128021
0003b0 3a ce 81 3d 04 7c 67 bd cd 40 c9 bd f7 b2 ec bc
       0.06338163 -0.056514755 -0.09826813 -0.02889393
0003c0 47 e8 9c 3d 58 84 12 bd 05 fb de 3d 91 52 41 bd
       0.07661491 -0.035770744 0.10887722 -0.047197882
0003d0 52 1f 44 bd e2 c2 12 3d 4a 61 a6 bd db 38 84 bd
       -0.047881432 0.035830386 -0.08124025 -0.06456157
0003e0 49 5a bd bc 4b 6e 7a 3d 34 41 a4 3d 81 f4 89 bd
       -0.02311434 0.06114034 0.08020249 -0.067360885
0003f0 36 8d 99 bd 80 a9 fd 3d b2 60 48 bd eb 69 22 3d
       -0.07497637 0.12385845 -0.04892034 0.039651792

net.2.bias f4 [128]
000000 b8 b4 e9 bc f4 4d 77 bd 08 a8 b8 3d ef 78 46 bc
       -0.028528556 -0.060377076 0.090164244 -0.012113794
000010 45 81 05 3d 4e 17 2f 3d a8 98 71 bd f9 77 c1 3c
       0.032593984 0.042746834 -0.058983475 0.023616778
000020 5d 3b 3c 3d da 2d 63 3d 16 bb 12 bd 83 8b aa 3d
       0.04595505 0.05546365 -0.03582295 0.08327391
000030 cc 6f 83 bd a3 39 b5 bd 39 f5 c0 bb 3b 2e 2e 3d
       -0.06417808 -0.08848884 -0.005888608 0.042524558
000040 75 7e 9c 3d c1 07 b5 3d 75 95 86 3d 25 60 91 3d
       0.07641307 0.088393696 0.065714754 0.07098416
000050 75 64 0b 3d 29 89 8c 3c 2b ad 11 bd 7e f6 b8 bc
       0.03403135 0.017155247 -0.035565536 -0.022578474
000060 87 06 bd bd ec 78 e9 3c de d2 92 bd 5e e3 5f 3d
       -0.092297606 0.028500043 -0.07169126 0.054660194
000070 31 a9 59 bd bb e9 8a ba 93 0d bc bb 73 1b b7 bc
       -0.05313987 -0.0010598222 -0.005738923 -0.022351956
000080 35 2f 9e bd ef 74 ab 3d 70 6b 51 bc 1a 54 3f 3c
       -0.07723848 0.08371913 -0.012781963 0.011677766
000090 a1 8e 42 3d f3 e0 ae bb 67 2e 3a 3d b1 dd bf 3c
       0.047499303 -0.0053368746 0.04545441 0.02342114
0000a0 3a 54 41 bd 14 e1 79 3d e4 4e 8d 3d 0f 91 9c 3d
       -0.047199465 0.061005667 0.06899813 0.07644855
0000b0 14 72 51 3d b5 34 67 3d 0c 3e 92 3d 1a 21 28 3b
       0.051134184 0.05644675 0.07140741 0.0025654496
0000c0 d9 a7 dd 3c c4 26 26 bb 8a 06 47 3d 4f 3e 41 bc
       0.027057575 -0.0025352696 0.04859022 -0.011794641
0000d0 fd 33 ca 3c 1b 36 30 bd d8 3d 6e bd cf 7a 94 3b
       0.024682993 -0.04302035 -0.058164448 0.0045312415
0000e0 4f 3b b2 3d c7 d4 d9 3b f3 a0 8e 3d de 84 9f 3d
       0.087027185 0.0066476795 0.069642924 0.07789014
0000f0 d4 32 8f bd 86 ef 94 3d 29 27 a0 bd 0f 9a 7a 3b
       -0.069921166 0.07272248 -0.07819969 0.0038238799
000100 04 0d 7a bd a3 5c 8f 3d 8c ea 7b 3d e8 14 fa 3b
       -0.06104757 0.07000091 0.06150298 0.0076318868
000110 90 24 97 3d b6 e1 35 3d 22 a7 94 bc c5 6c 97 bd
       0.073800206 0.044404708 -0.018146101 -0.07393793
000120 35 25 73 3d b0 bf 27 bd 13 8c 7a bd 19 6c 8c 3d
       0.059361655 -0.04095429 -0.06116874 0.068565555
000130 f6 04 96 3d 06 00 ba bd 16 9e 7c bd 70 9a a3 bb
       0.07325165 -0.09082036 -0.0616742 -0.0049927756
000140 c6 07 94 3c 69 2a a0 3d 57 5d eb 3c b1 85 04 bd
       0.018070113 0.07820589 0.028731031 -0.03235406
000150 01 9f 63 3d c3 1d 03 3d 97 6b ae bd 4b 55 71 bc
       0.05557156 0.032010805 -0.08516615 -0.014729808
000160 54 f6 50 3d dd 08 f2 bc 3e 73 8e bd 9f 51 a4 bd
       0.051016167 -0.029545242 -0.069555745 -0.080233805
000170 f6 44 27 bb 30 d6 32 bc 41 39 7a bd 5c 8f 84 bd
       -0.0025523282 -0.010915324 -0.061089758 -0.06472656
000180 76 40 b6 3d 99 a2 6f 3d 0e d2 21 3d 53 6e bc 3d
       0.08899014 0.058504675 0.039506964 0.0920073
000190 ab b3 e6 bb c5 90 74 3d c3 08 7b 3d ec 4f af 37
       -0.007040461 0.059708375 0.061287653 2.0898842e-05
0001a0 ba f8 29 bd 1d 8c 79 bc 64 06 54 3d 17 50 1d 3c
       -0.04149697 -0.0152311595 0.051763907 0.009601614
0001b0 a0 16 9e bd a1 e6 82 bd c8 84 5d 3d 43 bc 12 3d
       -0.07719159 -0.06391645 0.05408171 0.03582407
0001c0 a2 db 2b bd bd f7 42 3d e2 41 32 3d 22 7a c7 3c
       -0.041957505 0.047599543 0.043519862 0.02435023
0001d0 a3 ad b0 bd 2e 14 e9 bb 58 c7 3c bc 3f 69 6f bd
       -0.086268686 -0.0071130013 -0.011522137 -0.05844998
0001e0 17 ea 19 3d 21 21 4e bd c7 f2 92 bd 88 4e 92 bc
       0.03757676 -0.050324563 -0.07175212 -0.017859712
0001f0 dc db a1 bd 01 f3 92 3d 21 f3 9f 3d 1c 48 0f bd
       -0.07903263 0.071752556 0.07810045 -0.03498088

net.4.weight f4 [3, 128]
000000 20 40 44 be 12 45 0c be 61 7a 99 3e 9b 1e ed bd
       -0.19165087 -0.13698223 0.2997618 -0.11578103
000010 35 44 e4 bc 13 b6 05 be 40 6f 4d 3d cf d7 12 be
       -0.027864555 -0.13057737 0.050154924 -0.14340137
000020 63 39 a3 3d 6f 9e 2d 3c 6c 24 2b be 9c 07 15 3e
       0.0796993 0.010596856 -0.16713113 0.14553684
000030 0a 2c 03 3e 56 bf 33 be 51 92 9d 3c 1c 27 2a be
       0.12809768 -0.17553458 0.019234808 -0.16616482
000040 e1 d3 a6 3d 48 a1 6d bb f9 f8 cb bd da 45 e8 3d
       0.081458814 -0.0036259461 -0.09959597 0.11341448
000050 60 c5 e5 3d 34 91 5e 3d 48 06 1f be 2e 36 c5 bd
       0.11219287 0.054337695 -0.1552974 -0.096294746
000060 11 cb 40 be 87 81 29 3e da 90 99 3e 47 6a 00 be
       -0.18827464 0.16553317 0.29993325 -0.12540542
000070 3e 36 81 3e e1 53 f0 3d 74 3c 5a 3e bf 5d 2b be
       0.25236696 0.11734749 0.21312124 -0.1673498
000080 0b 97 0f be d3 92 11 3e 97 59 92 bd 2d 89 ec bd
       -0.14022462 0.14216165 -0.07145994 -0.11549602
000090 15 11 2a be 68 f4 6f bd 23 03 ed 3d d9 ce 7d 3d
       -0.16608079 -0.058582693 0.11572864 0.061964843
0000a0 e9 d9 6d bc db 6b cc 3d d9 7a 24 be b8 60 20 3e
       -0.014517286 0.09981509 -0.16062488 0.15661895
0000b0 c6 a2 ec 3d 36 ec 52 be 67 f6 1d be a1 2b d2 bd
       0.11554484 -0.2059792 -0.15426026 -0.10262228
0000c0 7a 73 75 3e c4 e4 94 be a4 db 6c bc 8e e7 37 be
       0.23969832 -0.29080784 -0.014456663 -0.17959425
0000d0 04 ea 28 be 8c 98 8b 3e d1 47 0d 3e 36 08 de 3d
       -0.1649552 0.27264822 0.13796927 0.1084141
0000e0 2a cf 55 3e 57 55 7d bb 18 25 9a 3d c6 37 21 3d
       0.20879808 -0.0038655603 0.07526606 0.03935983
0000f0 df 49 fe 3d 91 ef 08 3e 40 96 fc bd 1a 8c cf bd
       0.124164335 0.13372637 -0.123333454 -0.10134144
000100 45 d3 80 3d e1 e4 35 bd a5 42 c7 3d 69 c1 a6 bd
       0.062902965 -0.04440773 0.09729508 -0.08142359
000110 3e 17 ee 3d 84 e3 31 be e1 04 17 be c1 ff 5f 3d
       0.11625527 -0.17371947 -0.14747955 0.054687265
000120 0d 28 4c bc 20 14 96 3d e3 1a 2b 3e 10 9c 73 be
       -0.012460721 0.07328057 0.16709475 -0.23790002
000130 81 e1 aa 3c 70 79 20 3e 29 85 36 3d 43 27 9e 3d
       0.020859482 0.15671325 0.044560585 0.07722332
000140 03 30 63 bc b7 80 e1 bd 9d 10 af 3d 23 28 59 be
       -0.013866427 -0.110108785 0.085480906 -0.21206717
000150 00 13 83 3d 24 34 6c 3e e0 3b 63 be df 1c b8 3d
       0.06400108 0.23066765 -0.22190809 0.08989882
000160 50 5b a8 3d cd 13 31 be 64 cc 0b 3e 2b 5c f9 bd
       0.082205415 -0.1729271 0.13652188 -0.12175783
000170 b3 0d 32 3e dc 64 25 3e 7d 14 f0 3d 88 f6 94 3c
       0.17388038 0.16151756 0.11722658 0.018183962
000180 f7 7f 29 3e 38 3c 8d 3d 49 cf 59 bd 65 48 d2 3c
       0.16552721 0.068962514 -0.0531762 0.025669286
000190 f1 8f 2c 3e a9 44 93 bd 03 d1 4d be c4 12 2e be
       0.16851784 -0.0719083 -0.20099263 -0.16999346
0001a0 05 d4 8d be 91 e9 05 be 90 02 de bd 6c 0a bf 3d
       -0.2770082 -0.1307738 -0.108403325 0.0932816
0001b0 7c eb c8 3d 7f 8e 11 3d b0 8e f0 3d 83 84 d7 3d
       0.0981054 0.035536285 0.117459655 0.105233215
0001c0 7b 2c e0 3d c2 3e 85 3d 67 80 64 3e ce 47 b3 bd
       0.10945984 0.06506111 0.22314607 -0.0875393
0001d0 15 ed 3b be ec 38 eb 3d 00 2f 0e 3b 80 7d 62 be
       -0.18352158 0.11485466 0.0021695495 -0.22118187
0001e0 29 ff 93 bd a6 b2 95 3c d2 19 7b be c0 5e 2d bc
       -0.07226402 0.018273663 -0.24521568 -0.010581672
0001f0 fe a9 1e be 23 c0 34 3d 5b 99 09 3e 6c 45 15 be
       -0.15494534 0.04412855 0.13437407 -0.14577264
000200 99 73 1f 3e 29 da 65 bd 66 87 cf 3d 52 03 f2 bd
       0.15571441 -0.056116257 0.10133247 -0.118170395
000210 b9 ca b7 3d d0 2c 75 be d6 8e 8b bd 85 d8 06 be
       0.08974213 -0.23942876 -0.06814353 -0.13168533
000220 5f d6 ef bd b5 5f ae 3d 72 ba 79 bd 9a 45 8c bd
       -0.1171081 0.085143484 -0.060968824 -0.06849213
000230 bc 99 23 bc c6 e2 cf 3d 85 0e ea 3d f3 76 d6 3d
       -0.009985384 0.101506755 0.11428551 0.104719065
000240 60 2f 8c bd 15 4f 3d 3e 99 f0 25 bc b2 eb cc 3d
       -0.068449736 0.18487199 -0.010128164 0.10005893
000250 be 81 ec 3d ab c7 8d 3d 8b d2 18 3d de 49 dc 3d
       0.11548184 0.06922849 0.037310164 0.107562765
000260 9f ac 5d be 2d 20 15 bd b5 b1 87 3b b8 d8 0d be
       -0.21647881 -0.03640764 0.0041410574 -0.13852203
000270 48 a4 d1 3d 11 93 8d bd b1 bf 19 3e 34 9b 06 3d
       0.10236412 -0.06912816 0.1501453 0.032862857
000280 ef 76 01 bd f1 45 61 bd 31 ce 54 be 79 9b 1f be
       -0.031607565 -0.054998342 -0.20781781 -0.15586652
000290 26 fa 1e 3e 72 99 08 3e 06 14 98 3d 00 4a e6 bb
       0.15525112 0.13339785 0.07425694 -0.0070278645
0002a0 97 bc 99 bd 7a 95 ce bd 56 7a f6 bd 16 cc 8c 3e
       -0.07506674 -0.10087104 -0.120350525 0.27499455
0002b0 6c cd 2e be f4 e3 57 bd ea b5 81 bc c8 12 5d bd
       -0.1707055 -0.052707627 -0.015833814 -0.05397299
0002c0 98 2a 9e b9 a6 e2 eb bd 29 fc 31 3e 3d 8f e7 bd
       -0.00030167843 -0.11517839 0.17381348 -0.113066174
0002d0 61 d9 9c bd 60 38 56 3e 6a 82 8d 3d b3 08 0a be
       -0.07658649 0.20919943 0.0690964 -0.13479881
0002e0 27 2c e2 bc c6 e4 36 3e a5 43 12 3e e5 a6 26 bd
       -0.027608944 0.17860708 0.14283617 -0.040686507
0002f0 40 e2 4b bc 7a 75 e2 3d e0 f1 c0 3d 91 0c 06 3d
       -0.012444079 0.11057563 0.09421134 0.032726828
000300 63 0b a4 3e ec 5b 00 bd cb 68 6f bd 12 27 57 3e
       0.32039937 -0.031337664 -0.058449548 0.21010998
000310 57 78 e4 bd 78 c3 5a be 28 3d f6 3d 25 42 2f 3e
       -0.111557655 -0.21363628 0.120233834 0.17115076
000320 82 0d 09 be 5a 8e 47 3e cd fb d4 bd e8 5b 64 bd
       -0.13384059 0.19487897 -0.1039959 -0.05575171
000330 3a 18 f4 bc a8 2f 9c 3d 30 0b 42 bd 65 6a 34 be
       -0.029796708 0.07626277 -0.04737395 -0.17618711
000340 40 0a c5 3d 28 ab 2b 3e 88 15 fb bd 17 64 10 bc
       0.09621096 0.1676451 -0.12259966 -0.008812926
000350 2a 8c 1e 3e b4 24 f3 3d ff c4 df bd 2c c2 f6 3c
       0.15483156 0.11872235 -0.10926246 0.030121885
000360 92 0f 48 bc 00 ed 38 3e ab 73 50 3e fd 68 5b 3c
       -0.0122107435 0.18059158 0.20356624 0.01339173
000370 e7 60 5f bc 9c 93 ef 3c 1c 81 d3 3d 74 ae 81 3d
       -0.013633943 0.02924519 0.1032736 0.063321024
000380 70 9c c5 bd c5 c3 97 bc 93 df 03 be a4 53 ba bb
       -0.09648979 -0.018525967 -0.12878256 -0.0056862403
000390 03 a6 22 3e c3 06 c5 bd 2f bd 3f be 98 9f bb 3d
       0.15883641 -0.0962043 -0.18724512 0.091612995
0003a0 55 ba ee 3d 3a 79 a5 bd b2 7e 12 3e 9d e3 44 3e
       0.11656634 -0.08079763 0.14306143 0.19227453
0003b0 a2 90 90 3d 4e 4e 87 bd 4e a8 bc bd ae 62 e2 bc
       0.070588365 -0.06606732 -0.09211789 -0.027634945
0003c0 2d e6 2e bd 3e 6d f9 3d 9a 75 90 bd ca 30 cf bd
       -0.04269998 0.121790394 -0.07053681 -0.10116728
0003d0 27 dd 82 bd 1d 4a 51 bd ca d6 89 3e a6 20 8c be
       -0.06389838 -0.05109607 0.26921684 -0.2736866
0003e0 3e 3a 4d be b8 8a ae bc 7b e0 af bc fa 4b 8c bd
       -0.20041749 -0.02130638 -0.021469345 -0.06850429
0003f0 15 d1 b3 3d f6 56 8b 3e 94 be 12 3d 13 c2 81 3d
       0.087801136 0.27214783 0.03582628 0.06335845

net.4.bias f4 [3]
000000 ab cd 54 3c 0f f2 87 3b 26 05 d2 3c
       0.012988488 0.0041487287 0.02563722

net.0.weight f4 [128, 18]
000000 81 da 84 3d fb d8 f6 bc c6 6f 5a 3d c0 2f 68 bc
       0.06486989 -0.030132761 0.05332925 -0.014171541
000010 af 80 a9 bd 73 a5 70 3e bf 3b 9c 3d aa 5c 93 bd
       -0.082764976 0.23500614 0.07628583 -0.07195409
000020 9a ca 21 3c ec d9 92 bc b5 a0 75 bd 24 75 5c 3e
       0.009874964 -0.017926179 -0.059967715 0.2152906
000030 f7 82 9b be 85 22 14 be 7c 59 64 bd e4 51 15 be
       -0.30373356 -0.14466293 -0.0557494 -0.1458202
000040 e5 5b d0 bb 2b 37 4a bd ee ac 95 bd 76 6e c3 bd
       -0.006358611 -0.04936902 -0.07308374 -0.09542553
000050 cb d5 0a bc f3 48 08 be 4d f2 8a 38 3f f3 2f be
       -0.008473824 -0.13309078 6.625485e-05 -0.17182635
000060 f5 4a 1e be be d4 44 3d 91 5a 1e bd 5c 6a 04 3e
       -0.15458281 0.04805445 -0.03866059 0.12931198
000070 83 37 18 be 99 a6 12 be 84 0f 48 3d aa eb d3 bd
       -0.14864926 -0.14321364 0.04884292 -0.10347684
000080 f7 0e 99 bd 73 78 42 3e d3 68 c8 bd 75 b9 e8 bd
       -0.074735574 0.1899126 -0.09785619 -0.11363498
000090 90 59 1a be 0c 37 4f 3e e2 93 c7 3c 6d 13 33 3e
       -0.15073228 0.20235842 0.024362508 0.17487879
0000a0 3e c5 1b 3e 27 2a 23 be 5f 7c cd 3d 39 4b 1c 3e
       0.1521196 -0.15934049 0.100334875 0.1526307
0000b0 c4 f6 44 bc 42 95 8b 3d 85 28 63 3e dc cf d0 bb
       -0.012021724 0.06815578 0.22183426 -0.006372435
0000c0 3d ad 31 be b9 9b ff bc d5 55 c2 ba 37 78 5f 3e
       -0.17351241 -0.031202184 -0.0014826605 0.21823202
0000d0 f9 e8 7f bb 5f 12 05 3d 85 95 43 be 27 16 f1 3c
       -0.0039048775 0.032488223 -0.19100006 0.029429508
0000e0 1f 7f 99 bd 03 e9 e1 3d 89 6c 97 39 2e de ed bd
       -0.074949495 0.110307716 0.0002888183 -0.11614643
0000f0 f0 8d b5 3d 4f 2e 47 be 11 54 92 bd 8c 16 49 be
       0.08864963 -0.19451259 -0.07144941 -0.19637507
000100 0f 35 89 3d b0 91 89 bd 78 ec f3 bd 51 8c 1a be
       0.06699573 -0.06717241 -0.11910337 -0.15092589
000110 7a 42 b9 3c bf 0b 87 bd 94 99 bd bd 22 d6 09 3d
       0.022614706 -0.06594037 -0.09257808 0.03365148
000120 4e ca 62 be ac 4b c0 bd 51 52 ca bd dc 81 d9 3d
       -0.22147486 -0.09389433 -0.09878982 0.10620472
000130 f2 d2 cc bd 90 e1 05 be 18 29 da 3d 50 07 4c be
       -0.10001172 -0.13074327 0.10652369 -0.19924664
000140 96 dd 92 3b d7 33 26 3e f4 28 ad 3d 12 db 57 3e
       0.0044819815 0.16230713 0.08455077 0.21079662
000150 82 f2 0c 3e 4b 5b 12 be 69 3f cd 3c 7b 89 66 3e
       0.13764384 -0.14292638 0.02505465 0.22513382
000160 7d 65 6b be f0 67 16 3d 97 15 68 3e a3 a0 0e be
       -0.22987933 0.036720216 0.22664486 -0.13928466
000170 59 fb 8d 3d 36 72 9f 3b e3 21 cb bd d9 6e 35 be
       0.069327064 0.00486591 -0.09918573 -0.17718066
000180 92 e8 6a bd 92 f8 fb 3d 6d e4 1e 3c d6 ba f9 bd
       -0.057350703 0.123032704 0.009698016 -0.12193839
000190 b9 9a 2a 3e 33 8b d2 3d 4f 87 32 3d ee b9 b7 3d
       0.16660585 0.102804564 0.04358607 0.0897101
0001a0 f1 72 ac bd 6e a5 3d be 8a 0f 72 3d c5 36 2d 3e
       -0.08420361 -0.18520138 0.05909685 0.16915424
0001b0 4b 16 80 3e dd 9d 79 3c 91 25 ef 3b 46 49 04 3e
       0.25017008 0.015235391 0.0072981794 0.12918577
0001c0 1f 31 3c 3e 6b 06 3d be 61 02 f0 3c 47 f0 e1 3d
       0.18378113 -0.1845948 0.02929801 0.110321574
0001d0 8d 80 08 bd 02 46 ee 3d ed d4 2d be e5 a0 d7 3d
       -0.03332572 0.11634447 -0.16975756 0.10528735
0001e0 a6 c1 c8 bc 2e 0e 32 be 90 4b 0f 3c 43 6e 2c 3d
       -0.024506401 -0.17388222 0.008746043 0.04209734
0001f0 46 a8 64 3e f0 37 75 bd f9 48 cf bc 1f dc d2 3d
       0.22329816 -0.0598678 -0.02530335 0.10295891
000200 fb 1a 1e 3d d6 da 27 be cc 47 11 be eb 36 6f be
       0.03859995 -0.16392073 -0.14187545 -0.23360793
000210 90 0f af bd f3 2a d0 bd db 7d d8 bc ac 7e 3b 3e
       -0.0854789 -0.10164442 -0.0264272 0.1831004
000220 4b 71 5b 3e b6 cb cc bd 87 85 30 3e 4e 08 04 3e
       0.21429937 -0.09999792 0.17238437 0.12893793
000230 94 e2 a3 3d ed a0 a6 3d 1f 22 0a 3e de 72 88 bd
       0.08002201 0.08136163 0.13489579 -0.06662534
000240 84 84 15 3e 1b 9b fd bd f6 c5 a6 3a ae 14 c1 3d
       0.14601332 -0.123831 0.0012723792 0.094277725
000250 a7 13 36 be 44 14 10 be f9 79 4b 3d a4 7a 45 3e
       -0.17780934 -0.1407023 0.04967687 0.19285065
000260 e6 7a 39 bd bd ec 2d be e3 52 d4 3c 10 70 5e be
       -0.04528322 -0.1698484 0.02591843 -0.21722436
000270 35 41 02 3e b6 fa 02 3e 81 ad c9 3c dc dd c5 bd
       0.12720187 0.12790951 0.024618866 -0.09661457
000280 49 d2 e2 3d 4d 34 e8 3d 20 62 0c be 8f b1 50 be
       0.11075265 0.113381006 -0.13709307 -0.20380233
000290 62 f9 5e 3d fc cf 8f bb 10 32 be 3d 72 e0 bb bd
       0.05443705 -0.0043888073 0.092868924 -0.09173669
0002a0 80 a0 8f be c4 4c 92 3d ca 62 11 3d 82 60 6b be
       -0.2805214 0.07143548 0.035494603 -0.22986034
0002b0 aa ee b5 3d 1b 81 9f 3d a1 aa aa bd 06 a8 20 be
       0.08883412 0.07788297 -0.08333326 -0.15689096
0002c0 e9 00 9c bd 25 a3 6e be 9a bb 00 3e 24 59 01 be
       -0.07617361 -0.23304422 0.12571564 -0.1263166
0002d0 d9 24 c8 bd 86 71 cd bd b3 65 86 3b cd f3 c1 bc
       -0.09772653 -0.100314185 0.004101479 -0.023675824
0002e0 32 7c 6e 3e 9d 80 1c be 9c be 40 3c d1 fd a3 3b
       0.23289564 -0.15283437 0.011764195 0.0050046225
0002f0 07 d3 2e bc db 76 33 be 57 9d 10 3d 37 e9 cb 3b
       -0.01067043 -0.17525809 0.0353063 0.0062228697
000300 6b 43 41 bc 80 f1 e0 3c 58 d3 84 3d 65 d8 f5 bc
       -0.011795859 0.027458906 0.06485623 -0.030010412
000310 53 50 9d bd ff 27 63 be 7a 86 03 bc 90 b6 0a 3e
       -0.07681336 -0.22183226 -0.008027667 0.13546205
000320 89 2c 79 bd f8 af 4b 3e ea 73 6c be 4c b5 42 be
       -0.060833488 0.19891346 -0.23091093 -0.19014472
000330 7a f0 13 be bf 08 45 3e cf c8 f2 ba d4 f3 c7 bd
       -0.14447203 0.19241618 -0.001852298 -0.097633034
000340 25 46 1a be 02 f3 19 bd b0 f3 80 3d 61 2d f8 bd
       -0.1506582 -0.037585266 0.0629648 -0.1211803
000350 f8 76 0e bd 37 ca 02 3d 8f 85 26 be 82 a5 50 3e
       -0.034781426 0.03193113 -0.16261886 0.20375636
000360 b6 70 64 bd 7c ae 3f be cc 6d a6 3b e3 8a 23 3e
       -0.055771552 -0.18718904 0.005079007 0.1597095
000370 db cc 23 be c6 30 6f 3e c9 0d 23 3d 98 1d 1b 3e
       -0.15996115 0.2335845 0.03980807 0.15148008
000380 22 01 09 bd cc b8 e9 3d de 55 2d be 30 ee 6d be
       -0.033448346 0.114122 -0.16927287 -0.23235393
000390 a1 5c 45 bd 3b 17 4e be 6b 8f b5 bd 21 8d e7 bd
       -0.04818404 -0.20126049 -0.088652454 -0.11306215
0003a0 c4 47 43 3e ee 8d 0e 3e e2 00 d8 3d 13 9e 4d 3e
       0.19070345 0.1392133 0.105470434 0.20079832
0003b0 c2 e6 96 3d c9 6f 9b 3d 18 f3 ce 3d b5 65 1d 3e
       0.07368232 0.07589681 0.1010496 0.1537083
0003c0 a2 ad 04 3e 16 3b 58 bd 06 cc 77 bd 50 04 dc bd
       0.1295686 -0.052790724 -0.060497306 -0.1074301
0003d0 af 1b be bd 5f 1a 7b 3c a1 26 02 be c9 13 c3 bd
       -0.09282624 0.015326112 -0.12710048 -0.09525258
0003e0 1d 63 af 3d 55 0b 10 3e d3 dc df bd bb db 5d bd
       0.08563826 0.14066823 -0.10930791 -0.05416463
0003f0 01 ee 26 bd f6 35 d5 bd 97 4a df 3c 45 9d e4 3d
       -0.040754322 -0.10410683 0.027257247 0.11162809

net.0.bias f4 [128]
000000 b6 f0 a4 be 0c c6 b4 3e ee ee 70 be 77 1d 9a be
       -0.32214898 0.35307348 -0.23528644 -0.30100605
000010 61 3b 7a be d3 32 ab 3e ed 02 bd 3e 7a b4 cb 3e
       -0.24436714 0.33437213 0.36916295 0.3978613
000020 d3 41 a9 3e 7c 9f 62 be 2a 5f 8f 3e 7a 36 8b 3e
       0.33058032 -0.22131151 0.28002292 0.2719
000030 6b a1 6f be ac a0 88 be 0f 03 84 be 22 11 ca 3e
       -0.2340142 -0.26685083 -0.25783584 0.39466196
000040 d7 62 af 3e 2a 2e 9d 3e 0e 44 cf be 82 0c ab be
       0.34255096 0.30699283 -0.4048161 -0.3340798
000050 2e 90 a8 3e da 27 b6 be 13 b4 87 be 22 84 cb be
       0.329225 -0.3557728 -0.26504573 -0.39749247
000060 88 1b ad be 2e 60 bd be 0f 04 94 3e 12 58 9f 3e
       -0.33810067 -0.36987442 0.28909346 0.3112188
000070 93 90 a8 3e aa 43 b4 be 56 3c b6 3e f9 ea 7c 3e
       0.329228 -0.35207874 0.35592908 0.2469901
000080 b4 a6 ad be f6 ee c8 be 29 44 84 3e 4d 9b 90 be
       -0.33916247 -0.39244813 0.25833252 -0.28243485
000090 c3 ae a4 3e d5 29 b4 3e 93 f0 c5 be 64 25 9b be
       0.32164583 0.35188165 -0.38660106 -0.30301964
0000a0 c2 4b 85 be 15 83 6c be 47 a1 cb 3e 50 ac c4 3e
       -0.2603436 -0.23096879 0.39771482 0.38412714
0000b0 95 84 97 be 33 10 ab be b6 26 6c be 29 ef c2 3e
       -0.2959334 -0.33410797 -0.23061642 0.3807309
0000c0 5e 23 c7 3e f1 71 87 3e b1 72 b0 3e 22 d4 a6 be
       0.3889417 0.26454118 0.34462503 -0.3258372
0000d0 0e ad 5f be eb 57 9f be 83 8f b2 be be a2 d1 3e
       -0.21843359 -0.31121764 -0.34875116 0.40944475
0000e0 e2 8a cc be 89 12 9b 3e 4f 03 b5 3e 4f 7b 95 be
       -0.3994971 0.3028758 0.35354087 -0.2919564
0000f0 5a 05 85 be cf 9d b3 be 00 8c c6 3e 74 f3 82 3e
       -0.25980645 -0.35081336 0.38778687 0.25576365
000100 75 3e 89 be 87 4f 7b be ef 51 95 3e ee 9c 81 be
       -0.26805463 -0.24542056 0.29164073 -0.2531504
000110 e8 dd c8 be a9 f8 9e 3e 45 f9 d0 3e 50 3f a8 be
       -0.392318 0.31049088 0.40815178 -0.32860804
000120 00 98 88 be 91 24 a5 be d5 02 c7 3e 2a f3 c4 3e
       -0.26678467 -0.3225446 0.38869348 0.3846677
000130 f5 14 a0 be e3 fc 90 3e c5 f6 80 be 6f ba 80 be
       -0.3126599 0.28317937 -0.2518827 -0.25142238
000140 7e 92 b8 be 5d 89 c2 3e 19 f5 8c be 32 fc 89 3e
       -0.36049265 0.37995425 -0.27530745 0.26950222
000150 91 65 90 3e ca 70 c2 3e 8b e8 88 3e 9d cb 97 be
       0.2820249 0.37976676 0.26739916 -0.29647532
000160 df 74 cb be 8b e0 86 be 8b 73 9b be b0 1b 94 be
       -0.39737603 -0.26343188 -0.3036159 -0.28927374
000170 1c dc d3 3e d5 56 bc be a0 bb 51 3e 48 4f 89 be
       0.41378868 -0.36784998 0.2048173 -0.268183
000180 3f 65 b5 be 49 2c 74 3e a8 88 c4 be 2f 92 9d 3e
       -0.35428807 0.23845018 -0.3838551 0.30775592
000190 1d ba 98 3e 31 a5 ac 3e 13 70 a6 be 01 15 81 be
       0.29829493 0.3371978 -0.3250738 -0.25211337
0001a0 88 44 a7 be f8 f4 a5 3e e1 f1 8f be 98 1b 8b be
       -0.32669473 0.3241346 -0.28114226 -0.2716949
0001b0 1a c7 ba be 34 27 85 3e 02 0f be be cc 6f b8 be
       -0.36480027 0.26006472 -0.37120825 -0.36022794
0001c0 f4 63 a7 be 03 fd b6 be 08 e2 8e 3e fe 11 c7 be
       -0.32693446 -0.35739908 0.27906823 -0.38880914
0001d0 be 7e bf 3e 21 49 66 3e 5f f7 c8 3e 1d 99 9b 3e
       0.37401384 0.22488834 0.3925123 0.30390254
0001e0 ee 46 89 3e 6a 59 d2 be 6d 41 a1 be f1 d2 a0 3e
       0.26811928 -0.41083843 -0.31495228 0.31410936
0001f0 68 4c ba 3e 8f e9 8c 3e 89 a3 bf be a1 1c 8e be
       0.36386418 0.2752194 -0.37429455 -0.27756217

net.2.weight f4 [128, 128]
000000 db 11 f8 3c 13 88 ee bd 06 1c 84 3e bf 60 0c 3e
       0.030281952 -0.11647048 0.2580263 0.1370878
000010 bc 8a 8c 3d 4c 93 70 bc 44 85 d6 bd c7 fc e6 bd
       0.06862399 -0.014683556 -0.10474637 -0.11278682
000020 e3 8b 84 bd 93 4a 18 3e 05 5d 98 bd 1e 8e 16 be
       -0.06471994 0.14872198 -0.07439617 -0.14702651
000030 72 ff 8b 3d c9 40 00 3e 53 de ed 3d be fb 13 bc
       0.06835832 0.12524714 0.116146706 -0.009032188
000040 6d e9 cc bd 0e ce 31 be 4c 88 ab 3d fa cc 97 3c
       -0.1000546 -0.1736376 0.08375606 0.018530358
000050 92 61 a9 bd 8b 8f 15 3e 78 dd 43 3e 09 a3 22 3e
       -0.08270563 0.14605539 0.19127452 0.15882505
000060 c3 7d 02 3d ae 31 8a 3d 97 34 08 be e8 fb 27 bd
       0.031858217 0.06747757 -0.13301311 -0.04101172
000070 5a a4 fe bd 5d 9f 05 3d e3 50 82 bc b5 e5 3f be
       -0.12433691 0.032622684 -0.01590771 -0.1873997
000080 90 dd 2e 3e f0 95 87 3c 1d c9 43 be ff 7b ba 3d
       0.17076707 0.016550988 -0.19119687 0.09105682
000090 05 6b a0 bd 2f 37 32 be d5 0d c7 3b af 0a ae 3d
       -0.07832912 -0.17403863 0.006074647 0.084981315
0000a0 3d fa 89 3e 5c c3 12 3e 7b 23 31 bc ef 75 03 be
       0.2694873 0.14332336 -0.010811682 -0.12837957
0000b0 2d ff 42 3e 1b 1d 8c 3d dc ae 09 3e 3b c9 f6 bc
       0.19042654 0.06841489 0.1344561 -0.030125251
0000c0 36 76 bf bd b6 92 98 bd cf 3c 89 bb 65 06 27 3e
       -0.09348719 -0.07449858 -0.004188157 0.16311033
0000d0 f6 e5 81 3e 8d 20 ec 3d 13 dc 24 3e a4 c3 01 be
       0.2537076 0.11529646 0.16099577 -0.12672287
0000e0 59 92 d3 3d 16 20 00 be 65 8a 9d bd 60 94 3c 3e
       0.10330648 -0.1251224 -0.07692412 0.18415976
0000f0 10 eb 79 3e 76 16 34 3e 97 2a 00 be 13 6c 59 be
       0.24406075 0.17586693 -0.12516247 -0.21232633
000100 f2 1e 56 3e 53 00 3f 3e 85 c6 0e be 75 14 21 3e
       0.20910242 0.18652467 -0.13942917 0.1573046
000110 de 87 28 3e e9 10 19 be c8 71 19 bd 3b 09 0f 3e
       0.16458079 -0.14947857 -0.037462026 0.13968365
000120 66 15 29 3e c3 e4 fb 3d 4d cc 1e bd 7d 85 9a bd
       0.16512069 0.12299492 -0.038769055 -0.07544992
000130 48 34 61 3d b6 cd 1a be 42 76 b4 3d 25 5d 2b 3e
       0.0549815 -0.15117535 0.088116184 0.1673475
000140 ab 17 36 3e 8d 15 02 bd d8 03 7c 3d 32 95 6f bd
       0.17782466 -0.031758834 0.061527103 -0.058491893
000150 a0 c7 dd bd f8 45 b0 bd fe be 2a be 30 9f 22 3d
       -0.10829091 -0.086070955 -0.1667442 0.039702594
000160 b1 86 7f 3d b3 89 7f 3e e0 aa 0e 3e 0f 37 4e 3e
       0.06238431 0.24954872 0.13932371 0.2013819
000170 ef a9 11 be a1 9f 9d 3d 13 e2 80 be d6 97 53 3e
       -0.14224981 0.076964624 -0.2517248 0.2066339
000180 09 97 34 3d ef 50 51 be d8 4f 26 3e ed b1 db bd
       0.04408935 -0.2044103 0.16241395 -0.10727296
000190 cf 2a 00 be ab a8 35 be a0 7d 3e 3e b1 6e 6e 3e
       -0.1251633 -0.17740123 0.1860261 0.23284413
0001a0 65 72 1a 3e 1b ba 2b be c5 77 29 3e b8 62 76 3d
       0.150827 -0.16770212 0.16549595 0.06015274
0001b0 bc bc e5 3c e5 8c 95 bd 45 88 11 3c 33 57 f1 3d
       0.028044097 -0.07302264 0.008882587 0.1178421
0001c0 0b a5 ff 3d 77 89 1c 3e 18 d4 47 be cc 0b 0a 3e
       0.12482651 0.15286814 -0.19514501 0.13481063
0001d0 7a b1 34 be ea 67 b6 bd 8a c1 cc bd b2 00 47 bd
       -0.17645827 -0.08906539 -0.09997852 -0.048584647
0001e0 2b ba 1d be 7a 58 28 3e c9 47 15 3e 73 a3 80 bd
       -0.15403049 0.16440001 0.14578165 -0.062811755
0001f0 51 f1 d0 bd 5e ef 06 be f6 a6 12 3e 7a c4 85 3d
       -0.102022775 -0.13177249 0.14321503 0.065316156
000200 bb 61 1e be b9 72 47 3e 21 ea 8c be 80 bf 49 be
       -0.15466969 0.19477357 -0.27522376 -0.19701958
000210 95 96 c8 bd 65 72 53 3d 1a e5 f2 3d 0c c7 e7 3d
       -0.09794346 0.051622767 0.11860104 0.11317262
000220 f5 e1 03 3e 86 38 7c be 7c 54 5d 3e df fa e4 3d
       0.12879165 -0.24630937 0.2161426 0.11180662
000230 40 cf ee bd b4 de 68 be 18 4f 0a be 5b d9 33 3e
       -0.116606236 -0.22741205 -0.13506734 0.17563383
000240 c7 72 28 3e ed f5 57 3e ec 92 0a be 9d 12 10 be
       0.16450034 0.21089907 -0.13532609 -0.140696
000250 d8 4b 2c 3e 5a 42 19 be 9e 50 19 be 09 68 b3 bd
       0.16825807 -0.14966717 -0.1497216 -0.087600775
000260 a9 1a 28 be 2e b5 92 bd a8 16 f5 3d a0 3d 94 3d
       -0.1641642 -0.071634635 0.11967212 0.072383165
000270 4f eb b2 3d 63 33 ee bd e0 15 64 3d 23 bc 86 3e
       0.08736288 -0.11630895 0.055684924 0.26315412
000280 33 50 33 be c3 3d 3c be c7 0e 11 3e ba fb 17 be
       -0.17511062 -0.18382935 0.14165793 -0.1484212
000290 87 0c ab 3d a6 11 d4 3d 3e 99 3c be 26 c2 54 be
       0.08351999 0.10354929 -0.18417832 -0.20777187
0002a0 df c1 64 be 5b 03 7e be 3e 02 1e 3e 8c 78 4c 3e
       -0.22339581 -0.24805968 0.15430543 0.1996786
0002b0 ae 75 14 be c1 5e 2e bd da ba ee bd bb 03 14 3e
       -0.14498016 -0.042570833 -0.11656733 0.14454548
0002c0 0b a2 1d 3d 33 35 2d 3e 59 7a fb 3d 99 1c 39 be
       0.038484614 0.16914825 0.12279195 -0.18077315
0002d0 02 c9 18 be 8d 89 2f bd 28 0b 04 be 24 05 54 3d
       -0.14920428 -0.042855788 -0.12894881 0.051762715
0002e0 1c 4a 95 bd 98 65 22 3e f6 cc 67 3d 9c 13 20 be
       -0.07289526 0.15859067 0.05659195 -0.1563248
0002f0 7c d2 40 be 9d fc 2d bd c1 37 e3 3d f8 f4 88 3e
       -0.18830293 -0.04247724 0.110946186 0.26749396
000300 16 be 6c be 83 a8 07 be 14 53 59 3e 5f e3 20 be
       -0.23119387 -0.13247876 0.21223098 -0.15711735
000310 47 68 13 bd 9f e7 49 3e 8b 5c 1f 3d bd e8 f1 bd
       -0.03598812 0.19717263 0.038906615 -0.118119694
000320 ad 00 30 be ed 4b 0b be 3e 68 98 3d e7 0c 33 3d
       -0.17187758 -0.13603182 0.074417576 0.043713477
000330 7b 06 40 bd 3d 1c 46 3e d5 73 38 be 96 48 45 be
       -0.04688118 0.1934671 -0.18012936 -0.1926597
000340 a6 7f fd bd 65 a5 00 3d a1 8f ed bd 79 8a 0e 3e
       -0.12377863 0.031407733 -0.11599661 0.1392001
000350 fc 71 c1 3d 9b a6 55 3e 95 9e 0e 3e 02 48 24 be
       0.09445569 0.20864336 0.13927682 -0.16043094
000360 1b 4f 89 bd 71 f4 88 be a9 e7 23 be 04 62 6d be
       -0.06704541 -0.26748994 -0.1600634 -0.23181921
000370 8c 22 77 3d a2 a9 7d bd d4 21 37 3e e8 98 35 be
       0.06033568 -0.061929353 0.17883998 -0.1773411
000380 e6 12 76 bd ee 07 11 3e ed 85 1e be 10 79 35 3e
       -0.060076617 0.14163181 -0.15480776 0.17721963
000390 f6 f4 1d 3e b5 4d 3f 3e de 3e 7c bd fa e0 2a be
       0.15425476 0.18681987 -0.061583392 -0.16687384
0003a0 6d e5 34 be df 5e 41 3e 99 54 c6 bd fc 4f 40 be
       -0.17665644 0.18883847 -0.096841045 -0.18780512
0003b0 e8 7c 88 bd c2 14 71 3e 1c f1 33 be 06 6f 35 be
       -0.06664449 0.23543075 -0.17572445 -0.17718133
0003c0 6a 68 ff bd 49 ac aa bd 12 d8 eb 3d 83 a8 da bd
       -0.12471087 -0.08333642 0.115158215 -0.10676672
0003d0 3f 59 a3 3d f5 2e 92 3d 0e a1 ba 3d 90 04 5c 3d
       0.07976007 0.071378626 0.0911275 0.05371529
0003e0 df df 0a 3e b7 5b 44 be 0a c1 22 be 77 8c 22 3e
       0.13561963 -0.19175611 -0.15893951 0.15873896
0003f0 e0 bb 18 3e 60 e0 d8 3d cf 30 1c be fd 78 38 be
       0.14915419 0.10589671 -0.15252994 -0.18014903

net.2.bias f4 [128]
000000 fb 8d 22 bd d2 da 3e 3d f3 bc 08 3c a1 c8 2a 3e
       -0.039686184 0.046595402 0.00834583 0.16678096
000010 33 95 a6 3b 1a 1d a1 3d 72 6b e8 bd bc 93 fe 3d
       0.005083704 0.07866879 -0.113486186 0.12430522
000020 57 fa ec bc 6e 30 06 be 0d af 3e 3d f2 50 eb bd
       -0.028927965 -0.13104412 0.04655366 -0.114900485
000030 dc 3e ed bd 45 22 ef bb a0 9d 0b be 81 eb af 3c
       -0.11584255 -0.0072977864 -0.13634348 0.021474602
000040 f6 a5 0d bd 56 6f 1e 3e 86 61 20 be b3 36 18 be
       -0.0345821 0.15472159 -0.15662202 -0.14864616
000050 8c 0e 0f bd 1b 73 19 be b1 ee 1b be 04 e3 f5 bd
       -0.034925982 -0.14985316 -0.15227772 -0.120061904
000060 61 b2 ec ba 8e 42 e6 3d d5 a5 0a be 25 72 05 3e
       -0.0018058532 0.11243163 -0.13539822 0.13031824
000070 29 90 de bb 15 6f dd 3d bf 82 89 3d 68 ac f1 3d
       -0.0067920876 0.10812203 0.06714391 0.11800462
000080 c4 09 b5 bc dd b4 02 be ec 6f fb bd c8 74 15 be
       -0.022099383 -0.12764306 -0.12277207 -0.1459533
000090 35 f7 d2 bd 57 23 24 bc a3 cb 71 bd 04 86 fd 3b
       -0.10301057 -0.010018191 -0.059032094 0.007736923
0000a0 27 bb 11 be 23 92 e3 bd 55 83 36 3d f6 5c fb 3d
       -0.14231549 -0.11111858 0.04455884 0.1227359
0000b0 1d 49 fb bd 8d b9 e5 bd 0e 3f ac bc 95 bf d3 bc
       -0.122698046 -0.11217032 -0.02102616 -0.02584819
0000c0 3c 95 63 3c fe 10 cd bd f9 5b b2 3d 8d 72 22 be
       0.013890561 -0.10013007 0.08708949 -0.1586401
0000d0 23 6b 0a be a5 dc 84 bd 0a 24 04 be 0b fb 41 3d
       -0.13517432 -0.06487397 -0.12904373 0.047358554
0000e0 33 02 c8 3d 81 6c e9 3d c7 fb d4 3d be a0 29 3e
       0.097660445 0.113976486 0.10399585 0.16565225
0000f0 67 b8 5c 3d fa 61 7c 3c d7 c7 37 3a 90 9f 15 3d
       0.053886797 0.015404219 0.00070106745 0.036529124
000100 95 45 f1 3d b7 8a 1d 3d 42 be 90 bd 51 14 40 bd
       0.1178085 0.038462367 -0.07067539 -0.046894375
000110 da 56 a5 bc 90 94 16 3e 5c ec c9 3c 0c 38 6e 3c
       -0.020183016 0.1470511 0.024648838 0.01453973
000120 90 eb db 3d 4e 8e 74 bd a1 b0 39 bd 96 fb d9 3b
       0.10738289 -0.059706025 -0.045334462 0.006652306
000130 25 b6 25 bd fa d5 c0 3d d4 91 d5 bd 9d 54 a1 bd
       -0.04045691 0.09415813 -0.10428205 -0.07877467
000140 7b 24 10 3d 26 c9 26 3d 5a e7 a0 bc 47 50 fc 3d
       0.03519104 0.040719174 -0.019641567 0.12319999
000150 5c 2e fa bd b8 6c 17 3e 26 7e b8 bd db 96 08 be
       -0.122158736 0.14787567 -0.09008436 -0.13338797
000160 5b 89 c8 bc 47 3d 08 3c 9c b9 0c 3d 74 87 1e be
       -0.024479559 0.008315391 0.0343567 -0.15481359
000170 19 c6 d0 bd 64 2e da 3d ca 5f 42 3d 6c d7 0f 3c
       -0.10194034 0.106533796 0.047454633 0.008779388
000180 07 77 d2 3c 84 b0 1d be d4 18 e8 3c c3 2f e6 3d
       0.025691522 -0.15399367 0.028332151 0.112395786
000190 aa e3 25 be a4 42 b8 bb 3e 28 d1 bd a5 fd ff 3d
       -0.16200128 -0.0056231786 -0.10212754 0.12499551
0001a0 63 b4 ee 3d 3c 87 0c 3e 94 08 b9 3d d2 b2 50 bc
       0.116555 0.13723463 0.09034839 -0.012737947
0001b0 3d 93 99 bd 56 a9 ef 3d 7f 15 76 3d 7d 14 c8 3d
       -0.074987866 0.1170222 0.060079094 0.09769533
0001c0 ea ad 5f 3d 21 a4 44 3c ff 0a 81 bd 44 3f c3 3d
       0.054609217 0.012002022 -0.063009255 0.09533551
0001d0 be 4b 01 3e 14 f4 06 be 8e f2 43 bc de 7d 30 3e
       0.1262655 -0.13179046 -0.011959685 0.17235515
0001e0 cb 27 ba 3d 92 61 1d be 15 9e 7d bd 1c 04 ac 3d
       0.09089621 -0.15369251 -0.061918337 0.08399221
0001f0 b2 1b a7 3d bd 05 94 bd f0 14 82 bd 8c 7e 16 bd
       0.08159579 -0.07227657 -0.0635165 -0.03674178
