runs/checkpoint_e060.pt (torch, 158519 bytes, 12 tensors)

net.0.weight f4 [128, 18]
00000000: 5aec 063f c52a 5cbc e435 1fbe ef42 5bbe
00000010: 9c92 60ba 6652 87bc d141 803e c669 19be
00000020: 663d 0c3e 2282 6b3e 1891 8e3d c6fe 7ebd
00000030: 3649 e33e c56c 813e a287 063e 0efc 8cbd
00000040: 6cd6 3fbe cfd4 ec3d 8093 aa3e a20d df3e
00000050: 6132 213e 7506 373d 675b 1e3d 288f 36be
00000060: 7064 ed3e 50f3 ab3e 42d2 46be 3263 f0bd
00000070: d230 6a3e 0183 f3bb a6d0 b13e 023c 3f3e
00000080: 6bc3 14be 91fe c6bd 8c2e 593e beb2 873c
00000090: d6d5 b0be 8734 cdbe 7284 31be b720 83bd
000000a0: 7642 abbd f606 e93d c2d0 75bd 308a f33e
000000b0: 8237 453d db5e 2d3d 7b77 b2bd 1676 5b3e
000000c0: 46a2 483e 2143 cf3e dd21 393d 53e0 20be
000000d0: 52fa 53bc 6d6a 0e3c 0583 043f b16a f73e
000000e0: 8537 b6bd bd6b 313e 9407 013e d751 23bd
000000f0: 0d1e b83e ca7c 033f a7c2 3e3e 3d68 0a3d
00000100: 3612 373d b211 9abd f487 483e dc42 05bd
00000110: abf6 ed3c a68b 4fbe 2f84 22be 4eab 01bd
00000120: e7f2 04be 32b8 0d3e 175a a0bd 2427 aebc
00000130: fea8 353e 82cd 1bbe 6d8b aabd 5b7b 6b3d
00000140: 47a7 af3d 2aff 24be 6baf a63c d6df 6f3e
00000150: 5efe b2bd 8d21 edbe 5298 55be 349b 273e
00000160: 48cd 693e 80a5 703e 37a6 9c3c f745 1ebe
00000170: f62b 16be c32c 1abe 8858 16bd 3be8 fc3d
00000180: 06ad a23e 6054 093f 5869 543e c86b 80bd
00000190: 1de3 4d3e 1423 1abe 146e 5cbe 1c15 7fbe
000001a0: e5ab edbd 7e05 263e dd3e 80bd 1173 2e3e
000001b0: dfb8 07bf 1d55 8ebe f936 943d 192c a33b
000001c0: a631 0dbd c8dc 093e f9eb 0bbe ae31 923d
000001d0: 5cc7 e83d 3588 693e ce58 1b3d e294 4dbe
000001e0: ef6e 943c 63d2 0a3f 6ab1 c53d 1335 183e
000001f0: a7b8 0c3e 5ed8 683d 9921 d83d 3e10 e93c
00000200: 4785 1a3e 2d5e 49be 6918 34be 4ab0 fa3d
00000210: 2fe0 5dbd bf08 2e3e 2ad9 df3d bdc9 35be
00000220: 247b b6bd 0b56 413e 6637 c33d c224 c5be
00000230: b477 8ebd 3498 373e 4b5d 113e 5555 71bc
00000240: c1a2 8abd 1b08 c0bd a01d 303e 6218 3d3e
00000250: 3adb 103e cae5 8fbc f338 cd3d af79 5abe
00000260: 6045 b1bb ab0f 01be e92b 4bbe 1aad 423e
00000270: d87b 3a3e 496b a33e 0592 42bd b071 06be
00000280: 067b 6abe f732 403c df6b 9cbd d87a e2bd
00000290: 3e2c 27be 635a cf3c c617 6f3e 5c38 f9bb
000002a0: 37a5 17be 6722 0fbf 8e97 1a3e b63f 183e
000002b0: 0fc3 ec3d ce8b 6e3e 73e4 003e 1749 b03e
000002c0: f3ec 11be 121c 07be 62f6 2b3e 65ce 1c3d
000002d0: cb78 1f3e 75db 0e3f e9ce 1f3d 42f3 573e
000002e0: 23e7 08be 71c3 2abe f674 d03e 1ee6 74bd
000002f0: 0456 fabb ac25 06be 4a1f 1f3e 5d9e 01be
00000300: 4849 a83d f152 40bb 7123 3cbe bf75 3ebe
00000310: 0011 65be d7b4 03be 6d7b 5bbd 3a9d 393c
00000320: b84b 623e 3453 353e 4353 473e 7c3e 783d
00000330: 39e7 a1be 1507 0bbf c977 8abd 74b0 24be
00000340: 6f6e 1dbd 04db 0d3e 8b39 963d 4120 ae3e
00000350: 1395 88bd 81fc 2abd 9792 26be e781 edbd
00000360: b204 053f d03d c33e cb59 143d 8fe3 44be
00000370: 5c2d 3fbe c048 433e e588 8e3e 3a1c 3b3e
00000380: e129 6dbd e02e 3c3e 0721 20be 1545 27be
00000390: c226 803e aa5b d23e d086 8cbd f8e3 a03d
000003a0: c2f9 b63c 814e cabc d7d0 473c ce13 dbbe
000003b0: ee6f 533e 4247 163e 0859 0c3e 102b 303e
000003c0: 10b6 c13e 0a15 093f f06a 473e 7823 05be
000003d0: 3317 723c 8ecd 5bbd bf6d a1bd a181 003f
000003e0: 49a4 4c3e d5d2 6e3e 5d0b 3e3e 2d93 9e3d
000003f0: 2fde 6d3e 8066 463e 03af 64bd 1dd8 d23c
0.52704394 -0.013437931 -0.15547901 -0.21412252 -0.00085667684 -0.016518783 0.25050214 -0.14981756
0.13695297 0.2299886 0.06961268 -0.06225469 0.44391793 0.25278297 0.13137677 -0.06884013
-0.18734139 0.115640275 0.3331566 0.4356509 0.15741874 0.044683892 0.038661387 -0.17828047
0.4636569 0.3358407 -0.19416144 -0.1173767 0.22870186 -0.0074313884 0.347295 0.18675235
-0.14527671 -0.097165234 0.21209162 0.016564723 -0.34538144 -0.40079138 -0.1733568 -0.06402724
-0.08362286 0.11378281 -0.06001354 0.47566366 0.04814864 0.04232679 -0.08714195 0.21431765
0.19593152 0.40480903 0.04519831 -0.15710573 -0.012938099 0.008692366 0.5176242 0.48323587
-0.08897308 0.17326255 0.12600547 -0.03987297 0.35960427 0.5136229 0.18628941 0.033790816
0.0446951 -0.07522906 0.19583112 -0.032534465 0.029048285 -0.20268115 -0.15870737 -0.03165751
-0.12983285 0.13839796 -0.07829683 -0.021258898 0.17740247 -0.15215114 -0.083273746 0.057490688
0.085768275 -0.16112962 0.020347318 0.2342523 -0.08739923 -0.4631466 -0.20858887 0.16367799
0.22832215 0.23500633 0.019122226 -0.15456377 -0.14665207 -0.15056138 -0.036705524 0.12348982
0.3177263 0.5364437 0.2074331 -0.06270558 0.20106168 -0.15052444 -0.21526366 -0.24910396
-0.11605052 0.16213033 -0.0626199 0.17036082 -0.53016466 -0.2779931 0.07237048 0.004979622
-0.034471177 0.13463128 -0.13664235 0.07138382 0.1136615 0.22805865 0.037926488 -0.20076326
0.018119304 0.54227275 0.0965298 0.14863996 0.13742314 0.05684697 0.10553283 0.028450128
0.15089904 -0.19664831 -0.17587437 0.12240656 -0.054168876 0.16995524 0.10930093 -0.17752738
-0.08910206 0.18880479 0.09532051 -0.38504606 -0.06956425 0.17929155 0.14195745 -0.014729817
-0.06769324 -0.09376546 0.17198801 0.18466333 0.14146128 -0.017565627 0.10020628 -0.21335481
-0.0054098815 -0.12603633 -0.19840969 0.19011346 0.18211305 0.3191779 -0.047502536 -0.13129306
-0.22898492 0.011730901 -0.07637762 -0.11058587 -0.16325471 0.025311654 0.23348913 -0.0076055955
-0.14809118 -0.5591187 0.15096876 0.14868054 0.11560642 0.23295519 0.12587146 0.34430763
-0.14250545 -0.13194302 0.16793206 0.03828277 0.15573423 0.55803615 0.039015684 0.21088889
-0.13369422 -0.16676117 0.40714234 -0.05978977 -0.0076396484 -0.13100308 0.1553928 -0.12658067
0.08217102 -0.0029346312 -0.18372895 -0.18599604 -0.22369766 -0.12861954 -0.053584505 0.01132899
0.22099197 0.1770752 0.19465356 0.060606465 -0.3162172 -0.5430768 -0.067611285 -0.16082937
-0.038435396 0.13853079 0.07335194 0.34008983 -0.06669059 -0.041744713 -0.16266857 -0.115970425
0.5196029 0.38133097 0.036218446 -0.19227432 -0.18669647 0.1907072 0.27838817 0.18272486
-0.057901267 0.18377256 -0.15637599 -0.16334946 0.2502957 0.4108556 -0.06861651 0.078559816
0.02233589 -0.024695637 0.012195787 -0.42788547 0.20648167 0.1467562 0.13705838 0.17203927
0.37834215 0.5354773 0.19474387 -0.13001812 0.014776039 -0.05366283 -0.078822605 0.501978
0.19984545 0.23322614 0.18559022 0.07742915 0.23229288 0.19375038 -0.055830967 0.025737816

net.0.bias f4 [128]
00000000: 06fa 63be 3467 ac3d 2e57 e8bc 6fcb 2cbd
00000010: ecc0 b6bd 363f 7a3d 70bc c53c 2dd5 23be
00000020: a0fa b3bd 7699 6dbc cd34 4b3e 8551 953d
00000030: b27f 21be 7b22 7fbd a602 39be 7343 34be
00000040: c1c9 313e 8a79 21bc a35c 373e 2aaa 92bd
00000050: 7976 203e 3f53 523e 238a 843d 3d42 0d3e
00000060: c97e 873d 19bb 2cbd 1908 80bb 2da5 34be
00000070: 127f 65bc 2024 213d 2b9d 873d 07f5 46be
00000080: c79b 4b3e 4d1d 10be 8c7a 543e 846b eebd
00000090: 8483 493d 5059 a0bd 34a6 443e 0052 7f3d
000000a0: 563e 4dbd 3af6 62be 5168 c7bc 6ff7 d53d
000000b0: 8586 df3d 2e6a 1b3e 461b 473e 4d32 29bd
000000c0: 532d 39be 657b e13c d2fe edbd da44 6b3e
000000d0: ca18 34be 21bf 543e 65d3 3f3e 1e33 39be
000000e0: 2033 29be 415b 333e 75e2 a23d 35a7 83bb
000000f0: e6a4 fbbd 39de 1fbd 8682 5c3e 4447 11be
00000100: 83d2 373e b5bb d13d 589b c2bd b1fc 5cbe
00000110: 1470 47be 63d5 5abe 50f1 92bd c8f5 b2bd
00000120: 370a 0a3d 71bd 463e 7ffc 2a3e b287 5fbd
00000130: 03e8 f03d 9f8c 013e 5749 ffbd 6af5 78bd
00000140: 1424 1dbe 1202 60be 46b1 92bd 562f 493e
00000150: 4dad 873d d37d 2dbe 3be7 9d3d 5693 5dbd
00000160: 3a28 303e 1ab2 523e 8212 a23d df0d cb3d
00000170: 0306 39bd ff56 873d 5802 57be 6cb0 f13c
00000180: 2e0c 20be 3406 063d 5e44 39bd 9973 2d3d
00000190: d8dc 5d3e 8246 a0bd 58e8 f7bd 80b7 25be
000001a0: c71c 1fbe dfcd 0d3e 16fc 5cbe 2c25 63bd
000001b0: fccf 36be 21f2 393e ee0d 98bd 55b3 8dbd
000001c0: 5b08 bf3d 60c9 5fbe f2b0 38be beae 14be
000001d0: bdc2 9cbd 6a83 14be 33d3 5e3e 28d1 0bbe
000001e0: c2d6 e53b 54c3 96bd 7b26 81bd cb80 25be
000001f0: d7a4 31bd 5cb0 49bd 5343 1bbd 5582 49be
-0.22263345 0.08418122 -0.028361883 -0.042186197 -0.08923516 0.06109544 0.024137706 -0.15999289
-0.08788037 -0.01450192 0.1984436 0.07290939 -0.15771368 -0.062288743 -0.18067417 -0.17603855
0.1736212 -0.009855637 0.17906432 -0.071613625 0.15670194 0.20539568 0.0647166 0.13794799
0.06615979 -0.042170618 -0.0039072153 -0.17641135 -0.014007347 0.039341092 0.06621774 -0.19429408
0.19883643 -0.14073677 0.20749873 -0.11641601 0.04919769 -0.07829535 0.19204026 0.06233406
-0.050108276 -0.2216424 -0.024341734 0.10447585 0.109143294 0.15177223 0.19443998 -0.041307736
-0.18083696 0.02752466 -0.11620869 0.22975484 -0.17587581 0.20776035 0.18732984 -0.18085906
-0.16523409 0.1751528 0.079533495 -0.0040177354 -0.12287311 -0.039030287 0.21534166 -0.14187342
0.17951398 0.102408804 -0.09502286 -0.21580769 -0.19476348 -0.21370463 -0.07174933 -0.08738285
0.033701148 0.19408204 0.16697882 -0.05457277 0.11763003 0.12651299 -0.1246516 -0.06078092
-0.15345794 -0.2187579 -0.071627185 0.19646963 0.066248514 -0.1694253 0.07710119 -0.05409559
0.17202845 0.20575753 0.07913686 0.09914755 -0.04517175 0.0660839 -0.20996988 0.02950307
-0.15629646 0.03272076 -0.045231216 0.04234657 0.21666276 -0.07825948 -0.12104863 -0.16183281
-0.15538321 0.13848065 -0.21580538 -0.05545537 -0.17852777 0.18158771 -0.07424532 -0.069189705
0.093277656 -0.21854162 -0.1803625 -0.14519784 -0.07654331 -0.14503255 0.21760254 -0.13654006
0.0070141265 -0.07361475 -0.06306168 -0.16162412 -0.043370094 -0.049240455 -0.037906002 -0.19678624

net.2.weight f4 [128, 128]
00000000: ac44 8e3c bed9 063c a65c fcbd 70a6 0bbd
00000010: 4d9b e2bc 55cd 9cbd 545f cebd 5a2e ed3c
00000020: a063 7a3d b7c2 ca3c 4a1e 3fbd 9c2e 983c
00000030: ca9b 7a3c 700c e3bd e97e 513c 896e aebc
00000040: c401 a13d db10 283d ce7b dd3c a45e 603b
00000050: ad8e e43d f355 3b3d c0bc f13c 49b8 c33b
00000060: 1cb3 293b 463b 093d fa0a 143e 17ec a5bd
00000070: be2d 3bbd 0459 293d d538 973d b879 413d
00000080: 2a40 d73d 54b3 15bd a1f9 02ba 5d50 9bbd
00000090: 70d1 b63c 46d9 fabd 3da9 803d 86d3 e1bb
000000a0: 4c87 0a3e 7ebf 00bd dc61 80bd dc15 9ebc
000000b0: fcdd 8cbd 84f4 84bd 2f10 c2ba 309f 9abd
000000c0: 9c83 923d c5bb 0dbe f753 853d 4fed 823d
000000d0: 065e 943d 8d82 7cbc 7754 b3bd 7959 c5bc
000000e0: 90f0 8b3d 116a 9cbd a0ca fe3b 4413 c6bd
000000f0: e17b dc3d 17a5 16be 0f9d c93d 3230 9c38
00000100: 6cb7 cbbd 6f40 c5bd bf23 29bc 1d17 913d
00000110: d8c4 183c e484 9f3d 4cde 47bc 009e 95ba
00000120: a0e9 24bd 219d 58bc 41d0 a1bc ab5f 5a3d
00000130: 4ed5 423c d30a 88bd 8314 d1bb ecde 6ebb
00000140: 82f8 d63c 13bb 81bd b7e7 b8bd e6bd 10bd
00000150: 877f 04bd 7d29 afbd 7a25 9d39 092c 093d
00000160: 55c5 ab3b 6b66 2abc 01a8 00bd c380 2bbd
00000170: 7583 00bd 758a 083e c310 5eb9 fa2e 9b3d
00000180: 2041 96bc 26e2 ee3c 81e9 d23c 04e7 46bb
00000190: 585d 033b 9c99 e9bc ee7f f43d 6cfd 773d
000001a0: c575 003e b9de 993d 6f12 863d d8d0 3c3c
000001b0: 6be1 38ba b6b3 823d 40e1 85bd aef0 553d
000001c0: f9be a8b9 a7f7 dcbd 87ae 803c b015 753b
000001d0: 8d06 17bc 6ae3 b03d 286b b33d af70 b4bd
000001e0: 03bb 5dbd 3b7e fdbb 8d0b 68bd f482 bfbd
000001f0: f200 113c bfb5 0fbc 3ce9 233d c0fe 983c
00000200: 9696 7dbc c030 783d ca0f 7fbd b11d 0b3e
00000210: 1f4b 513d 1a02 21bc dfc3 0e3d 469a adbd
00000220: 37ff 023d e5de cabd 5fc5 bb3d f282 6bbd
00000230: 81ea eabc a9bd 0ebd a7db 1bbd e6c8 d53d
00000240: c078 9c3c e4a2 8c3d 377c bfbd 5c01 5abd
00000250: 0b42 2d3c a8b3 8dbb 0915 eb3d cdd0 7f3d
00000260: 34ec f8ba 7b51 243d 8d70 1b3e f7f5 e63c
00000270: 0178 fdbc 71f4 1e3d ac43 ec3b fec8 09bc
00000280: 6bd4 7c3d 4a49 de3b 6310 813c 5411 b43c
00000290: 4113 bd3c 0569 ca3c 3174 5b3c 575c 8fbc
000002a0: 8309 f2bc 35bd 13bd 5645 a53d 9f68 613c
000002b0: 144b 833c 6cd0 ffbc 16b8 963b 8146 72bd
000002c0: c436 883d 65ca 023c 6a51 06bd b6c1 02bd
000002d0: 8283 cdbd e6f0 44bd 1aca f9bc 5cfe 553c
000002e0: 076c a7bd ac06 56bc b6db 233d 4c1f 883c
000002f0: 59f6 343d 0b48 c2bb 300a c6bc 48c6 c83c
00000300: 735b 993d ccd0 3cbd 3a58 243d e07f c33d
00000310: 3d76 a3bc a983 b53b d8e1 0ebe a31f 1fbc
00000320: 1888 0fbe ca88 503d b39d 2ebd 349c ed3d
00000330: e3c2 a4bd 0f16 c1bd d9d2 f1bd 04e2 acbc
00000340: 17e1 babd 10e0 83bd f12a 84bd 4cee 433d
00000350: 5747 c8bd 6e0a 01bd c56d b33d 4b50 20bc
00000360: cd61 9abd e5d5 8dbd d76c 8ebc 68ef 02be
00000370: cef9 e93c e703 083e 4f91 e2bc 7300 373d
00000380: 34b4 293d 8494 02bd f3d8 1bbe e116 3f3d
00000390: 4836 62bc 87a9 9dbd 36d6 a23d 497a cbbb
000003a0: 2a6a c23d c723 39bd 63e2 873d 4a33 b9bc
000003b0: d351 803d 0414 62bd ae71 c4bd a8e5 f0bc
000003c0: 931a 963d c6ad 0dbd 4c2f e03d 768a 40bd
000003d0: 1196 3ebd 8f0c 193d 1253 a4bd f851 83bd
000003e0: 5fee b0bc ed34 7a3d 729a a13d c4e3 86bd
000003f0: 0b58 96bd 7c38 fa3d 6edc 4abd ab19 213d
0.01736673 0.008230625 -0.12322359 -0.034094274 -0.027661944 -0.076563515 -0.10076776 0.028952766
0.061130166 0.02475105 -0.046659745 0.018576913 0.015295932 -0.11086357 0.012786605 -0.021292942
0.07861665 0.0410317 0.027036574 0.0034236098 0.11160026 0.045736264 0.029508948 0.0059728962
0.002589411 0.033503793 0.14457312 -0.08101671 -0.04569792 0.041344658 0.07383887 0.04723522
0.10510285 -0.036547974 -0.0004996304 -0.075836875 0.022316664 -0.12248473 0.0628228 -0.0068916706
0.13528174 -0.03143262 -0.06268665 -0.019297533 -0.06878278 -0.0649195 -0.0014805848 -0.07549894
0.07154009 -0.1384116 0.06510156 0.06392919 0.07244496 -0.015411985 -0.08756345 -0.024090515
0.06832993 -0.07637418 0.0077756196 -0.096716434 0.107658155 -0.14711414 0.0984441 7.447637e-05
-0.09947094 -0.0963143 -0.010323464 0.07084487 0.009324275 0.07789019 -0.012198996 -0.0011414886
-0.040261865 -0.013221056 -0.019752624 0.053313892 0.011891676 -0.066426896 -0.006380619 -0.003644879
0.026241545 -0.0633451 -0.09028571 -0.03533735 -0.032348182 -0.08552835 0.00029973296 0.03348926
0.0052420297 -0.010400395 -0.03141022 -0.041870844 -0.031375367 0.13334067 -0.00021177814 0.075773194
-0.0183416 0.02916057 0.025746109 -0.0030350098 0.002004465 -0.02851563 0.11938463 0.060544416
0.12544926 0.07513184 0.06546485 0.011524402 -0.0007052633 0.063819334 -0.06537104 0.052231483
-0.00032185743 -0.107894234 0.015708221 0.003739696 -0.00921787 0.08637126 0.08760673 -0.08810555
-0.054133426 -0.007735995 -0.05665164 -0.09351149 0.008850323 -0.008771359 0.04001735 0.018676162
-0.015477797 0.060593367 -0.062270917 0.13585545 0.05109703 -0.009827161 0.034854766 -0.08476691
0.031981673 -0.09905795 0.09168505 -0.057497926 -0.028676273 -0.034848843 -0.038051274 0.10438709
0.019100547 0.068670064 -0.09349864 -0.053223953 0.010574828 -0.004324395 0.114786215 0.062454987
-0.0018991292 0.04011677 0.15179653 0.028193457 -0.030941011 0.038807336 0.0072102156 -0.008409737
0.061726015 0.006783639 0.015754884 0.021980919 0.02308047 0.02470828 0.013394401 -0.017500086
-0.029545551 -0.036069114 0.080698654 0.013757854 0.016027011 -0.031227313 0.0045995815 -0.05914927
0.06651071 0.007982825 -0.032792486 -0.03192302 -0.10034849 -0.0480813 -0.030491877 0.013061132
-0.081749015 -0.013063114 0.040004455 0.016616486 0.044180248 -0.0059289983 -0.02417478 0.02450861
0.07488146 -0.04609756 0.040123202 0.095458746 -0.019953841 0.0055393768 -0.1395334 -0.009712133
-0.1401676 0.050911702 -0.042630862 0.11602059 -0.08044984 -0.094280355 -0.11807794 -0.021103866
-0.09124964 -0.06439221 -0.06453503 0.04783468 -0.09779232 -0.031504087 0.08761171 -0.009784768
-0.07538185 -0.06925563 -0.017385883 -0.12786639 0.028561499 0.13282739 -0.02765718 0.044678163
0.04143162 -0.031879917 -0.15219478 0.04665268 -0.013806887 -0.076983504 0.07951014 -0.006209646
0.094929054 -0.045200136 0.06634977 -0.022607464 0.06265607 -0.05519487 -0.09591995 -0.029406384
0.073292874 -0.03458955 0.10946521 -0.047007047 -0.046529833 0.037365492 -0.08023657 -0.06412119
-0.02159804 0.06108563 0.07890786 -0.065864116 -0.073410116 0.12217805 -0.049526624 0.03933112

net.2.bias f4 [128]
00000000: 826e e6bc c7e2 79bd dc6d b93d 8781 5abc
00000010: 296f 023d da8a 2c3d 056a 76bd 3dc8 ba3c
00000020: 211b 3b3d 6c4b 623d 80f7 15bd 5eb6 aa3d
00000030: c21d 84bd 19e7 b4bd 3873 98bb f70e 2c3d
00000040: 0696 9b3d fb59 b53d 5d0d 883d bcb4 933d
00000050: c036 0d3d 28c4 923c b443 10bd d48f b0bc
00000060: 8d54 bdbd 6bdf ed3c c5ca 92bd 9691 5e3d
00000070: 0f8a 57bd 0b9a 9fba 3551 b8bb c884 b9bc
00000080: fb00 9ebd 28dd aa3d c435 62bc e3cb 383c
00000090: 0145 413d 24a3 99bb 0275 3c3d fa80 ba3c
000000a0: c25b 46bd c23f 7a3d 7262 8b3d 52b8 9e3d
000000b0: 45fc 4e3d b257 673d 9eae 903d 6bab 3a3b
000000c0: ee5d de3c 386c 57bb 7e12 483d 6c88 4fbc
000000d0: d9e9 cb3c e0f4 2ebd 9017 6fbd e108 873b
000000e0: 83d0 b13d a372 e63b c44d 903d a0bd 9e3d
000000f0: f498 90bd 64c0 963d bc39 9fbd c712 4e3b
00000100: 9fb1 79bd 0194 913d ee55 7d3d 7b99 0d3c
00000110: ab02 973d 7e38 353d 1e6c 9abc 545a 97bd
00000120: e934 753d 9041 27bd e8b8 78bd edf5 8a3d
00000130: 6ca4 943d e231 b8bd 2907 80bd dc6b b8bb
00000140: 1074 9b3c c38e a13d 6864 e73c aa52 07bd
00000150: 554f 653d 4ba1 033d e598 afbd 9d30 5fbc
00000160: a0ce 4d3d 0cd7 f5bc 85bf 8dbd 7d78 a5bd
00000170: e593 00bb 443c 38bc 66a4 78bd 3497 85bd
00000180: ae57 b53d 6550 6d3d 973a 203d 2fa1 ba3d
00000190: c32f c4bb 437d 703d f3c8 7b3d d129 31b9
000001a0: ef74 2abd 8648 7bbc 12b2 523d 66f1 223c
000001b0: bde8 9cbd 34df 81bd 3619 5b3d 7770 113d
000001c0: de1c 2bbd c840 433d e618 323d 1bcc c83c
000001d0: 2d08 b1bd 5b4a cdbb 0781 33bc 95d4 71bd
000001e0: c2ef 183d 994f 54bd 4b47 93bd 6009 9ebc
000001f0: 5fe7 a1bd 55f1 923d f70b 9f3d 41f8 0dbd
-0.028128866 -0.061007287 0.09054157 -0.013336546 0.03184429 0.042124607 -0.0601597 0.02280056
0.04568017 0.05524771 -0.036612988 0.08335565 -0.06450988 -0.08833141 -0.004652407 0.04200646
0.07596974 0.08855053 0.06643174 0.07212207 0.03447604 0.0179158 -0.035220817 -0.021552958
-0.092446424 0.029037198 -0.071675815 0.05433806 -0.052621897 -0.0012176646 -0.005624915 -0.022646323
-0.07715031 0.083429635 -0.013806764 0.011279079 0.047184948 -0.0046886373 0.046010025 0.022766579
-0.04842735 0.06109596 0.06805886 0.0775 0.05053355 0.056480117 0.070645556 0.002848352
0.027144399 -0.00328709 0.04884576 -0.012666803 0.02489178 -0.042714 -0.05837208 0.0041209315
0.086823486 0.0070327087 0.070460826 0.07751012 -0.070604235 0.07360914 -0.07774684 0.0031444298
-0.06096041 0.07108308 0.061849527 0.00864255 0.07373556 0.04424333 -0.018850382 -0.073902756
0.059864912 -0.04083401 -0.060723215 0.06785188 0.072579235 -0.089938894 -0.06251366 -0.005628092
0.018976241 0.07888558 0.02824612 -0.03303782 0.05598386 0.032136243 -0.08574084 -0.01362243
0.05024588 -0.030009769 -0.06921295 -0.08079622 -0.0019619402 -0.011244837 -0.060703658 -0.0652298
0.08854614 0.057938 0.039118376 0.091127746 -0.005987139 0.05871321 0.061470937 -0.00016895613
-0.041615423 -0.015337115 0.051439352 0.009945249 -0.07661579 -0.06341401 0.05349084 0.035507645
-0.041775577 0.047669202 0.043480776 0.024511388 -0.086441375 -0.0062649674 -0.0109560555 -0.059040625
0.037338026 -0.051833723 -0.071913324 -0.01929158 -0.07905459 0.07174937 0.07765954 -0.03466058

net.4.weight f4 [3, 128]
00000000: 96a3 46be a671 09be b1f3 963e d87f f3bd
00000010: 4f1f 10bd 9fd4 fcbd ad1d 463d 8c7c 0fbe
00000020: d9ff a73d d96e f03b 900f 2bbe 755e 193e
00000030: 7baa 023e 9963 36be 8999 8f3c 2f99 2fbe
00000040: fec5 a63d 6c46 29bc bbd7 c6bd 48cb e73d
00000050: ebd1 dd3d 521d 543d 3955 1dbe 7447 c2bd
00000060: 6d51 37be a6bf 2b3e ef94 973e f3f4 fabd
00000070: 5959 7d3e 963a f23d 06bb 533e 173a 2ebe
00000080: df9a 0ebe 0665 103e 59bb 8abd e789 e4bd
00000090: 82f5 32be db13 71bd cfe5 e83d db05 703d
000000a0: 094a 64bc 0de9 d53d 3159 24be 6de0 1c3e
000000b0: c8c9 ef3d 9bf7 4ebe 0b0f 21be c75c c8bd
000000c0: 1038 723e 2804 96be af5f aabc a5af 37be
000000d0: 108e 25be 9ef6 863e 3d23 093e d976 e23d
000000e0: e1e8 523e 37fa 3bbc b2e2 933d a6f2 1f3d
000000f0: bd71 fa3d 4cb0 073e 7563 ffbd 015f d8bd
00000100: 8de7 573d 3e78 27bd b4b3 d03d b67a adbd
00000110: ffd4 f53d 57d0 26be f835 20be 2594 3c3d
00000120: cdec bfbb dea6 863d b4dd 323e bbcf 70be
00000130: b937 9d3c c3da 1f3e 6b01 353d eebb a33d
00000140: 4643 57bc dc57 e7bd 1d42 af3d 7e10 5abe
00000150: 42c4 723d 76e3 653e fc5b 61be 688e bc3d
00000160: 49c7 a03d 0566 3cbe bbe3 053e 32f1 fbbd
00000170: 17b3 333e dee9 213e ec5a ec3d bd62 7b3c
00000180: b280 293e 1229 843d f4e5 51bd c1d5 b43c
00000190: 38e6 2d3e c292 97bd ff9c 42be e12e 31be
000001a0: 4db1 8fbe a58c 00be 75c6 eabd cdc4 b53d
000001b0: 6e3a c83d 0ea2 2b3d 9c3e f33d caa2 d23d
000001c0: a136 e33d 45f3 7f3d 2336 663e 1fd6 adbd
000001d0: 5a7d 37be 0cc2 fb3d 0d99 a0bb 02e1 5abe
000001e0: 2cba 86bd b59b 8d3c 523d 76be 8678 17bc
000001f0: 0a5a 22be 4ee4 f43c 16d1 023e a7e9 15be
00000200: a089 1f3e 33b8 5dbd b5dc c63d a079 d2bd
00000210: a388 c03d b8ea 71be c390 84bd ad07 02be
00000220: a5b6 e9bd b74f b23d e6ae 67bd 3c5e 8dbd
00000230: 4e75 36bc 2e59 d13d 635e e13d 7f9c dc3d
00000240: 3830 80bd 9e13 3c3e b0d1 46bc 13f1 bf3d
00000250: f7df dd3d c5de 8b3d faac 0d3d 9cb9 d13d
00000260: 3238 5cbe 9df7 2cbd 0609 aa3a e28d 0abe
00000270: 15a9 c73d 0d65 8abd ae2f 173e 348e 1c3d
00000280: def7 e5bc 88cc 42bd c500 48be 061a 1dbe
00000290: cea3 233e 36cb 033e 15c9 963d 7f3c efba
000002a0: 808f 96bd ea67 d0bd a365 e1bd 6ca6 863e
000002b0: 713d 29be d799 4fbd 9753 0dbc c4ee 5ebd
000002c0: 968d 39bb dfbe cdbd 5959 2f3e 5a67 d0bd
000002d0: 106c 99bd 52e2 4e3e a66f 873d 2d70 08be
000002e0: ecd6 d7bc 6d68 333e 0e12 103e 8a14 1ebd
000002f0: 3020 0bbc 64f1 cc3d f766 bc3d 87c8 163d
00000300: f815 a13e f4c3 05bd 69cb 84bd e06f 513e
00000310: a05e e4bd c40b 54be 33d4 003e f18c 2b3e
00000320: 4811 0abe 8110 423e 6d7f e7bd 1119 56bd
00000330: afc9 cabc bbd8 8c3d db6b 38bd ff3f 31be
00000340: 4103 b93d c658 293e 779a f1bd a3e3 71bb
00000350: ff06 1d3e 77cd ea3d f876 cfbd be97 ca3c
00000360: abc5 84bb 4096 3d3e 27f7 483e 8316 7b3c
00000370: 00b8 8fbc 6322 e83c 1ebc cc3d bbf3 833d
00000380: 051e c4bd 842b 40bc c332 00be e6a3 5fba
00000390: 6d58 133e 079a abbd 9807 3fbe e16e bd3d
000003a0: 2d95 f33d 1e02 a5bd c003 163e d3a8 403e
000003b0: deb3 883d 9ae8 8cbd 933f b4bd 3165 c3bc
000003c0: bb66 3bbd 28a4 f33d c674 93bd 5101 c7bd
000003d0: 9462 7fbd 5785 73bd bbc8 853e a099 86be
000003e0: 4bb4 49be 2cee 99bc aa7f adbc 8265 7ebd
000003f0: 96b0 b83d 6aa5 8b3e 2ffd 253d b037 803d
-0.1939834 -0.1342226 0.29482797 -0.11889619 -0.03518611 -0.12345242 0.048368145 -0.14012355
0.08203096 0.007337433 -0.16705155 0.14977439 0.12760346 -0.17811431 0.017529266 -0.17148279
0.08143233 -0.010331731 -0.09709116 0.1131807 0.10831054 0.051785775 -0.15364541 -0.09486285
-0.17902155 0.16772327 0.29605815 -0.122537516 0.24741115 0.11827581 0.20676813 -0.17014347
-0.13926266 0.14101037 -0.06774015 -0.11159115 -0.17476466 -0.058856826 0.113719575 0.058599334
-0.013933667 0.104448415 -0.16049649 0.15319987 0.117084086 -0.20211641 -0.15728395 -0.09783321
0.23654199 -0.29300046 -0.020797579 -0.17938097 -0.16167474 0.2636003 0.13392349 0.11057825
0.20596649 -0.01147323 0.07220973 0.039049767 0.12228725 0.13250846 -0.12470142 -0.105649956
0.05271106 -0.040886156 0.10190526 -0.08470671 0.120035164 -0.16290413 -0.15645587 0.04603972
-0.0058570863 0.06574796 0.17467386 -0.23516743 0.01919161 0.15610795 0.044190805 0.07994829
-0.013138598 -0.11296055 0.08557532 -0.21295354 0.059269197 0.2245005 -0.22007746 0.09206849
0.078505106 -0.18398292 0.13075154 -0.12301864 0.17548786 0.1581187 0.115407795 0.015343365
0.16553 0.06453146 -0.05124469 0.022074582 0.16982353 -0.07401039 -0.19005202 -0.17303039
-0.28064957 -0.12553652 -0.11463634 0.088754274 0.097767696 0.041902594 0.11877176 0.10284956
0.11094404 0.06248786 0.22481589 -0.08488106 -0.17918912 0.12292871 -0.0049010576 -0.21374896
-0.06578478 0.017286161 -0.2404683 -0.009245044 -0.1585466 0.02989402 0.12775072 -0.14639913
0.15579844 -0.054130744 0.09710065 -0.102771044 0.094010614 -0.23624694 -0.064729236 -0.1269824
-0.1141179 0.08706611 -0.05656328 -0.069027394 -0.011136366 0.10222088 0.11004331 0.10772037
-0.06259197 0.18366858 -0.012134954 0.09372153 0.108337335 0.06829599 0.03458879 0.1024048
-0.21505812 -0.04222833 0.001297266 -0.13530686 0.09749047 -0.06757555 0.14764282 0.038221553
-0.028072294 -0.047558337 -0.19531544 -0.15341958 0.15980455 0.12870488 0.07362572 -0.0018252282
-0.07351589 -0.1017607 -0.11005714 0.26298845 -0.16527344 -0.050683822 -0.008625886 -0.054426923
-0.0028313152 -0.100461714 0.17123927 -0.10175963 -0.074913144 0.20203522 0.06613092 -0.13324042
-0.0263476 0.17520304 0.14069387 -0.038593806 -0.008491561 0.10006979 0.091993265 0.03681233
0.31462073 -0.03265758 -0.0648411 0.20452833 -0.11150861 -0.20707613 0.12580948 0.16752984
-0.13483155 0.18951608 -0.113036014 -0.05227 -0.024754373 0.068772756 -0.045024734 -0.17309569
0.09033824 0.1653777 -0.1179704 -0.0036909364 0.153347 0.114649706 -0.10130113 0.02473056
-0.004051884 0.18514347 0.19625531 0.015325191 -0.017543793 0.02833671 0.09996818 0.06442972
-0.09576038 -0.011729125 -0.12519364 -0.00085311977 0.143892 -0.08378988 -0.1865524 0.09249664
0.118936874 -0.080570444 0.14649868 0.18814401 0.06674932 -0.06880303 -0.08801188 -0.023851963
-0.04575227 0.11896545 -0.07200007 -0.09717048 -0.06234987 -0.059453335 0.26129708 -0.26289082
-0.19697683 -0.018790327 -0.021179039 -0.062108524 0.09018056 0.27274638 0.040524658 0.062606215

net.4.bias f4 [3]
00000000: dd25 5a3c 2081 993b 814c cb3c
0.013314691 0.0046845824 0.024816753

net.0.weight f4 [128, 18]
00000000: ea72 843d 1de0 f6bc 63fe 5f3d c02f 68bc
00000010: af80 a9bd 73a5 703e 3d0f 9e3d e17f 93bd
00000020: e6b5 283c ecd9 92bc b5a0 75bd 2475 5c3e
00000030: 2960 9bbe f41e 14be 2fcc 69bd e451 15be
00000040: e55b d0bb 2b37 4abd 563d 95bd d16d c3bd
00000050: 4338 12bc f348 08be 4df2 8a38 3ff3 2fbe
00000060: 3155 1fbe a61a 453d c6a1 23bd 5c6a 043e
00000070: 8337 18be 99a6 12be 6434 473d 3d1e d4bd
00000080: 3fca 9bbd 7378 423e d368 c8bd 75b9 e8bd
00000090: 9eaf 1abe e83d 4f3e 0601 d13c 6d13 333e
000000a0: 3ec5 1b3e 272a 23be bf60 d03d 543e 1c3e
000000b0: 3a7a 51bc 4295 8b3d 8528 633e dccf d0bb
000000c0: da12 31be 81e0 febc bdf6 7eba 3778 5f3e
000000d0: f9e8 7fbb 5f12 053d 05bc 43be 1d1d f13c
000000e0: b7c4 9dbd 03e9 e13d 896c 9739 2ede edbd
000000f0: 3107 b73d 3354 47be 9618 96bd 8c16 49be
00000100: 0f35 893d b091 89bd ad20 f3bd 918b 1abe
00000110: 9803 bf3c bf0b 87bd 9499 bdbd 22d6 093d
00000120: 1ffa 62be f355 c0bd a691 d0bd dc81 d93d
00000130: f2d2 ccbd 90e1 05be 0b84 dc3d 8931 4cbe
00000140: 0eb8 973b d733 263e f428 ad3d 12db 573e
00000150: 2374 0d3e db58 12be 2ef5 d43c 7b89 663e
00000160: 7d65 6bbe f067 163d 7d39 683e d8a1 0ebe
00000170: 22dc 913d 3672 9f3b e321 cbbd d96e 35be
00000180: 6f73 6ebd 0d35 fc3d e0a6 263c d6ba f9bd
00000190: b99a 2a3e 338b d23d 8f63 313d 8aae b73d
000001a0: ae99 afbd 6ea5 3dbe 8a0f 723d c536 2d3e
000001b0: 682a 803e d3ab 793c 160c 013c 4649 043e
000001c0: 1f31 3c3e 6b06 3dbe 2266 e93c ed1c e23d
000001d0: b77f 0cbd 0246 ee3d edd4 2dbe e5a0 d73d
000001e0: 3783 cbbc 2b23 32be ab01 143c 436e 2c3d
000001f0: 46a8 643e f037 75bd db5a cebc 4ce2 d23d
00000200: a0f6 223d d6da 27be cc47 11be eb36 6fbe
00000210: daac b0bd ec17 d0bd 3f65 e0bc ac7e 3b3e
00000220: 4b71 5b3e b6cb ccbd 7b51 303e 430a 043e
00000230: 96b5 a63d eda0 a63d 1f22 0a3e de72 88bd
00000240: 44c2 153e 28a3 fdbd 69be dd3a ae14 c13d
00000250: a713 36be 4414 10be ad07 463d dea2 453e
00000260: 2e91 40bd bdec 2dbe e352 d43c 1070 5ebe
00000270: 10ef 013e 6cf6 023e f4a7 d33c dcdd c5bd
00000280: 49d2 e23d 4d34 e83d d6ac 0cbe 22b8 50be
00000290: dfcb 663d fccf 8fbb 1032 be3d 72e0 bbbd
000002a0: c8eb 8ebe e82b 923d 2534 183d 8260 6bbe
000002b0: aaee b53d 1b81 9f3d c4a5 a9bd fb9e 20be
000002c0: 23e0 a1bd 25a3 6ebe 9abb 003e 2459 01be
000002d0: e0bd c7bd 7479 cdbd 4d27 973b cdf3 c1bc
000002e0: 327c 6e3e 9d80 1cbe f978 2f3c 851c a73b
000002f0: 7ea5 33bc db76 33be 579d 103d 37e9 cb3b
00000300: 74d2 46bc 1a8c e03c bec5 883d 65d8 f5bc
00000310: 5350 9dbd ff27 63be b603 febb f5bc 0a3e
00000320: 1e07 81bd f8af 4b3e ea73 6cbe 4cb5 42be
00000330: d93f 15be 6929 453e 7944 0bbb d4f3 c7bd
00000340: 2546 1abe 02f3 19bd 41fd 7f3d 056a f8bd
00000350: 6b2a 13bd 37ca 023d 8f85 26be 82a5 503e
00000360: 175e 65bd 83b2 3fbe 4519 993b e38a 233e
00000370: dbcc 23be c630 6f3e e33a 273d ca0f 1b3e
00000380: 5851 0ebd ccb8 e93d de55 2dbe 30ee 6dbe
00000390: a5aa 43bd 7314 4ebe 42af bbbd 218d e7bd
000003a0: c447 433e ee8d 0e3e 4578 d73d 0da2 4d3e
000003b0: d30e 9c3d c96f 9b3d 18f3 ce3d b565 1d3e
000003c0: a6bb 053e b287 58bd 91fc 7fbd 5004 dcbd
000003d0: af1b bebd 5f1a 7b3c 4ec1 01be 43f6 c2bd
000003e0: cf89 b33d 550b 103e d3dc dfbd bbdb 5dbd
000003f0: e328 28bd f83c d5bd dc9c e43c 459d e43d
0.064672306 -0.030136162 0.05468596 -0.014171541 -0.082764976 0.23500614 0.0771775 -0.07202125
0.010297274 -0.017926179 -0.059967715 0.2152906 -0.30346802 -0.14464933 -0.05707949 -0.1458202
-0.006358611 -0.04936902 -0.072870895 -0.0954243 -0.008924547 -0.13309078 6.625485e-05 -0.17182635
-0.15559842 0.048121117 -0.0399492 0.12931198 -0.14864926 -0.14321364 0.048633948 -0.1035733
-0.07606935 0.1899126 -0.09785619 -0.11363498 -0.15106055 0.20238459 0.025513183 0.17487879
0.1521196 -0.15934049 0.10174703 0.15258151 -0.012785489 0.06815578 0.22183426 -0.006372435
-0.17292348 -0.031112911 -0.0009726098 0.21823202 -0.0039048775 0.032488223 -0.19114693 0.029432828
-0.07703536 0.110307716 0.0002888183 -0.11614643 0.089369185 -0.19465713 -0.07328908 -0.19637507
0.06699573 -0.06717241 -0.11871467 -0.15092303 0.023317143 -0.06594037 -0.09257808 0.03365148
-0.22165726 -0.093913935 -0.1018403 0.10620472 -0.10001172 -0.13074327 0.10767373 -0.19940771
0.0046300953 0.16230713 0.08455077 0.21079662 0.13813834 -0.14291708 0.025995817 0.22513382
-0.22987933 0.036720216 0.2267818 -0.13928926 0.07122065 0.00486591 -0.09918573 -0.17718066
-0.058215555 0.12314806 0.010171622 -0.12193839 0.16660585 0.102804564 0.043307837 0.089688376
-0.08574234 -0.18520138 0.05909685 0.16915424 0.25032353 0.01523872 0.007876417 0.12918577
0.18378113 -0.1845948 0.028491084 0.110406734 -0.034301486 0.11634447 -0.16975756 0.10528735
-0.024842842 -0.17396228 0.009033601 0.04209734 0.22329816 -0.0598678 -0.025189808 0.10297069
0.03978598 -0.16392073 -0.14187545 -0.23360793 -0.08626719 -0.10160813 -0.027392028 0.1831004
0.21429937 -0.09999792 0.17218582 0.1289454 0.081401035 0.08136163 0.13489579 -0.06662534
0.14624888 -0.12384635 0.0016917709 0.094277725 -0.17780934 -0.1407023 0.048347164 0.1930041
-0.047013454 -0.1698484 0.02591843 -0.21722436 0.12688851 0.12789315 0.025836922 -0.09661457
0.11075265 0.113381006 -0.13737807 -0.20382741 0.05634677 -0.0043888073 0.092868924 -0.09173669
-0.27914262 0.07137281 0.037159104 -0.22986034 0.08883412 0.07788297 -0.082835704 -0.15685646
-0.07904079 -0.23304422 0.12571564 -0.1263166 -0.09753013 -0.10032931 0.0046128393 -0.023675824
0.23289564 -0.15283437 0.0107099945 0.0050998353 -0.010964749 -0.17525809 0.0353063 0.0062228697
-0.012135137 0.027410556 0.06678341 -0.030010412 -0.07681336 -0.22183226 -0.007751907 0.13548644
-0.063001856 0.19891346 -0.23091093 -0.19014472 -0.14575137 0.19254078 -0.002125053 -0.097633034
-0.1506582 -0.037585266 0.06249738 -0.121295966 -0.035929125 0.03193113 -0.16261886 0.20375636
-0.055997934 -0.1872044 0.004672202 0.1597095 -0.15996115 0.2335845 0.040827643 0.15142742
-0.034745544 0.114122 -0.16927287 -0.23235393 -0.04777016 -0.20124988 -0.09164287 -0.11306215
0.19070345 0.1392133 0.105209865 0.20081349 0.07620015 0.07589681 0.1010496 0.1537083
0.13059863 -0.052863784 -0.062496725 -0.1074301 -0.09282624 0.015326112 -0.12671396 -0.09519627
0.08766519 0.14066823 -0.10930791 -0.05416463 -0.041054618 -0.104120195 0.027906828 0.11162809

net.0.bias f4 [128]
00000000: 0f30 a2be d68f b13e 7f0d 67be 74bb 96be
00000010: c631 72be f202 a83e 3b5e ba3e 2603 c93e
00000020: ea5d a53e 1541 5abe 0db9 8b3e 0258 873e
00000030: 56c3 67be 1bfa 84be ee61 7ebe 4c01 c73e
00000040: fce6 ab3e 3970 9a3e e839 cbbe 7ef0 a6be
00000050: deb0 a53e 85ac b2be 462b 82be 7cdc c8be
00000060: 177c a9be e368 babe c59c 8e3e 76a2 9a3e
00000070: 7fb6 a43e 7113 b1be ef9a b23e 91e8 713e
00000080: 3748 aabe 9242 c6be 2f80 803e 7f61 8cbe
00000090: 3d5d a13e 0f7c af3e 64f3 c2be c547 97be
000000a0: 5a08 80be 8ddc 63be 5d61 c83e 0064 c13e
000000b0: 8a1a 90be 2d76 a7be f9ee 62be 2f76 bf3e
000000c0: 599a c33e 0087 843e 7433 ae3e 9ec1 a3be
000000d0: 6b9c 55be 62cd 9bbe 8785 afbe 907f ce3e
000000e0: 1550 c9be 34cf 973e 50af b13e c00f 92be
000000f0: 59dc 7ebe 3d12 b1be 5d40 c33e 6c2a 7c3e
00000100: ddee 84be bf71 73be 14f5 913e 3274 7cbe
00000110: 0a18 c6be 9369 9c3e eabf cd3e 9fcd a5be
00000120: 3168 84be 9371 a2be bb26 c43e fcf9 c13e
00000130: e800 9cbe 7873 8e3e f87a 7abe 9db6 77be
00000140: bb90 b5be 8ec4 bf3e 249f 88be 74ae 853e
00000150: 75da 8b3e 805c bf3e dc04 853e a4b9 93be
00000160: 642a c8be 1753 80be e9e0 97be b47a 8dbe
00000170: 1dc5 d03e 0939 b9be bfec 493e c627 84be
00000180: 8be4 b1be b23d 6c3e e68f c1be e1f3 9a3e
00000190: 3799 953e 6b76 a93e 78c0 a2be e8e6 77be
000001a0: 1ea1 a3be 2c28 a23e 863b 8bbe fd86 87be
000001b0: db2d b7be 186e 803e aafc babe 6143 b5be
000001c0: 709d a3be 796c b4be e544 8b3e d114 c4be
000001d0: b761 bc3e 8f92 5e3e cbf2 c53e 5ee6 973e
000001e0: 86b2 833e 0c41 cfbe c839 9ebe b376 9d3e
000001f0: 0f9d b73e 7fc7 883e 1294 bcbe d5a3 88be
-0.3167729 0.3468005 -0.22563742 -0.2943989 -0.236518 0.32814747 0.36400017 0.39260215
0.32298213 -0.2131389 0.2728962 0.26434332 -0.22633108 -0.25972065 -0.24842045 0.38868177
0.33574665 0.30163744 -0.39692616 -0.32605356 0.323615 -0.34897247 -0.2542364 -0.39230716
-0.33102486 -0.36408147 0.2785398 0.30202073 0.32170483 -0.34585145 0.3488383 0.23623873
-0.3325822 -0.38722664 0.25097796 -0.27418134 0.31516448 0.34274337 -0.38076317 -0.29546943
-0.25006372 -0.22252102 0.39136782 0.37771606 -0.28145248 -0.32707348 -0.22161473 0.37394854
0.38203695 0.25884247 0.3402363 -0.31983656 -0.2086045 -0.30430132 -0.3428156 0.40331697
-0.3931891 0.2965027 0.34704065 -0.2852764 -0.24888743 -0.34584227 0.38135043 0.24625558
-0.25963488 -0.2377386 0.28507292 -0.246537 -0.38690215 0.30549297 0.4018548 -0.3238344
-0.25860742 -0.31727275 0.383108 0.37886035 -0.3046944 0.2782247 -0.24460971 -0.24190755
-0.35461983 0.37454647 -0.26683915 0.2610966 0.27315107 0.3737526 0.2598027 -0.2885257
-0.3909484 -0.25063393 -0.2966378 -0.27632678 0.40775385 -0.36176327 0.19719218 -0.25811595
-0.34744677 0.2307041 -0.37805098 0.3026419 0.29218456 0.33098158 -0.31787467 -0.24209177
-0.3195886 0.31671274 -0.2719385 -0.26470175 -0.35777172 0.25083995 -0.36520892 -0.3540297
-0.31956053 -0.35239008 0.27201 -0.38297132 0.367933 0.21735595 0.386618 0.29667944
0.2572214 -0.40479314 -0.3090346 0.30754623 0.35862014 0.26714703 -0.3683172 -0.26687494

net.2.weight f4 [128, 128]
00000000: 77d1 e23c b31b e9bd 1461 7e3e 2a70 093e
00000010: 69d4 833d f801 46bc e505 d2bd a893 e2bd
00000020: 51e2 7bbd 5d42 0f3e 8110 91bd c9e9 11be
00000030: 3e82 813d e640 f83d c1d5 e03d 957d dcbb
00000040: 1035 c7bd ef3c 2fbe 9b19 a63d 452b 7d3c
00000050: 8e6a a4bd 59b3 123e b803 3a3e c373 203e
00000060: c430 ee3c 046f 853d 3e1b 01be 2b04 19bd
00000070: 7e20 f8bd 95fe f63c 356f 57bc 25ea 36be
00000080: 3bef 2b3e 3d54 6b3c f62c 3fbe 384b b03d
00000090: 95c1 9abd 7776 2ebe ab49 713b af30 a73d
000000a0: 8df2 843e b3c2 0c3e e69e 08bc a2f9 00be
000000b0: c3eb 373e 7a56 863d 2134 023e 8470 e1bc
000000c0: b341 babd abc6 92bd 2d4d 06bb 9463 243e
000000d0: 4684 763e 75f2 e53d 8151 223e 86dd febd
000000e0: 9eb9 ce3d 59d2 f9bd a858 98bd 5207 393e
000000f0: 8036 6f3e 18ca 313e 1e33 fbbd 3c66 50be
00000100: 3aca 513e 16ef 393e 7f3e 0bbe 0018 1d3e
00000110: 834c 263e e879 16be d70f 10bd bbc5 0c3e
00000120: 9f7f 243e 1622 f73d 41be 15bd b7c9 95bd
00000130: 9896 533d 451b 18be 3870 a93d 2a44 253e
00000140: 6856 333e b3a4 f1bc 7396 683d 459a 5cbd
00000150: 4e91 d5bd 8f97 abbd 47ce 26be fb70 133d
00000160: 87f3 743d cd53 743e f651 0b3e 53c7 433e
00000170: 7f66 0fbe 3ed1 983d fa07 7abe a12d 4d3e
00000180: 5f00 2a3d 3b94 4cbe 2b08 243e fa58 d6bd
00000190: ac0c fabd 69f8 32be 3b39 3b3e 4395 623e
000001a0: a831 173e 3d97 28be 9193 243e be9b 683d
000001b0: e498 d03c b773 8abd ad7c d23b 6a1a ec3d
000001c0: 7e80 f93d 3c2d 1a3e 16a1 43be 2aa2 073e
000001d0: ab17 32be f133 adbd 880b c8bd 855d 3abd
000001e0: 3d19 17be 261d 263e 5b94 123e 5f1d 75bd
000001f0: 9628 ccbd 6e53 02be 3153 103e ba86 743d
00000200: f4b3 1bbe 74b9 443e f06f 89be 08fb 46be
00000210: 2b28 c1bd 87fc 483d b837 ee3d bd29 e33d
00000220: 18a0 003e 4cd2 75be 99db 593e bf3e dd3d
00000230: 5717 e6bd 0331 65be c250 05be cf6f 313e
00000240: 209a 253e c561 553e 0499 07be 74d1 0cbe
00000250: 5ccd 293e 5972 16be 6331 12be c8db aebd
00000260: 5d48 25be 67cf 8dbd 621d e83d a871 8c3d
00000270: 4fa9 ac3d 9b14 e9bd f810 593d 143a 833e
00000280: aa7a 30be 06ea 39be 1ff3 0c3e e57f 13be
00000290: aa7f a53d 4a98 cc3d c223 3abe 1b77 51be
000002a0: 4756 5dbe 8d06 79be 5368 1b3e aff1 493e
000002b0: 8b4b 0cbe 6dc6 22bd bff5 e2bd 6450 113e
000002c0: 6450 133d b577 2a3e 5a03 f73d 7480 36be
000002d0: c629 10be d4ac 23bd bd80 01be 3781 4a3d
000002e0: c076 90bd 445a 1f3e 8685 5d3d 2fe4 1cbe
000002f0: 2601 3abe 5b93 24bd a3fe dd3d cb74 853e
00000300: a401 69be aa9e 03be d0f5 553e 8455 1dbe
00000310: 0528 0abd 6a51 473e 97d3 153d 9942 edbd
00000320: 2819 2cbe 02d6 08be dbbc 933d f58d 293d
00000330: 197c 33bd 0c68 433e 918d 33be 4a4e 40be
00000340: 23ce f7bd 9d87 ee3c 1686 e5bd 0d7f 0a3e
00000350: b20c ba3d 774c 533e 1624 0b3e 00c3 20be
00000360: 5bfe 83bd 0b45 84be 70b4 20be 1d70 65be
00000370: 3cf7 6d3d c7e4 73bd 30a6 303e 3848 30be
00000380: 4cb0 6bbd 26f3 0c3e ee28 1cbe 22bb 323e
00000390: 74f2 1a3e 6ba7 3c3e cc55 6fbd a10e 23be
000003a0: 3fd0 31be 244e 3e3e 2f9f bdbd ef1e 3dbe
000003b0: 912d 83bd 8880 6c3e 9b59 31be 41c1 32be
000003c0: 6090 f9bd 40b8 a5bd 8663 e43d bfcd d5bd
000003d0: cb0f 9e3d 2139 8a3d 1fd4 b53d fedb 4f3d
000003e0: 336f 053e 6007 42be ab29 20be 56a2 1f3e
000003f0: c555 163e b3e0 d03d cdcb 19be 30e8 33be
0.027687771 -0.11382236 0.2484172 0.13421693 0.064369984 -0.01208543 -0.102550305 -0.110633194
-0.06149513 0.1399016 -0.07083226 -0.14249338 0.0632367 0.121217534 0.1097827 -0.0067288377
-0.09726918 -0.17113088 0.081103526 0.015452211 -0.08028136 0.14326228 0.18165481 0.1566916
0.029075988 0.06515315 -0.12608048 -0.03735749 -0.121155724 0.030150691 -0.013149072 -0.17862757
0.16790478 0.014363346 -0.18669495 0.08608097 -0.07556454 -0.17037378 0.0036817591 0.081635825
0.25966302 0.13746147 -0.008338666 -0.12595227 0.1796103 0.06559463 0.12715198 -0.027519472
-0.090945624 -0.07166799 -0.0020492778 0.16053611 0.24073896 0.11227886 0.15851404 -0.12444596
0.100939974 -0.12198324 -0.07438785 0.18069199 0.23360634 0.17362249 -0.12265609 -0.203515
0.204873 0.1815761 -0.13598059 0.15341187 0.16240124 -0.14694941 -0.035171356 0.13747303
0.16064309 0.12067048 -0.036558393 -0.07313865 0.05165729 -0.14854153 0.08273357 0.16139284
0.1751343 -0.02949748 0.056784105 -0.05385806 -0.10428105 -0.08378517 -0.16289626 0.03599642
0.05980256 0.23860092 0.13605484 0.19119005 -0.14003943 0.07461785 -0.24417105 0.20036937
0.04150426 -0.1997842 0.16018741 -0.1046619 -0.12209448 -0.17477573 0.1828355 0.22127251
0.14765036 -0.16463943 0.16071917 0.056789152 0.025463529 -0.06760352 0.006423554 0.115284756
0.12182711 0.15056318 -0.19104418 0.13245454 -0.17391841 -0.08457173 -0.097678244 -0.045499343
-0.14755721 0.16222057 0.14314406 -0.059842464 -0.09968679 -0.12727138 0.14094235 0.059698798
-0.15205365 0.1921137 -0.26843214 -0.19431698 -0.094314896 0.049068954 0.11631721 0.11091945
0.12561071 -0.24006003 0.21275176 0.108029835 -0.112349205 -0.22381978 -0.13019088 0.17327808
0.16172075 0.20838077 -0.13241965 -0.13751775 0.16582245 -0.14692058 -0.14276652 -0.08538014
-0.16140886 -0.069243245 0.11333729 0.06857616 0.084307306 -0.11380883 0.0529947 0.25630248
-0.17234293 -0.18155679 0.13764618 -0.14404257 0.080809906 0.09989984 -0.18177703 -0.20455591
-0.21614943 -0.24318905 0.15176515 0.19721101 -0.13700692 -0.039740015 -0.110820286 0.14190823
0.03596534 0.16647227 0.12061186 -0.17822438 -0.14078435 -0.039959744 -0.12646766 0.049439635
-0.070539 0.15561777 0.054082416 -0.1532142 -0.181645 -0.04017959 0.10839584 0.26065668
-0.22754532 -0.12853494 0.20894551 -0.15364653 -0.03372957 0.19464651 0.03657874 -0.11584968
-0.16806471 -0.13362888 0.07213756 0.041395146 -0.04381952 0.1908266 -0.17534472 -0.18779865
-0.12099864 0.0291174 -0.112072155 0.13525029 0.09084453 0.20634638 0.13587984 -0.15699387
-0.06444999 -0.25833926 -0.15693831 -0.22406049 0.05809711 -0.05954435 0.17250896 -0.1721505
-0.057541177 0.13764629 -0.15249988 0.17454198 0.15131551 0.1842324 -0.05843143 -0.15923549
-0.17364596 0.18584496 -0.092588775 -0.18468831 -0.064051755 0.23095906 -0.17319338 -0.17456533
-0.121857405 -0.080917835 0.11151795 -0.104396336 0.07717856 0.06749178 0.088783495 0.05074691
0.130307 -0.18948126 -0.15640895 0.1558927 0.14681156 0.10199108 -0.1501915 -0.17569041

net.2.bias f4 [128]
00000000: 4feb 1cbd 066f 383d d51e e33b 2a4a 293e
00000010: 6a75 733b 3346 9e3d 7658 e5bd 61bd fb3d
00000020: 20f1 e0bc a5cd 04be 2023 393d 708a e8bd
00000030: df63 eabd 16e9 0dbc fd1e 0abe 50d8 a33c
00000040: 6bf0 07bd c9f3 1c3e 71d8 1ebe 7ebd 16be
00000050: f87d 09bd fd0a 18be 507a 1abe f006 f3bd
00000060: 565f cdb9 0b6f e33d 1019 09be 2a0c 043e
00000070: b6bb 08bc 3ba0 da3d 81a4 863d f7e1 ee3d
00000080: 30a2 a8bc 8251 01be 2030 f8bd 12f5 13be
00000090: 8138 d0bd c413 0dbc 61bb 6abd f5a4 153c
000000a0: e945 10be 0f91 e0bd e059 303d 4a48 f83d
000000b0: af48 f8bd 7dbc e2bd 6474 a0bc 10c6 c8bc
000000c0: bcb6 4b3c 8c42 cabd b06c af3d bd01 21be
000000d0: 1ce9 08be 3e11 82bd d5ae 02be 94a3 3b3d
000000e0: 7c01 c53d 0494 e63d e113 d23d 1126 283e
000000f0: c70b 573d 12a8 893c 836d 0c3b a0ca 0f3d
00000100: e66b ee3d e61c 173d 91d4 8dbd 564c 3abd
00000110: d0db 99bc dc23 153e 3a6b be3c a213 563c
00000120: 58f1 d83d c9d6 6ebd 9229 34bd f227 033c
00000130: b210 20bd 421a be3d bd8e d2bd 1e38 9ebd
00000140: 0a31 0a3d 28f4 203d 1b76 95bc 1756 f93d
00000150: e13c f7bd 19e5 153e 8d98 b5bd 4729 07be
00000160: 0f14 bcbc 6433 e03b 2df3 063d f2af 1cbe
00000170: 8ee9 cdbd 3485 d73d 9bc6 3c3d d83f 263c
00000180: ca00 c73c ab48 1cbe 3214 dc3c d711 e33d
00000190: 8958 24be 81ad 89bb e855 cebd e0e2 fc3d
000001a0: ebc9 eb3d 2027 0b3e 3f2a b63d 9acd 36bc
000001b0: 276c 96bd 25b0 ec3d e782 703d 6e4b c53d
000001c0: 349e 593d 9ef8 2d3c e3b0 7cbd 2562 c03d
000001d0: 46c0 ff3d 7398 05be 1f69 2bbc 44f7 2e3e
000001e0: 53de b63d 52da 1bbe d4d6 77bd af18 a93d
000001f0: 5734 a43d 8e15 91bd e858 7ebd 2ef8 10bd
-0.038310345 0.045027755 0.0069311657 0.16532198 0.0037148842 0.07728233 -0.11198513 0.122919805
-0.027458727 -0.12969072 0.045199513 -0.1135453 -0.1144483 -0.008661529 -0.13488384 0.020000607
-0.033188265 0.15327372 -0.15512253 -0.14720723 -0.0335674 -0.14847942 -0.15085721 -0.118665576
-0.00039171678 0.11105164 -0.13388467 0.12895265 -0.008345535 0.10675093 0.065743454 0.11664193
-0.02058515 -0.12628749 -0.12118554 -0.14448956 -0.10167027 -0.0086106695 -0.057307605 0.009133567
-0.14089169 -0.10965168 0.04305446 0.12123163 -0.12123238 -0.110711075 -0.01958675 -0.024508506
0.012433704 -0.09875974 0.08565652 -0.1572332 -0.13370174 -0.06350945 -0.12762006 0.045810297
0.09619424 0.112587005 0.10257698 0.16420771 0.052501466 0.016803775 0.0021427579 0.035105348
0.11641674 0.036892794 -0.069253094 -0.045482956 -0.018781573 0.1456446 0.023244489 0.013066204
0.10592908 -0.058310304 -0.043984957 0.008005129 -0.039078422 0.09282352 -0.102811314 -0.07725547
0.033738174 0.039295346 -0.018244794 0.121746235 -0.120721586 0.14638175 -0.088669874 -0.1319934
-0.022958783 0.0068420637 0.032946754 -0.15301493 -0.10054313 0.10523453 0.046087842 0.0101470575
0.024292368 -0.15262096 0.026865099 0.11087387 -0.16049398 -0.0042015915 -0.10074979 0.123479605
0.11513122 0.13589144 0.088947766 -0.011157418 -0.07344847 0.115570344 0.05871859 0.09633528
0.05312939 0.010618357 -0.06169213 0.093937196 0.12487845 -0.13046436 -0.010462075 0.17086512
0.08929124 -0.15220001 -0.06050761 0.08256661 0.080177955 -0.07084189 -0.062096506 -0.035392933

net.4.weight f4 [1, 128]
00000000: 6e9f 253f 1913 1bbf 2292 2dbf c741 2abf
00000010: e47f 19bf 4677 2dbf 4bea 163f 32f7 23bf
00000020: 6ebb 223f d5f3 2a3f d394 30bf c0a9 293f
00000030: b965 233f 48d4 2bbf 06f0 163f eb5f 25bf
00000040: b646 2d3f c432 1abf 866b 1a3f cabd 203f
00000050: a354 2a3f 8919 1c3f bc87 193f 8fe7 173f
00000060: 78de 223f df41 13bf 1212 1b3f fec3 21bf
00000070: 79f3 25bf 5272 17bf d905 20bf 616f 1fbf
00000080: d3e9 233f d494 293f 9903 1c3f e5fa 133f
00000090: bd7b 213f e31b 293f dcc8 1d3f 5b7c 263f
000000a0: da02 203f de16 183f ae69 12bf e8d9 1abf
000000b0: 072d 153f ad72 143f 7d1e 283f a1ff 223f
000000c0: dbf0 26bf f694 1e3f 7c1f 24bf a1f3 2e3f
000000d0: 6972 1f3f 560c 283f 5440 233f 367c 24bf
000000e0: c118 12bf 83a4 19bf 8fb2 18bf 64fc 0abf
000000f0: 5bdb 29bf a5df 323f 81b2 313f a643 1bbf
00000100: a5ee 24bf fc73 1dbf e56c 213f 5294 273f
00000110: 2be9 303f 1656 2ebf 944c 2abf 27aa 2abf
00000120: 86ea 1fbf d068 213f 15ca 2e3f 1952 203f
00000130: 1d47 2a3f 359e 25bf 8cd7 2b3f c1c8 1d3f
00000140: 87a7 1cbf 1c33 1bbf f22c 2a3f dad3 1ebf
00000150: a0dd 143f 509f 1dbf 44a5 253f 257a 1c3f
00000160: 3ed0 213f afdf 18bf 4724 1bbf 6d38 1c3f
00000170: 13a1 263f d325 25bf bea7 29bf e37b 323f
00000180: 9c37 28bf 56bb 283f a63f 21bf 5bd8 17bf
00000190: 002e 263f 146b 273f 19c7 273f 8949 1dbf
000001a0: 3946 30bf 8364 24bf ef1d 28bf df78 1b3f
000001b0: 0f44 233f 068d 1ebf 45ec 30bf 2321 25bf
000001c0: d699 21bf 9181 23bf 01bc 213f 4965 23bf
000001d0: bd1d 1ebf 7da0 273f aba7 223f 02b3 1abf
000001e0: ca11 1bbf 269c 193f b077 2d3f 8bd7 1dbf
000001f0: 0f62 27bf c7ff 313f 967b 2c3f 06de 2f3f
0.64696395 -0.60576016 -0.67801106 -0.6650662 -0.5996077 -0.6776012 0.5895125 -0.64049065
0.63567245 0.6677831 -0.6897709 0.6627464 0.6382709 -0.6712079 0.58959997 -0.64599484
0.6768602 -0.6023371 0.6032032 0.62789595 0.66535395 0.60976464 0.5997274 0.59337705
0.6362071 -0.57522386 0.6057445 -0.63189685 -0.64824635 -0.59158814 -0.6250892 -0.62279326
0.6402866 0.6624272 0.6094299 0.5780471 0.63079435 0.66058177 0.6163461 0.650335
0.6250435 0.5940989 -0.57192504 -0.6048875 0.5827183 0.5798748 0.6567152 0.6367131
-0.65211266 0.61946046 -0.6411054 0.683405 0.6228395 0.65643823 0.6377003 -0.6425203
-0.5706902 -0.6001665 -0.5964746 -0.5429137 -0.66350335 0.69872504 0.69413 -0.606501
-0.6442664 -0.61505103 0.63056785 0.65460694 0.69105786 -0.68100107 -0.665231 -0.6666588
-0.6246723 0.63050556 0.682771 0.6262527 0.6651476 -0.6469453 0.67125773 0.6163445
-0.61193126 -0.6062486 0.6647483 -0.6204201 0.5815067 -0.61571217 0.647053 0.6112388
0.6320838 -0.59716314 -0.6060223 0.610236 0.6508953 -0.6451084 -0.6627158 0.69720286
-0.65709853 0.6591085 -0.62987745 -0.5931451 0.6491394 0.65397763 0.65538174 -0.6144033
-0.6885715 -0.6421587 -0.65670675 0.6073131 0.63775724 -0.61933935 -0.6911052 -0.6450369
-0.6312536 -0.6386958 0.63177496 -0.63826424 -0.61764127 0.6547926 0.6353709 -0.60429394
-0.6057402 0.6000389 0.67760754 -0.6165702 -0.65384 0.6953091 0.6737608 0.68698156

log_std f4 [3]
00000000: 3584 37be 70e1 38be ebdf 06be
-0.17921527 -0.18054748 -0.13171355
