runs/checkpoint_e080.pt (torch, 158519 bytes, 12 tensors)

net.0.weight f4 [128, 18]
0	0x3f1c6176	0.61086214
1	0xbcecbfda	-0.028900076
2	0xbe1dee4c	-0.15422934
3	0xbe5b42ef	-0.21412252
4	0xba60929c	-0.00085667684
5	0xbc875266	-0.016518783
6	0x3e93486b	0.28766188
7	0xbe25b203	-0.16181187
8	0x3e0ea5af	0.13930391
9	0x3e6b8222	0.2299886
10	0x3d8e9118	0.06961268
11	0xbd7efec6	-0.06225469
12	0x3f05d08c	0.5227134
13	0x3e9e60a3	0.30933103
14	0x3e029ac1	0.12754346
15	0xbd8cfc0e	-0.06884013
16	0xbe3fd66c	-0.18734139
17	0x3decd4cf	0.115640275
18	0x3ecce851	0.40020993
19	0x3ed4fbeb	0.41598448
20	0x3e1e562d	0.15462561
21	0x3d370675	0.044683892
22	0x3d1e5b67	0.038661387
23	0xbe368f28	-0.17828047
24	0x3f0c2bbc	0.54754233
25	0x3eaf8c74	0.34286845
26	0xbe45a441	-0.19300939
27	0xbdf06332	-0.1173767
28	0x3e6a30d2	0.22870186
29	0xbbf38301	-0.0074313884
30	0x3ee1c290	0.44093752
31	0x3e4d5346	0.20051298
32	0xbe157272	-0.14594439
33	0xbdc6fe91	-0.097165234
34	0x3e592e8c	0.21209162
35	0x3c87b2be	0.016564723
36	0xbec9d837	-0.3942277
37	0xbed16b24	-0.40902054
38	0xbe303f7e	-0.1721172
39	0xbd8320b7	-0.06402724
40	0xbdab4276	-0.08362286
41	0x3de906f6	0.11378281
42	0xbc2fb51b	-0.010724331
43	0x3ef2f7c4	0.47454655
44	0x3d403a67	0.046930697
45	0x3d2d5edb	0.04232679
46	0xbdb2777b	-0.08714195
47	0x3e5b7616	0.21431765
48	0x3e70800a	0.23486343
49	0x3ed4389c	0.4144944
50	0x3d33380d	0.043754626
51	0xbe20e053	-0.15710573
52	0xbc53fa52	-0.012938099
53	0x3c0e6a6d	0.008692366
54	0x3f141e35	0.5785859
55	0x3eeee843	0.46661577
56	0xbdb79be1	-0.089652784
57	0x3e316bbd	0.17326255
58	0x3e010794	0.12600547
59	0xbd2351d7	-0.03987297
60	0x3ee1b1c4	0.44080937
61	0x3f06f8e8	0.5272355
62	0x3e3d387e	0.18478581
63	0x3d0a683d	0.033790816
64	0x3d371236	0.0446951
65	0xbd9a11b2	-0.07522906
66	0x3e8d846a	0.27640086
67	0xbd18a3c3	-0.03726555
68	0x3cebea3a	0.028798211
69	0xbe4f8ba6	-0.20268115
70	0xbe22842f	-0.15870737
71	0xbd01ab4e	-0.03165751
72	0xbe28658b	-0.16444986
73	0x3e18cb63	0.14921336
74	0xbda2d60a	-0.07950981
75	0xbcae2724	-0.021258898
76	0x3e35a8fe	0.17740247
77	0xbe1bcd82	-0.15215114
78	0xbdeaa67d	-0.11457536
79	0x3da56b72	0.08077134
80	0x3da9e3f1	0.082954295
81	0xbe24ff2a	-0.16112962
82	0x3ca6af6b	0.020347318
83	0x3e6fdfd6	0.2342523
84	0xbe1e8ab3	-0.15482597
85	0xbf072d10	-0.52803135
86	0xbe510955	-0.20413716
87	0x3e279b34	0.16367799
88	0x3e69cd48	0.22832215
89	0x3e70a580	0.23500633
90	0xbc9fcb23	-0.019506043
91	0xbe27c6fe	-0.16384503
92	0xbe167f52	-0.14697006
93	0xbe1a2cc3	-0.15056138
94	0xbd165888	-0.036705524
95	0x3dfce83b	0.12348982
96	0x3ec5e154	0.38648474
97	0x3f10a565	0.5650237
98	0x3e4fae2e	0.20281288
99	0xbd806bc8	-0.06270558
100	0x3e4de31d	0.20106168
101	0xbe1a2314	-0.15052444
102	0xbe3f92af	-0.18708299
103	0xbe9c2bba	-0.3050211
104	0xbdeb6c72	-0.11495294
105	0x3e26057e	0.16213033
106	0xbd803edd	-0.0626199
107	0x3e2e7311	0.17036082
108	0xbf12ab8f	-0.5729303
109	0xbe8f3b32	-0.2797485
110	0x3d96b79b	0.07359239
111	0x3ba32c19	0.004979622
112	0xbd0d31a6	-0.034471177
113	0x3e09dcc8	0.13463128
114	0xbe0c9f1a	-0.13732567
115	0x3d609ec4	0.05483891
116	0x3de9e5c0	0.114207745
117	0x3e698835	0.22805865
118	0x3d1b58ce	0.037926488
119	0xbe4d94e2	-0.20076326
120	0x3d03d53f	0.03218579
121	0x3f13b39b	0.5769593
122	0x3dc0b62b	0.09409746
123	0x3e183513	0.14863996
124	0x3e0cb8a7	0.13742314
125	0x3d68d85e	0.05684697
126	0x3db3a0e7	0.08770924
127	0x3cfda3f7	0.030961974
128	0x3e164713	0.1467555
129	0xbe495e2d	-0.19664831
130	0xbe341869	-0.17587437
131	0x3dfab04a	0.12240656
132	0xbd38a297	-0.045076933
133	0x3e49e040	0.19714451
134	0x3dda4da8	0.10659343
135	0xbe35c9bd	-0.17752738
136	0xbdb67b24	-0.08910206
137	0x3e41560b	0.18880479
138	0x3d84d26c	0.06485447
139	0xbee52a71	-0.44758943
140	0xbd8b9583	-0.068156265
141	0x3e379834	0.17929155
142	0x3e115d4b	0.14195745
143	0xbc715555	-0.014729817
144	0xbd019818	-0.03163919
145	0xbdc88374	-0.09790698
146	0x3e3169de	0.17325541
147	0x3e3d1862	0.18466333
148	0x3e10db3a	0.14146128
149	0xbc8fe5ca	-0.017565627
150	0x3dae39ef	0.08507144
151	0xbe79bbcc	-0.24388045
152	0xbaa95b7f	-0.0012920945
153	0xbe010fab	-0.12603633
154	0xbe4b2be9	-0.19840969
155	0x3e42ad1a	0.19011346
156	0x3e5c36b2	0.2150524
157	0x3ec75fe5	0.3894035
158	0xbd42aae3	-0.04752625
159	0xbe0671b0	-0.13129306
160	0xbe6a7b06	-0.22898492
161	0x3c4032f7	0.011730901
162	0xbd868496	-0.065682575
163	0xbdcf97f8	-0.101364076
164	0xbe2401a1	-0.16016246
165	0x3ccf5a63	0.025311654
166	0x3e6f17c6	0.23348913
167	0xbbf9385c	-0.0076055955
168	0xbe5dd2b3	-0.21662407
169	0xbf171cd5	-0.5902837
170	0x3e1de9d1	0.15421225
171	0x3e183fb6	0.14868054
172	0x3decc30f	0.11560642
173	0x3e6e8bce	0.23295519
174	0x3dc368dd	0.095414855
175	0x3ecd229e	0.40065473
176	0xbe122c3e	-0.1427469
177	0xbe071c12	-0.13194302
178	0x3e2bf662	0.16793206
179	0x3d1cce65	0.03828277
180	0x3e724abf	0.23661326
181	0x3f0c91a0	0.54909706
182	0x3d23e1ba	0.04001019
183	0x3e57f342	0.21088889
184	0xbe08e723	-0.13369422
185	0xbe2ac371	-0.16676117
186	0x3ee377d5	0.44427362
187	0xbd6b4663	-0.057440173
188	0xbc0164cf	-0.00789757
189	0xbe0625ac	-0.13100308
190	0x3e1f1f4a	0.1553928
191	0xbe019e5d	-0.12658067
192	0x3e0ba31e	0.13636443
193	0x3c270c91	0.010195867
194	0xbe3cacf0	-0.18425345
195	0xbe3e75bf	-0.18599604
196	0xbe651100	-0.22369766
197	0xbe03b4d7	-0.12861954
198	0xbc8c57c3	-0.017131692
199	0x3c9a1017	0.0188065
200	0x3e63595e	0.2220206
201	0x3e355334	0.1770752
202	0x3e475343	0.19465356
203	0x3d783e7c	0.060606465
204	0xbec450f1	-0.38343003
205	0xbf1241a3	-0.57131404
206	0xbd7efb78	-0.062251538
207	0xbe24b074	-0.16082937
208	0xbd1d6e6f	-0.038435396
209	0x3e0ddb04	0.13853079
210	0x3d47ff5a	0.048827507
211	0x3ecc7346	0.39931697
212	0xbd87618c	-0.066104025
213	0xbd2afc81	-0.041744713
214	0xbe269297	-0.16266857
215	0xbded81e7	-0.115970425
216	0x3f192ce4	0.5983412
217	0x3eb9f7e2	0.36321932
218	0x3d1884c2	0.037235983
219	0xbe44e38f	-0.19227432
220	0xbe3f2d5c	-0.18669647
221	0x3e4348c0	0.1907072
222	0x3eb1596b	0.34638533
223	0x3e365d85	0.17809112
224	0xbd67111f	-0.056412812
225	0x3e3c2ee0	0.18377256
226	0xbe202107	-0.15637599
227	0xbe274515	-0.16334946
228	0x3eb0259e	0.344037
229	0x3ee7e22c	0.45289743
230	0xbd8baf59	-0.06820554
231	0x3da0e3f8	0.078559816
232	0x3cb6f9c2	0.02233589
233	0xbcca4e81	-0.024695637
234	0xbb314dfb	-0.0027054537
235	0xbee39e92	-0.44456917
236	0x3e53e4a0	0.20692682
237	0x3e164742	0.1467562
238	0x3e0c5908	0.13705838
239	0x3e302b10	0.17203927
240	0x3ee6bd89	0.4506648
241	0x3f0a6f46	0.5407604
242	0x3e410142	0.18848136
243	0xbe052378	-0.13001812
244	0x3c721733	0.014776039
245	0xbd5bcd8e	-0.05366283
246	0xbc35a080	-0.011085629
247	0x3f03d38b	0.51494664
248	0x3e477385	0.19477661
249	0x3e6ed2d5	0.23322614
250	0x3e3e0b5d	0.18559022
251	0x3d9e932d	0.07742915
252	0x3e947e74	0.29002726
253	0x3e3284af	0.17433427
254	0xbd7e8e39	-0.062147353
255	0x3cd2d81d	0.025737816

net.0.bias f4 [128]
0	0xbe61be5c	-0.22045273
1	0x3dafc31b	0.08582135
2	0xbcddfc52	-0.027097855
3	0xbd2899cc	-0.041162297
4	0xbdb11e37	-0.08648341
5	0x3d7cf948	0.06176117
6	0x3cc4aa5e	0.024007019
7	0xbe2186a5	-0.15774019
8	0xbdb179d0	-0.08665812
9	0xbc7789b1	-0.015108512
10	0x3e4a645a	0.19764844
11	0x3d90ab89	0.07063968
12	0xbe20740f	-0.15669273
13	0xbd80d10e	-0.06289874
14	0xbe35b752	-0.17745712
15	0xbe32cec1	-0.17461683
16	0x3e2fd472	0.17170885
17	0xbc24f2f7	-0.010067693
18	0x3e36cc87	0.17851458
19	0xbd93a594	-0.07209316
20	0x3e1ff76a	0.15621725
21	0x3e524101	0.2053261
22	0x3d83c2a5	0.0643361
23	0x3e0c6ef3	0.13714199
24	0x3d860651	0.065441735
25	0xbd280fd6	-0.041030727
26	0xbb84fee5	-0.004058706
27	0xbe32b067	-0.17450105
28	0xbc617840	-0.01376158
29	0x3d1ce28b	0.038301986
30	0x3d882577	0.06647771
31	0xbe45fca7	-0.1933466
32	0x3e4a8a20	0.19779253
33	0xbe0de812	-0.13858059
34	0x3e527653	0.2055295
35	0xbdec78c4	-0.11546472
36	0x3d47a872	0.048744626
37	0xbd9e0ca7	-0.07717257
38	0x3e424bcc	0.18974227
39	0x3d7a6b4a	0.061137475
40	0xbd4db133	-0.05021782
41	0xbe613871	-0.21994187
42	0xbcba61d5	-0.022751728
43	0x3dd78654	0.10523668
44	0x3ddd0988	0.107928336
45	0x3e198cdb	0.14995138
46	0x3e45de80	0.19323158
47	0xbd312574	-0.04324861
48	0xbe35bdfd	-0.17748256
49	0x3ce5c5c8	0.028048411
50	0xbdeb03fd	-0.1147537
51	0x3e69ca8b	0.2283117
52	0xbe32b1f8	-0.17450702
53	0x3e52d616	0.2058948
54	0x3e3eada1	0.18620922
55	0xbe387b4c	-0.18015784
56	0xbe271a2b	-0.16318576
57	0x3e332f33	0.17498474
58	0x3da2e0a2	0.079530016
59	0xbb94f3f6	-0.004545684
60	0xbdfaab76	-0.12239735
61	0xbd17cf74	-0.037063077
62	0x3e5b1e81	0.21398355
63	0xbe0fdb47	-0.14048491
64	0x3e3552dc	0.1770739
65	0x3dce240d	0.1006547
66	0xbdbee651	-0.09321273
67	0xbe59ea93	-0.21280889
68	0xbe46fe53	-0.19432954
69	0xbe587c0a	-0.21141067
70	0xbd92b64d	-0.07163677
71	0xbdb0570e	-0.08610354
72	0x3d08871e	0.033331983
73	0x3e44cdfd	0.19219203
74	0x3e2a24bf	0.1661558
75	0xbd5c8c4d	-0.05384474
76	0x3ded33b6	0.11582129
77	0x3dfec8ce	0.12440644
78	0xbdfe7bc2	-0.12425949
79	0xbd79195d	-0.060815204
80	0xbe19ee9e	-0.15032431
81	0xbe5e5207	-0.21710978
82	0xbd94155b	-0.07230636
83	0x3e47bf66	0.19506606
84	0x3d85fe38	0.06542629
85	0xbe2ba322	-0.16761449
86	0x3d9ad613	0.07560363
87	0xbd586f18	-0.052840322
88	0x3e2e9e88	0.17052662
89	0x3e518eea	0.20464674
90	0x3d9fda09	0.07805259
91	0x3dc8db75	0.09807483
92	0xbd35edcf	-0.044416245
93	0x3d853b7f	0.065054886
94	0xbe55b822	-0.20871022
95	0x3ce701b0	0.028199047
96	0xbe1f27a0	-0.1554246
97	0x3d02ff6b	0.031981867
98	0xbd370ef3	-0.04469199
99	0x3d293f04	0.041319862
100	0x3e5d7680	0.21627235
101	0xbd9d75c8	-0.076884806
102	0xbdf8c41a	-0.121467784
103	0xbe239758	-0.15975702
104	0xbe1f39dc	-0.15549415
105	0x3e0bd7f9	0.13656606
106	0xbe5afee3	-0.21386294
107	0xbd53abb5	-0.051677424
108	0xbe343e36	-0.17601857
109	0x3e376735	0.17910464
110	0xbd95af77	-0.07308858
111	0xbd8ca416	-0.068672344
112	0x3dc05957	0.0939204
113	0xbe5e73c5	-0.2172385
114	0xbe382b93	-0.17985372
115	0xbe146617	-0.14492069
116	0xbd9c8b73	-0.07643785
117	0xbe14663a	-0.14492121
118	0x3e5ef2d0	0.21772313
119	0xbe0a0510	-0.13478494
120	0x3bf8f7b0	0.007597886
121	0xbd97093d	-0.07374809
122	0xbd7a4ca4	-0.061108246
123	0xbe230570	-0.15920043
124	0xbd2e3813	-0.042533945
125	0xbd485439	-0.048908446
126	0xbd1857cf	-0.037193116
127	0xbe4823e1	-0.19544937

net.2.weight f4 [128, 128]
0	0x3cac9b11	0.021070035
1	0x3bcce9d7	0.006253462
2	0xbdfb472b	-0.122694336
3	0xbd01c41f	-0.031681176
4	0xbcf3b95a	-0.029751468
5	0xbd9fe38a	-0.078070715
6	0xbdc7756b	-0.097391926
7	0x3cf1b770	0.029506415
8	0x3d833db7	0.064082555
9	0x3ce3481c	0.027744345
10	0xbd43627d	-0.047701348
11	0x3ca7925b	0.02045553
12	0x3c98ae97	0.018637938
13	0xbddf0074	-0.10888758
14	0x3c4e808f	0.012603893
15	0xbcb13cac	-0.021635376
16	0x3da1574b	0.07877978
17	0x3d28244d	0.041050244
18	0x3cce412b	0.025177559
19	0x3a919c75	0.001110925
20	0x3de6feb8	0.112790525
21	0x3d3171da	0.043321468
22	0x3cf537ce	0.029933836
23	0x3c1dc3b7	0.009629182
24	0x39623686	0.00021573351
25	0x3d12433b	0.035708647
26	0x3e2a8f2f	0.16656183
27	0xbdab3878	-0.0836038
28	0xbd321e8c	-0.043486163
29	0x3d1f91c0	0.038957357
30	0x3d91b034	0.07113686
31	0x3d487bf4	0.048946336
32	0x3dd9610a	0.10614212
33	0xbd16dbaf	-0.0368306
34	0x3aaf26ec	0.001336304
35	0xbd9e3e94	-0.077267796
36	0x3ca64fc5	0.020301709
37	0xbdf7d6f2	-0.121015444
38	0x3d71a2fa	0.058993317
39	0xbc09554a	-0.008382151
40	0x3e0be041	0.13659765
41	0xbceafc2f	-0.028684704
42	0xbd7eef51	-0.06223995
43	0xbc9d0776	-0.019168597
44	0xbd8c3665	-0.068463124
45	0xbd863e66	-0.0655487
46	0xba990012	-0.0011672995
47	0xbd984479	-0.07434935
48	0x3d96a5ad	0.07355819
49	0xbe0e3065	-0.13885649
50	0x3d874275	0.066044725
51	0x3d7c9d66	0.061673544
52	0x3d992971	0.074786074
53	0xbc90e1c9	-0.017685788
54	0xbdb5db1a	-0.08879681
55	0xbcb5e223	-0.022202557
56	0x3d90ff52	0.070799485
57	0xbda05b4c	-0.078299135
58	0x3c21bbac	0.009871405
59	0xbdcca39d	-0.09992144
60	0x3de52d55	0.11190287
61	0xbe17eba0	-0.14835978
62	0x3dcb22e9	0.09918768
63	0xbb4b410e	-0.0031014117
64	0xbdcd4d26	-0.100244805
65	0xbdc5cd45	-0.09658293
66	0xbc549560	-0.012975067
67	0x3d914131	0.070925124
68	0x3c27cc77	0.010241619
69	0x3d9d03ff	0.07666778
70	0xbc1ec814	-0.009691257
71	0xbb18c33d	-0.002330973
72	0xbd2a063d	-0.041509856
73	0xbc63d9be	-0.013906894
74	0xbca7f654	-0.0205032
75	0x3d636205	0.0555134
76	0x3c0c7830	0.008573577
77	0xbd882113	-0.066469334
78	0xbbed81b2	-0.007248127
79	0xbc049511	-0.008092181
80	0x3cd815fa	0.026377667
81	0xbd7bbea4	-0.061461106
82	0xbdbea41d	-0.09308646
83	0xbd0ca5ec	-0.034337923
84	0xbcfe4f4e	-0.031043675
85	0xbdafeb21	-0.08589769
86	0xb7d1aa5d	-2.4994073e-05
87	0x3d03a3d4	0.03213866
88	0x3bcaa447	0.006184134
89	0xbc486a98	-0.012232445
90	0xbce515df	-0.02796453
91	0xbd369c68	-0.044582754
92	0xbd07ed9c	-0.033185586
93	0x3e0a79b4	0.13522989
94	0x3a987ed6	0.001163448
95	0x3daabd20	0.08336854
96	0xbc96020d	-0.018311525
97	0x3cf51d1c	0.029921107
98	0x3cc6a99b	0.024250796
99	0xb995091a	-0.00028426276
100	0x398668f1	0.0002563666
101	0xbcd2d52b	-0.025736412
102	0x3df8cea2	0.12148787
103	0x3d7428a8	0.059609085
104	0x3e02d75b	0.12777464
105	0x3d96be24	0.07360485
106	0x3d889c63	0.066704534
107	0x3c6c3a2e	0.014418168
108	0xba303e56	-0.0006723156
109	0x3d7f60c8	0.062348157
110	0xbd89e6d5	-0.06733481
111	0x3d5677cc	0.05236034
112	0x3aa5e35d	0.001265626
113	0xbddb9f9d	-0.10723803
114	0x3c94bdd0	0.018156916
115	0x3bd30b10	0.0064405277
116	0xbc2ada72	-0.010428058
117	0x3db2f0a4	0.08737305
118	0x3db2924d	0.08719311
119	0xbdb4fa40	-0.08836794
120	0xbd673412	-0.056446142
121	0xbb79fde4	-0.0038145715
122	0xbd6de5eb	-0.058080595
123	0xbdc181dc	-0.09448597
124	0x3bbf02c5	0.0058291876
125	0xbc1baa07	-0.009500987
126	0x3d2694b8	0.040669173
127	0x3c948402	0.018129352
128	0xbc6958b8	-0.014242344
129	0x3d805d7e	0.06267832
130	0xbd794538	-0.060857028
131	0x3e0da0c5	0.1383086
132	0x3d44472c	0.047919437
133	0xbc27f86d	-0.0102521
134	0x3d0db8d3	0.03460009
135	0xbdaf39f8	-0.085559785
136	0x3d0845c1	0.033269648
137	0xbdcc37ae	-0.099715576
138	0x3dbe4f1d	0.092924334
139	0xbd6c1608	-0.057638198
140	0xbcd76a4b	-0.026295802
141	0xbd0d2d9f	-0.034467336
142	0xbd15b3ca	-0.036548413
143	0x3dd825f0	0.10554111
144	0x3ca94401	0.02066231
145	0x3d934fbf	0.07192945
146	0xbdc3ab8d	-0.09554205
147	0xbd6ed939	-0.05831263
148	0x3c5ab04a	0.013347695
149	0xbb1fc082	-0.0024376218
150	0x3df41f74	0.11920062
151	0x3d858c94	0.06520954
152	0xbad5a61a	-0.0016300112
153	0x3d2d8f2f	0.04237288
154	0x3e31fb73	0.17381077
155	0x3cea118d	0.028572822
156	0xbcb8ac6b	-0.022543153
157	0x3d2220cb	0.039582055
158	0x3b8407ab	0.0040292344
159	0xbbe344b1	-0.006935679
160	0x3d83ab39	0.064291425
161	0x3bebf126	0.007200378
162	0x3c8452cd	0.016152764
163	0x3cb1c0f6	0.021698456
164	0x3cc8872e	0.024478521
165	0x3ccf1626	0.025279116
166	0x3c530549	0.012879678
167	0xbca22b9e	-0.019796189
168	0xbcdfd579	-0.027323471
169	0xbd0ac6dd	-0.033881057
170	0x3da6b545	0.08140043
171	0x3c800354	0.015626587
172	0x3c98c17b	0.018646946
173	0xbcf861b6	-0.03032003
174	0x3bc0020e	0.00585962
175	0xbd7a5c74	-0.061123326
176	0x3d86e2bb	0.06586214
177	0x3ba05f22	0.004894153
178	0xbd0a0d0d	-0.033703852
179	0xbd00fbe7	-0.031490233
180	0xbdced475	-0.10099117
181	0xbd428cb1	-0.047497455
182	0xbce9af6a	-0.028526027
183	0x3c49606a	0.012291053
184	0xbda9e40d	-0.0829545
185	0xbc42613f	-0.011864006
186	0x3d361f28	0.044463307
187	0x3c757f5e	0.01498398
188	0x3d2ecf6e	0.04267829
189	0xbbbedfb6	-0.0058250083
190	0xbcbbf7e9	-0.022945361
191	0x3cbc8cb4	0.023016311
192	0x3d9d43f9	0.076789804
193	0xbd3fbba1	-0.046809796
194	0x3d193e25	0.03741278
195	0x3dc42bf0	0.09578693
196	0xbcae6fa2	-0.021293465
197	0x3bb8023d	0.005615501
198	0xbe0fa6cb	-0.1402847
199	0xbc303d66	-0.010756826
200	0xbe1320b5	-0.14367945
201	0x3d5235de	0.051320903
202	0xbd2bd586	-0.04195168
203	0x3df030b0	0.117280364
204	0xbda6d2b8	-0.0814566
205	0xbdc0c4da	-0.094125465
206	0xbdf82403	-0.12116244
207	0xbcec10f3	-0.028816676
208	0xbdc0644e	-0.093941316
209	0xbd85d44d	-0.06534634
210	0xbd8ab4c6	-0.06772761
211	0x3d4dcfdf	0.05024707
212	0xbdc5595a	-0.09636183
213	0xbd011965	-0.03151836
214	0x3db69f46	0.08917098
215	0xbc2540d4	-0.010086257
216	0xbd9d6c66	-0.07686691
217	0xbd8e48f6	-0.0694751
218	0xbc7368b6	-0.014856508
219	0xbe04aaff	-0.12955855
220	0x3cdab526	0.026697706
221	0x3e07f574	0.13277227
222	0xbcf61b12	-0.030042205
223	0x3d3b6a42	0.045755632
224	0x3d2a231d	0.041537393
225	0xbd191ab9	-0.037379
226	0xbe1ee3cb	-0.15516584
227	0x3d366609	0.044530902
228	0xbc80e7ae	-0.015735473
229	0xbd9e3205	-0.07724384
230	0x3da71b90	0.08159554
231	0xbc1b4ed3	-0.009479242
232	0x3dc1e4de	0.09467481
233	0xbd37bc28	-0.044857174
234	0x3d878bf3	0.0661849
235	0xbca65760	-0.020305336
236	0x3d7f5d05	0.06234457
237	0xbd664ff6	-0.0562286
238	0xbdcc9bc6	-0.09990649
239	0xbcf4f7ea	-0.02990337
240	0x3da02fab	0.07821592
241	0xbd149d17	-0.036282625
242	0x3ddf741d	0.10910819
243	0xbd433b2e	-0.04766386
244	0xbd43316c	-0.047654554
245	0x3d144f66	0.036208533
246	0xbda72d74	-0.08162966
247	0xbd85b4d1	-0.065286286
248	0xbcc35b5f	-0.02384728
249	0x3d7d2f9a	0.061812975
250	0x3da634b0	0.08115518
251	0xbd8d4757	-0.068983726
252	0xbd9e8e2f	-0.07741963
253	0x3dfcea9f	0.12349438
254	0xbd46ca91	-0.048533026
255	0x3d217df5	0.039426763

net.2.bias f4 [128]
0	0xbcf0e678	-0.029406771
1	0xbd775081	-0.06037951
2	0x3db9450f	0.09046375
3	0xbc4e853b	-0.012605007
4	0x3d01728a	0.031603374
5	0x3d300c5c	0.042980537
6	0xbd71983a	-0.058983065
7	0x3cc0879b	0.023502162
8	0x3d3e283d	0.046425093
9	0x3d5fcba3	0.054637562
10	0xbd14d8d2	-0.03633959
11	0x3dac11a4	0.08401802
12	0xbd81fb3d	-0.06346748
13	0xbdb6e019	-0.08929462
14	0xbbd043a0	-0.006355718
15	0x3d2a9f2a	0.041655697
16	0x3d9c4a0d	0.076313116
17	0x3db39ac8	0.087697566
18	0x3d8691b7	0.06570762
19	0x3d91b82d	0.07115207
20	0x3d0cba50	0.03435737
21	0x3c89eefd	0.016837591
22	0xbd11c46a	-0.035587706
23	0xbcbb3ba3	-0.022855585
24	0xbdbc507f	-0.09195041
25	0x3cf29386	0.02961136
26	0xbd91b91e	-0.071153864
27	0x3d5f07a2	0.05445064
28	0xbd58c1d1	-0.052919213
29	0xba4973a6	-0.00076847745
30	0xbbbfe2d0	-0.0058558956
31	0xbcc005e4	-0.023440309
32	0xbd9efe5a	-0.077633575
33	0x3dabcf82	0.08389188
34	0xbc4f3ed9	-0.012649261
35	0x3c3f430b	0.011673699
36	0x3d3dd82c	0.046348736
37	0xbbb48629	-0.005509157
38	0x3d37c387	0.044864204
39	0x3cbc053a	0.022951711
40	0xbd402585	-0.04691078
41	0x3d7e4f48	0.062087327
42	0x3d8c0511	0.06836904
43	0x3d9c8b36	0.0764374
44	0x3d5288de	0.051400058
45	0x3d65a677	0.056066956
46	0x3d908cc6	0.070581004
47	0x3b32ff20	0.002731271
48	0x3ce18785	0.027530441
49	0xbb5bad24	-0.0033519948
50	0x3d4377ab	0.047721546
51	0xbc498b44	-0.01230127
52	0x3cc8a41d	0.024492318
53	0xbd2fb396	-0.042895876
54	0xbd6d3bef	-0.057918485
55	0x3bb088b2	0.005387389
56	0x3db29ac0	0.087209225
57	0x3bbabefe	0.0056990376
58	0x3d8da6e1	0.06916595
59	0x3d9df49e	0.07712673
60	0xbd8f3e5a	-0.069943145
61	0x3d95ff46	0.0732408
62	0xbda1233d	-0.07868049
63	0x3b49b3f1	0.003077742
64	0xbd7c8768	-0.06165257
65	0x3d8f5a0d	0.06999598
66	0x3d809014	0.06277481
67	0x3be40146	0.0069581596
68	0x3d994997	0.07484739
69	0x3d36c23f	0.04461884
70	0xbc9ca831	-0.019123169
71	0xbd9921f2	-0.07477178
72	0x3d75dc53	0.06002457
73	0xbd28cc02	-0.041210182
74	0xbd75d6ab	-0.060019176
75	0x3d8b346b	0.06797107
76	0x3d94306d	0.07235799
77	0xbdb8ebee	-0.09029375
78	0xbd7c1f29	-0.061553154
79	0xbb89fd4a	-0.0042111026
80	0x3c9527b9	0.018207418
81	0x3d9dd739	0.07707066
82	0x3cebfdc0	0.02880752
83	0xbd07a520	-0.03311646
84	0x3d61438d	0.054996062
85	0x3d03aa78	0.032144994
86	0xbdaf383c	-0.08555648
87	0xbc6681d1	-0.014069037
88	0x3d4f32fb	0.05058573
89	0xbcfabd41	-0.030607821
90	0xbd8efb89	-0.0698157
91	0xbda5613c	-0.080751866
92	0xbaec3561	-0.0018021279
93	0xbc30e286	-0.010796195
94	0xbd778a55	-0.060434658
95	0xbd85e96c	-0.06538662
96	0x3db79188	0.08963305
97	0x3d6de7eb	0.058082502
98	0x3d231038	0.03981039
99	0x3dbc05d4	0.09180799
100	0xbbd5b3d6	-0.0065216823
101	0x3d71c44f	0.059025105
102	0x3d7bbe21	0.061460618
103	0xba4e207a	-0.0007863116
104	0xbd2dcdfa	-0.042432763
105	0xbc74f9a7	-0.0149521
106	0x3d504466	0.05084648
107	0x3c1a40fb	0.009414907
108	0xbd9cd242	-0.07657291
109	0xbd80db6e	-0.06291853
110	0x3d5ece28	0.054395825
111	0x3d1179de	0.035516612
112	0xbd2664ea	-0.040623583
113	0x3d4396be	0.04775118
114	0x3d35d54f	0.04439288
115	0x3cc7af9f	0.024375735
116	0xbdb0d402	-0.08634187
117	0xbbc7d588	-0.006098453
118	0xbc45b22c	-0.012066405
119	0xbd6f1433	-0.058368873
120	0x3d1c178d	0.038108397
121	0xbd4df3be	-0.05028128
122	0xbd938dc6	-0.072047755
123	0xbc8eec15	-0.017446557
124	0xbda37a1d	-0.07982276
125	0x3d917ae2	0.07103516
126	0x3d9f5f62	0.07781865
127	0xbd11883f	-0.035530325

net.4.weight f4 [3, 128]
0	0xbe45bb2d	-0.19309683
1	0xbe0d562d	-0.13802405
2	0x3e9ae553	0.30253085
3	0xbde4d6a3	-0.11173751
4	0xbcc3edd6	-0.02391712
5	0xbe06a90a	-0.13150421
6	0x3d4f715a	0.05064521
7	0xbe141687	-0.14461718
8	0x3da5e074	0.08099452
9	0x3c49ce6a	0.012317279
10	0xbe2b16d3	-0.16707925
11	0x3e17e94f	0.14835094
12	0x3e0325f6	0.1280745
13	0xbe3606fb	-0.177761
14	0x3c8d6d16	0.01726393
15	0xbe282c42	-0.16423133
16	0x3dad635e	0.084662184
17	0xba737f49	-0.00092886813
18	0xbdd01c5a	-0.10161658
19	0x3de4496f	0.11146819
20	0x3de651b2	0.11246051
21	0x3d5e2081	0.054230217
22	0xbe206a56	-0.15665564
23	0xbdcb9184	-0.09939864
24	0xbe434c07	-0.19071971
25	0x3e2804e3	0.16408114
26	0x3e9b1ca9	0.30295303
27	0xbe00529d	-0.12531514
28	0x3e8214f4	0.2540661
29	0x3df1fc28	0.11815673
30	0x3e5e478e	0.21706983
31	0xbe29401d	-0.16528364
32	0xbe1095ab	-0.14119594
33	0x3e168963	0.14700846
34	0xbd8f654b	-0.07001742
35	0xbdeeddc4	-0.11663392
36	0xbe2a1dd6	-0.16612944
37	0xbd6f85d4	-0.058477238
38	0x3df104c5	0.11768488
39	0x3d88997c	0.066699
40	0xbc63795a	-0.013883913
41	0x3dccd83a	0.100021794
42	0xbe21e047	-0.15808211
43	0x3e1f9d7e	0.15587422
44	0x3df36759	0.118849464
45	0xbe55469d	-0.20827718
46	0xbe1b4205	-0.15161903
47	0xbddad970	-0.10686004
48	0x3e765107	0.24054347
49	0xbe932a20	-0.28743076
50	0xbc4ba28e	-0.012428893
51	0xbe37270e	-0.17885992
52	0xbe2a577d	-0.16634937
53	0x3e8ccec0	0.27501488
54	0x3e0f6c39	0.14006127
55	0x3ddd701b	0.10812398
56	0x3e58066d	0.21096201
57	0xbb4dca2f	-0.0031401028
58	0x3d9ba8f4	0.076005846
59	0x3d28d335	0.041217048
60	0x3e00c548	0.12575257
61	0x3e089ae1	0.13340332
62	0xbe00262c	-0.12514561
63	0xbdcbd1d5	-0.09952132
64	0x3d8527ef	0.06501757
65	0xbd40813a	-0.04699824
66	0x3dc2a69f	0.09504437
67	0xbda9b611	-0.082866795
68	0x3deea0d1	0.11651767
69	0xbe370d6d	-0.17876215
70	0xbe148477	-0.14503656
71	0x3d64cbe7	0.05585852
72	0xbc6efe36	-0.014586976
73	0x3d981f33	0.07427826
74	0x3e28000d	0.1640627
75	0xbe750aac	-0.23929852
76	0x3cb7c906	0.022434723
77	0x3e1f1aa5	0.15537508
78	0x3d43dd2c	0.047818348
79	0x3d9d1ddd	0.076717116
80	0xbc813ad4	-0.015775122
81	0xbde2f164	-0.11081198
82	0x3db3fc84	0.08788398
83	0xbe576eec	-0.21038407
84	0x3d837582	0.06418897
85	0x3e717abf	0.2358198
86	0xbe64c7b2	-0.22341803
87	0x3db5c6c9	0.08875806
88	0x3db454b5	0.08805219
89	0xbe2d85bd	-0.16945548
90	0x3e0b90de	0.13629481
91	0xbdfa64a5	-0.12226228
92	0x3e31e8af	0.17373918
93	0x3e282bfc	0.16423029
94	0x3deef0cc	0.11667022
95	0x3ca019d0	0.019543558
96	0x3e2cf027	0.16888486
97	0x3d95ba9c	0.073109835
98	0xbd5bc6d9	-0.053656433
99	0x3ceab021	0.028648438
100	0x3e2a00d9	0.16601886
101	0xbd8eb6d8	-0.069684684
102	0xbe529757	-0.20565544
103	0xbe2f0866	-0.17093047
104	0xbe8df219	-0.27723768
105	0xbe0a28a9	-0.13492073
106	0xbddcefbc	-0.10787913
107	0x3dbfe76a	0.093703106
108	0x3dc6920e	0.096958265
109	0x3d01b5a5	0.03166737
110	0x3df672a3	0.12033584
111	0x3ddde3c9	0.10834462
112	0x3dddd1d2	0.10831036
113	0x3d86fcb8	0.06591171
114	0x3e6413f9	0.22273244
115	0xbdb435ac	-0.087992996
116	0xbe3ea7f4	-0.18618757
117	0x3de49d07	0.11162763
118	0x3a3218fe	0.0006793885
119	0xbe64a6cf	-0.22329257
120	0xbd98f405	-0.07468418
121	0x3ca4acc7	0.020101918
122	0xbe7eb24f	-0.24872707
123	0xbc212117	-0.009834549
124	0xbe213312	-0.15742138
125	0x3d4539c7	0.048150804
126	0x3e0f6935	0.14004977
127	0xbe179988	-0.14804661
128	0x3e228c92	0.15873936
129	0xbd6853b6	-0.056720458
130	0x3dcd309f	0.10019039
131	0xbdf793d3	-0.12088742
132	0x3dba6444	0.091011554
133	0xbe785db8	-0.24254501
134	0xbd8b2b7a	-0.06795402
135	0xbe06855f	-0.13136815
136	0xbdf61d22	-0.120172754
137	0x3dacd25b	0.084385596
138	0xbd6cc69e	-0.057806604
139	0xbd9891fe	-0.07449721
140	0xbc25bba8	-0.0101155415
141	0x3dd09d5d	0.10186265
142	0x3dedf10f	0.11618244
143	0x3ddb4ef1	0.10708416
144	0xbd9305b6	-0.07178824
145	0x3e3d3842	0.18478492
146	0xbc31ddd6	-0.010856112
147	0x3dcf75b9	0.10129876
148	0x3decef63	0.11569097
149	0x3d8e1abd	0.06938694
150	0x3d1c8aab	0.03821818
151	0x3ddf1359	0.10892362
152	0xbe600d95	-0.21880181
153	0xbd15cf91	-0.036574904
154	0xb8950b86	-7.10702e-05
155	0xbe0f90bc	-0.14020056
156	0x3dd05bbb	0.10173746
157	0xbd9245a6	-0.07142191
158	0x3e18ec81	0.14933969
159	0x3d148ff1	0.036270086
160	0xbcf27661	-0.029597463
161	0xbd7b5fb9	-0.061370585
162	0xbe5677fc	-0.20944208
163	0xbe2184cb	-0.15773313
164	0x3e24e4d1	0.16102912
165	0x3e0a3248	0.13495743
166	0x3d93d81f	0.07218956
167	0xbc259075	-0.010105242
168	0xbd98908d	-0.07449446
169	0xbdd49263	-0.103794836
170	0xbdf726f9	-0.1206798
171	0x3e8dad55	0.27671304
172	0xbe31509c	-0.17315906
173	0xbd58b028	-0.05290237
174	0xbc74af49	-0.014934369
175	0xbd510d29	-0.05103794
176	0xba5128d8	-0.00079788035
177	0xbde0313c	-0.10946891
178	0x3e3469ff	0.1761856
179	0xbde39184	-0.11111739
180	0xbd9cbc90	-0.07653153
181	0x3e55c746	0.20876798
182	0x3d89f356	0.06735866
183	0xbe0a7686	-0.13521776
184	0xbcf22d79	-0.029562699
185	0x3e3ca4c9	0.18422236
186	0x3e12fc7e	0.1435413
187	0xbd2d8646	-0.04236438
188	0xbc600f6f	-0.013675555
189	0x3de8e6fc	0.11372182
190	0x3dcbeb8d	0.09957037
191	0x3d06245f	0.03274953
192	0x3ea6bda5	0.32566562
193	0xbcff3ac9	-0.03115596
194	0xbd753199	-0.059861753
195	0x3e5a9a5d	0.21347947
196	0xbde86268	-0.113468945
197	0xbe5e380a	-0.21701065
198	0x3dffec0b	0.124961935
199	0x3e338a7c	0.17533296
200	0xbe0ab93c	-0.13547224
201	0x3e480aa1	0.19535305
202	0xbddd162d	-0.10795245
203	0xbd59d3e6	-0.053180598
204	0xbcf90852	-0.030399475
205	0x3d9af713	0.07566657
206	0xbd425f64	-0.047454253
207	0xbe36654d	-0.1781208
208	0x3dcd18f1	0.10014523
209	0x3e2e6eb3	0.17034416
210	0xbdfcdca5	-0.12346772
211	0xbbbe5c8c	-0.0058093723
212	0x3e218d6f	0.15776609
213	0x3df02732	0.11726226
214	0xbddb09d1	-0.10695232
215	0x3ce8390e	0.028347518
216	0xbc73b0d2	-0.0148737
217	0x3e3e1ebf	0.18566416
218	0x3e53f63f	0.20699404
219	0x3c831dd3	0.016005432
220	0xbc7f259e	-0.0155729335
221	0x3ce568f6	0.02800415
222	0x3dd7506e	0.105133876
223	0x3d855aa5	0.0651143
224	0xbdc82021	-0.09771753
225	0xbca23ad6	-0.019803446
226	0xbe048802	-0.12942508
227	0xbbff3613	-0.0077884286
228	0x3e220265	0.15821226
229	0xbdc37ef5	-0.095456995
230	0xbe3efc49	-0.18650927
231	0x3dc3d616	0.09562318
232	0x3df81c99	0.121148296
233	0xbda65a51	-0.08122695
234	0x3e180e94	0.14849311
235	0x3e45a8bc	0.19302648
236	0x3d9145bd	0.0709338
237	0xbd8d90b0	-0.069123626
238	0xbdc03eab	-0.09386953
239	0xbcf2cb23	-0.029637879
240	0xbd2f4840	-0.042793512
241	0x3df5cd22	0.120020166
242	0xbd963978	-0.0733518
243	0xbdcf25a7	-0.101146035
244	0xbd8310dc	-0.063997
245	0xbd5f5e79	-0.054533456
246	0x3e8b3064	0.27185357
247	0xbe8d4e55	-0.27598825
248	0xbe4faa26	-0.2027975
249	0xbcb3a8eb	-0.021931132
250	0xbc89c81f	-0.016819058
251	0xbd8ce9c9	-0.068805285
252	0x3dbe8b90	0.09303963
253	0x3e8e8b9e	0.27840894
254	0x3d069f51	0.03286678
255	0x3d81bdf5	0.063350596

net.4.bias f4 [3]
0	0x3c5f9482	0.013646247
1	0x3b68cfe3	0.00355243
2	0x3cccda70	0.025006503

net.0.weight f4 [128, 18]
0	0x3d867e94	0.065671116
1	0xbcf65190	-0.030068189
2	0x3d55daee	0.05221074
3	0xbc682fc0	-0.014171541
4	0xbda980af	-0.082764976
5	0x3e70a573	0.23500614
6	0x3d9f4c8b	0.07778271
7	0xbd935425	-0.07193784
8	0x3c1e4a00	0.009661198
9	0xbc92d9ec	-0.017926179
10	0xbd75a0b5	-0.059967715
11	0x3e5c7524	0.2152906
12	0xbe9c289b	-0.3049973
13	0xbe142977	-0.14468943
14	0xbd600812	-0.054695196
15	0xbe1551e4	-0.1458202
16	0xbbd05be5	-0.006358611
17	0xbd4a372b	-0.04936902
18	0xbd9781aa	-0.07397778
19	0xbdc39add	-0.09551022
20	0xbc05aab6	-0.008158376
21	0xbe0848f3	-0.13309078
22	0x388af24d	6.625485e-05
23	0xbe2ff33f	-0.17182635
24	0xbe2017d0	-0.15634084
25	0x3d44a9cd	0.048013497
26	0xbd1a5c6c	-0.037685797
27	0x3e046a5c	0.12931198
28	0xbe183783	-0.14864926
29	0xbe12a699	-0.14321364
30	0x3d4dd69c	0.050253496
31	0xbdd3bc0a	-0.103386
32	0xbd96bcca	-0.073602274
33	0x3e427873	0.1899126
34	0xbdc868d3	-0.09785619
35	0xbde8b975	-0.11363498
36	0xbe18f010	-0.14935327
37	0x3e4f5659	0.20247783
38	0x3cbfed86	0.02342869
39	0x3e33136d	0.17487879
40	0x3e1bc53e	0.1521196
41	0xbe232a27	-0.15934049
42	0x3dd24f25	0.10269002
43	0x3e1c4845	0.15261944
44	0xbc36b50c	-0.011151563
45	0x3d8b9542	0.06815578
46	0x3e632885	0.22183426
47	0xbbd0cfdc	-0.006372435
48	0xbe34f2eb	-0.17670791
49	0xbd002315	-0.031283457
50	0xbb022ec0	-0.001986429
51	0x3e5f7837	0.21823202
52	0xbb7fe8f9	-0.0039048775
53	0x3d05125f	0.032488223
54	0xbe42e6f2	-0.19033411
55	0x3cf1bce5	0.029509017
56	0xbd95f252	-0.073216096
57	0x3de1e903	0.110307716
58	0x39976c89	0.0002888183
59	0xbdedde2e	-0.11614643
60	0x3db7d5b7	0.0897631
61	0xbe4718c9	-0.19443049
62	0xbd8f04b0	-0.06983316
63	0xbe49168c	-0.19637507
64	0x3d89350f	0.06699573
65	0xbd8991b0	-0.06717241
66	0xbdf85d9c	-0.121272296
67	0xbe1a8bed	-0.1509244
68	0x3cb3ba0d	0.021939302
69	0xbd870bbf	-0.06594037
70	0xbdbd9994	-0.09257808
71	0x3d09d622	0.03365148
72	0xbe61ea4b	-0.22062032
73	0xbdc00b47	-0.09377151
74	0xbdc51082	-0.09622289
75	0x3dd981dc	0.10620472
76	0xbdccd2f2	-0.10001172
77	0xbe05e190	-0.13074327
78	0x3dde2a3d	0.108479
79	0xbe4bf04c	-0.19915885
80	0x3b94a5ff	0.00453639
81	0x3e2633d7	0.16230713
82	0x3dad28f4	0.08455077
83	0x3e57db12	0.21079662
84	0x3e0a3d24	0.13499886
85	0xbe125f9d	-0.14294286
86	0x3cc5b770	0.024135321
87	0x3e66897b	0.22513382
88	0xbe6b657d	-0.22987933
89	0x3d1667f0	0.036720216
90	0x3e677390	0.22602677
91	0xbe0eb428	-0.13935912
92	0x3d8abe56	0.06774585
93	0x3b9f7236	0.00486591
94	0xbdcb21e3	-0.09918573
95	0xbe356ed9	-0.17718066
96	0xbd70bf16	-0.058775984
97	0x3dfbd19f	0.122958414
98	0x3c168c87	0.009188778
99	0xbdf9bad6	-0.12193839
100	0x3e2a9ab9	0.16660585
101	0x3dd28b33	0.102804564
102	0x3d3a2ed5	0.04545482
103	0x3db7c3ae	0.0897287
104	0xbda9b95e	-0.08287309
105	0xbe3da56e	-0.18520138
106	0x3d720f8a	0.05909685
107	0x3e2d36c5	0.16915424
108	0x3e7f8168	0.24951708
109	0x3c787e64	0.015166853
110	0x3bdfad7f	0.0068261023
111	0x3e044946	0.12918577
112	0x3e3c311f	0.18378113
113	0xbe3d066b	-0.1845948
114	0x3ce45a4b	0.027875086
115	0x3de1daa9	0.11028034
116	0xbd05840d	-0.032596637
117	0x3dee4602	0.11634447
118	0xbe2dd4ed	-0.16975756
119	0x3dd7a0e5	0.10528735
120	0xbcbada1f	-0.022809086
121	0xbe31fadb	-0.1738085
122	0x3c0cae8c	0.008586537
123	0x3d2c6e43	0.04209734
124	0x3e64a846	0.22329816
125	0xbd7537f0	-0.0598678
126	0xbcd38cc9	-0.025823968
127	0x3dd2b74b	0.102888666
128	0x3d1a2c7b	0.037640076
129	0xbe27dad6	-0.16392073
130	0xbe1147cc	-0.14187545
131	0xbe6f36eb	-0.23360793
132	0xbdb1d7e9	-0.0868376
133	0xbdd0209c	-0.1016247
134	0xbcd2f366	-0.025750827
135	0x3e3b7eac	0.1831004
136	0x3e5b714b	0.21429937
137	0xbdcccbb6	-0.09999792
138	0x3e315e04	0.1732102
139	0x3e0409bf	0.12894343
140	0x3da1a0a2	0.078919664
141	0x3da6a0ed	0.08136163
142	0x3e0a221f	0.13489579
143	0xbd8872de	-0.06662534
144	0x3e147d76	0.14500985
145	0xbdfdc925	-0.12391881
146	0x3a749895	0.0009330598
147	0x3dc114ae	0.094277725
148	0xbe3613a7	-0.17780934
149	0xbe101444	-0.1407023
150	0x3d41a370	0.047275007
151	0x3e45675e	0.19277713
152	0xbd341795	-0.043967802
153	0xbe2decbd	-0.1698484
154	0x3cd452e3	0.02591843
155	0xbe5e7010	-0.21722436
156	0x3e03cd25	0.12871225
157	0x3e0303ed	0.12794466
158	0x3cc20961	0.023686113
159	0xbdc5dddc	-0.09661457
160	0x3de2d249	0.11075265
161	0x3de8344d	0.113381006
162	0xbe0b2d44	-0.13591486
163	0xbe508fdd	-0.2036738
164	0x3d585bb8	0.052821845
165	0xbb8fcffc	-0.0043888073
166	0x3dbe3210	0.092868924
167	0xbdbbe072	-0.09173669
168	0xbe8e5da1	-0.27805808
169	0x3d9244b9	0.07142014
170	0x3d0c745c	0.034290656
171	0xbe6b6082	-0.22986034
172	0x3db5eeaa	0.08883412
173	0x3d9f811b	0.07788297
174	0xbdaf6f58	-0.08566159
175	0xbe20b6dd	-0.15694757
176	0xbd973ce0	-0.07384658
177	0xbe6ea325	-0.23304422
178	0x3e00bb9a	0.12571564
179	0xbe015924	-0.1263166
180	0xbdc9e925	-0.09858922
181	0xbdcd9a39	-0.10039181
182	0x3b72243e	0.0036947872
183	0xbcc1f3cd	-0.023675824
184	0x3e6e7c32	0.23289564
185	0xbe1c809d	-0.15283437
186	0x3c236e66	0.0099750515
187	0x3ba341cc	0.004982209
188	0xbc2d6b4f	-0.010584666
189	0xbe3376db	-0.17525809
190	0x3d109d57	0.0353063
191	0x3bcbe937	0.0062228697
192	0xbc2824c2	-0.01026267
193	0x3ce15a4e	0.027508881
194	0x3d81b17f	0.06332683
195	0xbcf5d865	-0.030010412
196	0xbd9d5053	-0.07681336
197	0xbe6327ff	-0.22183226
198	0xbc15dcac	-0.009146851
199	0x3e0a956e	0.13533565
200	0xbd71df7c	-0.059051022
201	0x3e4baff8	0.19891346
202	0xbe6c73ea	-0.23091093
203	0xbe42b54c	-0.19014472
204	0xbe162081	-0.14660837
205	0x3e44f6da	0.19234791
206	0xbaefb406	-0.0018287904
207	0xbdc7f3d4	-0.097633034
208	0xbe1a4625	-0.1506582
209	0xbd19f302	-0.037585266
210	0x3d865796	0.065596744
211	0xbdf7f251	-0.12106765
212	0xbd0a2f7f	-0.033736702
213	0x3d02ca37	0.03193113
214	0xbe26858f	-0.16261886
215	0x3e50a582	0.20375636
216	0xbd606a82	-0.054789074
217	0xbe3f915f	-0.18707798
218	0x3bb0661e	0.005383267
219	0x3e238ae3	0.1597095
220	0xbe23ccdb	-0.15996115
221	0x3e6f30c6	0.2335845
222	0x3d29e671	0.04147953
223	0x3e1b1708	0.15145504
224	0xbd03e1ce	-0.032197766
225	0x3de9b8cc	0.114122
226	0xbe2d55de	-0.16927287
227	0xbe6dee30	-0.23235393
228	0xbd4cf920	-0.05004227
229	0xbe4e1c51	-0.2012799
230	0xbdb09c99	-0.08623619
231	0xbde78d21	-0.11306215
232	0x3e4347c4	0.19070345
233	0x3e0e8dee	0.1392133
234	0x3dda23dd	0.10651372
235	0x3e4db300	0.20087814
236	0x3d92acc3	0.07161858
237	0x3d9b6fc9	0.07589681
238	0x3dcef318	0.1010496
239	0x3e1d65b5	0.1537083
240	0x3e065261	0.13117363
241	0xbd581118	-0.052750677
242	0xbd704d62	-0.058667548
243	0xbddc0450	-0.1074301
244	0xbdbe1baf	-0.09282624
245	0x3c7b1a5f	0.015326112
246	0xbe04c863	-0.12967066
247	0xbdc32e6e	-0.0953034
248	0x3dabcbb4	0.08388463
249	0x3e100b55	0.14066823
250	0xbddfdcd3	-0.10930791
251	0xbd5ddbbb	-0.05416463
252	0xbd21ba8f	-0.039484557
253	0xbdd4e7db	-0.103957854
254	0x3cda9589	0.026682632
255	0x3de49d45	0.11162809

net.0.bias f4 [128]
0	0xbea75358	-0.32680774
1	0x3eb78f86	0.35851687
2	0xbe79a034	-0.24377519
3	0xbe9d0f68	-0.30675817
4	0xbe80a2fb	-0.25124344
5	0x3eadf787	0.3397791
6	0x3ebf4c86	0.3736307
7	0x3ece08d0	0.40241098
8	0x3eaca4c2	0.3371945
9	0xbe69f9ab	-0.22849147
10	0x3e928da5	0.2862369
11	0x3e8e9787	0.2784998
12	0xbe7686c2	-0.24074844
13	0xbe8bd0bf	-0.27307698
14	0xbe883eec	-0.26610506
15	0x3eccb8b3	0.39984664
16	0x3eb26a2c	0.34846628
17	0x3e9f8f0e	0.3116383
18	0xbed2c780	-0.4116783
19	0xbeaea191	-0.3410764
20	0x3eab0d95	0.334088
21	0xbeb92e33	-0.3616806
22	0xbe8c93d2	-0.27456528
23	0xbecdd025	-0.40197864
24	0xbeb04251	-0.34425595
25	0xbebff211	-0.3748937
26	0x3e98c432	0.29837185
27	0x3ea3777d	0.319271
28	0x3eabeb14	0.33577788
29	0xbeb707b9	-0.3574808
30	0x3eb96474	0.36209452
31	0x3e8350e3	0.2564765
32	0xbeb0949a	-0.34488374
33	0xbecb3f36	-0.39696664
34	0x3e878e95	0.2647597
35	0xbe944d96	-0.28965443
36	0x3ea7910a	0.32727844
37	0x3eb83fd1	0.35986188
38	0xbec887be	-0.39166063
39	0xbe9e842b	-0.3096021
40	0xbe89ed80	-0.2693901
41	0xbe741d07	-0.23839198
42	0x3ece728b	0.40321764
43	0x3ec7851d	0.38968745
44	0xbe9e15a7	-0.30875894
45	0xbeae3242	-0.3402272
46	0xbe744369	-0.2385384
47	0x3ec5f284	0.38661587
48	0x3eca3501	0.39493564
49	0x3e89fbf8	0.2695005
50	0x3eb263db	0.3484181
51	0xbea97edc	-0.331046
52	0xbe689171	-0.22711731
53	0xbea26d1e	-0.31723875
54	0xbeb5328c	-0.35390127
55	0x3ed45a8e	0.41475338
56	0xbecf57d5	-0.40496698
57	0x3e9de8ca	0.30841666
58	0x3eb7e71f	0.3591852
59	0xbe98758a	-0.29777175
60	0xbe89f321	-0.26943305
61	0xbeb5d1b5	-0.35511556
62	0x3ec967de	0.39337057
63	0x3e873ade	0.264121
64	0xbe8d0581	-0.27543262
65	0xbe8118f1	-0.2521434
66	0x3e983f26	0.29735678
67	0xbe84918a	-0.25892287
68	0xbecb442b	-0.39700446
69	0x3ea13039	0.31482103
70	0x3ed3c4d8	0.41361117
71	0xbeaa5cb4	-0.33273852
72	0xbe8c4240	-0.27394295
73	0xbea77b67	-0.32711336
74	0x3ec97cc0	0.3935299
75	0x3ec78730	0.38970327
76	0xbea3a3c9	-0.31960896
77	0x3e932fdb	0.28747448
78	0xbe843860	-0.2582426
79	0xbe8502fd	-0.25978842
80	0xbebb2dca	-0.36558372
81	0x3ec4eee1	0.384635
82	0xbe90c030	-0.28271627
83	0x3e8dc087	0.2768595
84	0x3e94609f	0.28979966
85	0x3ec51c4d	0.38498154
86	0x3e8c4e7b	0.27403626
87	0xbe9b5929	-0.3034146
88	0xbece4fad	-0.40295163
89	0xbe8cadb8	-0.27476287
90	0xbe9e8fbf	-0.30969045
91	0xbe99f5e3	-0.3007041
92	0x3ed68921	0.41901496
93	0xbebf0ac2	-0.37312895
94	0x3e589760	0.21151495
95	0xbe8dd731	-0.2770324
96	0xbeb87090	-0.36023378
97	0x3e7b1f9e	0.2452378
98	0xbec71bc4	-0.3888837
99	0x3e9fd706	0.31218737
100	0x3e9b7224	0.3036052
101	0x3eaf687f	0.34259412
102	0xbea9a54f	-0.33133933
103	0xbe85987d	-0.26092902
104	0xbeaa6ef7	-0.33287784
105	0x3ea943ff	0.3305969
106	0xbe941377	-0.289211
107	0xbe8e3aff	-0.27779385
108	0xbebde722	-0.37090403
109	0x3e894c7e	0.2681617
110	0xbec0b8e0	-0.37641048
111	0xbebb3063	-0.36560354
112	0xbeaaada3	-0.333356
113	0xbeb93568	-0.36173558
114	0x3e9208a1	0.28522208
115	0xbec9a8d4	-0.39386618
116	0x3ec231a4	0.37928498
117	0x3e6d0cb4	0.23149377
118	0x3ecb94d4	0.39761984
119	0x3e9ed225	0.31019703
120	0x3e8e30b6	0.27771538
121	0xbed507a4	-0.41607392
122	0xbea3e3a0	-0.32009602
123	0x3ea3bed1	0.3198152
124	0x3ebc9fb6	0.368406
125	0x3e908690	0.28227663
126	0xbec24ae1	-0.37947753
127	0xbe92ed91	-0.28696874

net.2.weight f4 [128, 128]
0	0x3d053665	0.032522578
1	0xbdf336a2	-0.11875655
2	0x3e88720b	0.26649508
3	0x3e0eeb60	0.13956976
4	0x3d94230b	0.072332464
5	0xbc8aa254	-0.016923107
6	0xbdda625f	-0.10663294
7	0xbdeac715	-0.11463753
8	0xbd8a4559	-0.06751508
9	0x3e203a83	0.1564732
10	0xbd9eb572	-0.07749452
11	0xbe1a9aaf	-0.1509807
12	0x3d952e17	0.072841816
13	0x3e03d9a7	0.12875997
14	0x3df94c21	0.121727236
15	0xbc34685f	-0.011011212
16	0xbdd1d699	-0.102460094
17	0xbe34048d	-0.17579861
18	0x3db03c2a	0.086052254
19	0x3cada876	0.021198492
20	0xbdada95c	-0.08479568
21	0x3e180750	0.1484654
22	0x3e4c8c35	0.1997536
23	0x3e248305	0.16065605
24	0x3d0c56a9	0.034262333
25	0x3d8e4aaf	0.069478385
26	0xbe0e7319	-0.13911094
27	0xbd350da9	-0.04420248
28	0xbe0224f8	-0.12709415
29	0x3d0e5aaa	0.034754433
30	0xbc95d317	-0.018289132
31	0xbe47d41e	-0.1951451
32	0x3e316570	0.17323852
33	0x3c96f9fc	0.018429749
34	0xbe47cd03	-0.195118
35	0x3dc36296	0.09540288
36	0xbda54fc5	-0.080718555
37	0xbe357af1	-0.1772268
38	0x3c05478a	0.008134732
39	0x3db3fc08	0.087883055
40	0x3e8e689d	0.2781419
41	0x3e1805b4	0.14845926
42	0xbc540f6f	-0.012943133
43	0xbe0599fb	-0.1304702
44	0x3e4cd362	0.20002511
45	0x3d911a9e	0.07085155
46	0x3e10441e	0.14088485
47	0xbd04984d	-0.032371808
48	0xbdc3f39d	-0.0956795
49	0xbd9d934c	-0.0769411
50	0xbbc57103	-0.006025435
51	0x3e294ccb	0.165332
52	0x3e87c59c	0.2651795
53	0x3df1786b	0.11790546
54	0x3e270c2e	0.1631324
55	0xbe03c508	-0.1286813
56	0x3dd7bd7c	0.10534188
57	0xbe02e98b	-0.12784402
58	0xbda20470	-0.07911003
59	0x3e3fa7ef	0.18716405
60	0x3e81af07	0.25328848
61	0x3e36103a	0.17779627
62	0xbe0260c9	-0.12732233
63	0xbe615d38	-0.22008216
64	0x3e59e4f4	0.21278745
65	0x3e436bc7	0.19084083
66	0xbe11d6f1	-0.1424215
67	0x3e248a59	0.160684
68	0x3e2a7318	0.16645467
69	0xbe1b4cef	-0.15166067
70	0xbd218235	-0.039430816
71	0x3e10fbc6	0.14158544
72	0x3e2d156c	0.16902703
73	0x3dfffe13	0.12499633
74	0xbd2694c1	-0.040669207
75	0xbd9e95be	-0.07743405
76	0x3d6d0479	0.057865594
77	0xbe1d21a2	-0.15344861
78	0x3dbe1bb1	0.092826255
79	0x3e30b53a	0.17256632
80	0x3e3878e6	0.18014869
81	0xbd0a0c32	-0.033703037
82	0x3d867c47	0.06566673
83	0xbd80149c	-0.06253931
84	0xbde4f0cb	-0.1117874
85	0xbdb44b7a	-0.088034585
86	0xbe2e2ba2	-0.17008832
87	0x3d2fce6c	0.04292147
88	0x3d845163	0.06460836
89	0x3e84bc29	0.25924805
90	0x3e11927b	0.14216034
91	0x3e576c3b	0.2103738
92	0xbe139b81	-0.14414789
93	0x3da1c166	0.07898216
94	0xbe84481f	-0.25836274
95	0x3e5937d9	0.2121271
96	0x3d3db7d0	0.046317875
97	0xbe5571eb	-0.20844238
98	0x3e284551	0.16432692
99	0xbde04ff5	-0.109527506
100	0xbe02e356	-0.12782034
101	0xbe37fa6c	-0.17966622
102	0x3e4152d0	0.18879247
103	0x3e78de86	0.24303636
104	0x3e1d441e	0.15358016
105	0xbe2e7115	-0.17035325
106	0x3e2dbf80	0.16967583
107	0x3d812c91	0.063073285
108	0x3cf7fe97	0.030272765
109	0xbd9f45c6	-0.0777698
110	0x3c343841	0.01099974
111	0x3df5db14	0.120046765
112	0x3e027a90	0.12742066
113	0x3e1e9116	0.15485033
114	0xbe4b7b1d	-0.19871183
115	0x3e0c1f76	0.13683876
116	0xbe36ef9d	-0.17864843
117	0xbdbe6fc3	-0.092986606
118	0xbdd0ce6f	-0.10195624
119	0xbd51f1dd	-0.05125605
120	0xbe238e4c	-0.1597225
121	0x3e2a439e	0.16627356
122	0x3e179b43	0.14805321
123	0xbd85e624	-0.065380365
124	0xbdd50e45	-0.10403112
125	0xbe0af29e	-0.13569114
126	0x3e14a73f	0.14516924
127	0x3d8fda17	0.07024019
128	0xbe20b487	-0.15693866
129	0x3e49cf6e	0.19708034
130	0xbe8ffea2	-0.28123957
131	0xbe4c2757	-0.19936882
132	0xbdcf1ada	-0.101125434
133	0x3d5c82c2	0.053835638
134	0x3df6ee9b	0.12057229
135	0x3debc323	0.11511829
136	0x3e06b810	0.13156152
137	0xbe80ef1c	-0.25182426
138	0x3e605cec	0.21910447
139	0x3debc135	0.11511461
140	0xbdf67a25	-0.12035016
141	0xbe6c1700	-0.23055649
142	0xbe0eb53e	-0.13936326
143	0x3e35eec0	0.17766857
144	0x3e2aeb1b	0.16691248
145	0x3e5a31a4	0.21307999
146	0xbe0d2919	-0.13785209
147	0xbe12e84b	-0.14346425
148	0x3e2e74f4	0.17036802
149	0xbe1bb27c	-0.15204805
150	0xbe1f9ef3	-0.15587978
151	0xbdb753ca	-0.08951528
152	0xbe2a8de6	-0.16655692
153	0xbd96f1ae	-0.073703155
154	0x3e004566	0.12526473
155	0x3d9b13a6	0.07572107
156	0x3db85e32	0.09002341
157	0xbdf2a2fc	-0.11847493
158	0x3d6da588	0.05801919
159	0x3e89d97d	0.26923743
160	0xbe35c57e	-0.17751119
161	0xbe3e3f9d	-0.18578954
162	0x3e14a6ba	0.14516726
163	0xbe1bea2b	-0.15226047
164	0x3dafdf10	0.08587468
165	0x3dda9943	0.106737636
166	0xbe3eb97d	-0.18625446
167	0xbe57a0f2	-0.2105749
168	0xbe6b52b7	-0.22980772
169	0xbe813440	-0.25235176
170	0x3e2042d1	0.15650488
171	0x3e4ea854	0.201814
172	0xbe1bbdab	-0.15209071
173	0xbd3870a6	-0.045029305
174	0xbdf92467	-0.12165146
175	0x3e165a65	0.1468292
176	0x3d26932f	0.04066771
177	0x3e2f95f1	0.17147042
178	0x3dff54a6	0.12467317
179	0xbe3b6007	-0.1829835
180	0xbe207408	-0.15669262
181	0xbd39d80a	-0.045372047
182	0xbe063e2c	-0.13109654
183	0x3d5c3e4a	0.05377034
184	0xbd9975a5	-0.07493142
185	0x3e250be2	0.16117814
186	0x3d70b421	0.058765534
187	0xbe22d903	-0.15903096
188	0xbe46de19	-0.19420661
189	0xbd361d06	-0.044461273
190	0x3de7bcf1	0.113153346
191	0x3e8c0ce6	0.2735359
192	0xbe7003d8	-0.23438966
193	0xbe0b32a1	-0.13593532
194	0x3e5c417f	0.2150936
195	0xbe23fd0f	-0.16014503
196	0xbd1b65dd	-0.03793894
197	0x3e4c2563	0.19936137
198	0x3d2798a9	0.040917072
199	0xbdf5edbc	-0.12008235
200	0xbe336cbb	-0.17521946
201	0xbe0d6d27	-0.1381117
202	0x3d9c70f9	0.07638735
203	0x3d3b3ee3	0.04571427
204	0xbd4af5d4	-0.049550846
205	0x3e487458	0.19575632
206	0xbe3cc130	-0.1843307
207	0xbe49abeb	-0.19694488
208	0xbe0137ce	-0.12618944
209	0x3d08bf6a	0.03338567
210	0xbdf49b50	-0.11943686
211	0x3e121742	0.14266685
212	0x3dc7ee19	0.097622104
213	0x3e57ae8c	0.21062678
214	0x3e11a89e	0.14224479
215	0xbe275a75	-0.163431
216	0xbd8de840	-0.06929064
217	0xbe8d20a4	-0.27563965
218	0xbe26b1ef	-0.16278814
219	0xbe746df6	-0.23870072
220	0x3d7f0cab	0.06226794
221	0xbd830d27	-0.06398993
222	0x3e3cda92	0.18442753
223	0xbe3a47da	-0.18191472
224	0xbd7f132a	-0.062274136
225	0x3e149b89	0.14512457
226	0xbe209068	-0.15680087
227	0x3e37d9af	0.17954133
228	0x3e2092e2	0.15681031
229	0x3e41999c	0.18906254
230	0xbd83be8c	-0.06432828
231	0xbe31ccfc	-0.17363352
232	0xbe379457	-0.17927681
233	0x3e4409a4	0.19144303
234	0xbdcdfbe1	-0.10057808
235	0xbe4318ff	-0.19052504
236	0xbd8d18ff	-0.06889533
237	0x3e751cb7	0.23936735
238	0xbe362f08	-0.17791378
239	0xbe37c0ed	-0.17944689
240	0xbe023e4c	-0.12719077
241	0xbdaef3bf	-0.08542585
242	0x3df25ae8	0.11833745
243	0xbddedb04	-0.10881618
244	0x3da7edab	0.081996284
245	0x3d992b92	0.074790135
246	0x3dbec694	0.093152195
247	0x3d66993a	0.056298472
248	0x3e0fafae	0.1403186
249	0xbe465ef0	-0.19372153
250	0xbe24ff57	-0.1611303
251	0x3e2514f0	0.16121268
252	0x3e1ace2f	0.15117715
253	0x3ddfdf3b	0.1093125
254	0xbe1e42a5	-0.1545511
255	0xbe3c7ef5	-0.18407805

net.2.bias f4 [128]
0	0xbd27571c	-0.04085456
1	0x3d445569	0.047933016
2	0x3c1c7116	0.009548446
3	0x3e2c0cfd	0.1680183
4	0x3bcca558	0.0062452964
5	0x3da38843	0.07984974
6	0xbdeb087e	-0.11476229
7	0x3e007e45	0.12548168
8	0xbcf7363c	-0.030177228
9	0xbe075e65	-0.13219602
10	0x3d4367f6	0.047706567
11	0xbdedacc8	-0.11605221
12	0xbdefabe6	-0.11702709
13	0xbbc9154a	-0.006136571
14	0xbe0ce2b4	-0.13758355
15	0x3cba2116	0.022720855
16	0xbd12822a	-0.035768665
17	0x3e1fb130	0.15594935
18	0xbe21ae98	-0.15789258
19	0xbe1976ff	-0.149868
20	0xbd13cb5f	-0.03608262
21	0xbe1aa4d6	-0.15101942
22	0xbe1d2b41	-0.15348531
23	0xbdf84f51	-0.121245034
24	0xbb4524a9	-0.0030081666
25	0x3de8a805	0.11360172
26	0xbe0bf774	-0.13668615
27	0x3e06a295	0.13147958
28	0xbbb3b8a1	-0.005484656
29	0x3ddfd2c7	0.109288745
30	0x3d8bf30e	0.068334684
31	0x3df40b57	0.119162254
32	0xbcbf91d3	-0.023384964
33	0xbe03e328	-0.12879622
34	0xbdfe33e8	-0.12412244
35	0xbe16ba35	-0.1471947
36	0xbdd54bf5	-0.10414878
37	0xbc37c138	-0.0112155005
38	0xbd77d016	-0.06050118
39	0x3bd68f60	0.0065478534
40	0xbe12f7f5	-0.143524
41	0xbde620e4	-0.11236742
42	0x3d3bc0b4	0.045838073
43	0x3dfdfa77	0.12401288
44	0xbdfdd5b7	-0.123942785
45	0xbde8424d	-0.11340771
46	0xbcb647fd	-0.022251124
47	0xbcdd1745	-0.026988635
48	0x3c77d787	0.015127069
49	0xbdcf7361	-0.10129429
50	0x3db4da9c	0.08830759
51	0xbe23ac8d	-0.15983792
52	0xbe0bb2fa	-0.13642493
53	0xbd873d7a	-0.066035226
54	0xbe0560ed	-0.13025256
55	0x3d475d0e	0.04867273
56	0x3dca9017	0.09890764
57	0x3debd6b3	0.1151556
58	0x3dd7738f	0.10520088
59	0x3e2ae262	0.1668792
60	0x3d618a3b	0.055063467
61	0x3c68d95e	0.014211981
62	0xba09194c	-0.0005229905
63	0x3d1a9550	0.03774005
64	0x3df3b1c1	0.11899138
65	0x3d2303ff	0.039798733
66	0xbd9337d0	-0.0718838
67	0xbd44ff3e	-0.04809498
68	0xbcaf1af4	-0.021375157
69	0x3e17cdfa	0.14824668
70	0x3cd3b96c	0.025845252
71	0x3c815c7a	0.015791167
72	0x3dde7316	0.10861795
73	0xbd796816	-0.06089028
74	0xbd3e643c	-0.04648231
75	0x3bb44847	0.00550178
76	0xbd2a80b6	-0.041626655
77	0x3dc329a8	0.0952943
78	0xbdd820f6	-0.10553162
79	0xbda3f7eb	-0.08006271
80	0x3d153204	0.03642465
81	0x3d2bbe8e	0.041929774
82	0xbcaaa44b	-0.020830294
83	0x3dfed742	0.12443401
84	0xbdfcae3b	-0.12337919
85	0x3e18b924	0.14914376
86	0xbdbaf42b	-0.091286026
87	0xbe09cd33	-0.13457184
88	0xbcd3068c	-0.025759958
89	0x3c1ccace	0.009569837
90	0x3d11a30c	0.035555884
91	0xbe2013b8	-0.15632522
92	0xbdd334c7	-0.10312801
93	0x3ddc6ff0	0.10763538
94	0x3d47219e	0.048616044
95	0x3bf99481	0.00761658
96	0x3cdc38ac	0.026882492
97	0xbe1ee28e	-0.15516111
98	0x3cf24d11	0.029577764
99	0x3de8d69e	0.1136906
100	0xbe2732b9	-0.16327943
101	0xbbdfe625	-0.0068328553
102	0xbdd38d42	-0.10329677
103	0x3e015057	0.12628303
104	0x3df12f04	0.11776546
105	0x3e0db316	0.13837847
106	0x3dbb7912	0.09153952
107	0xbc6677e5	-0.014066671
108	0xbd9c402f	-0.076294295
109	0x3df22f9b	0.11825486
110	0x3d7ad61b	0.061239343
111	0x3dca730d	0.098852254
112	0x3d64d53f	0.05586743
113	0x3c57eb4c	0.013178658
114	0xbd835650	-0.06412947
115	0x3dc5adf1	0.09652317
116	0x3e02809d	0.12744375
117	0xbe081b51	-0.1329167
118	0xbc58bf0b	-0.013229142
119	0x3e31c913	0.1736186
120	0x3dbcf499	0.09226341
121	0xbe1eaddf	-0.15496014
122	0xbd814412	-0.063118115
123	0x3dae7e9d	0.08520243
124	0x3da99347	0.08280044
125	0xbd968449	-0.0734945
126	0xbd848dd4	-0.06472364
127	0xbd1b3409	-0.03789142
