runs/checkpoint_e100.pt (torch, 158519 bytes, 12 tensors)

net.0.weight f4 [128, 18]
0.662189 -0.052864503 -0.15570456 -0.21412252 -0.00085667684 -0.016518783 0.29786724 -0.1466333
0.13916235 0.2299886 0.06961268 -0.06225469 0.56304497 0.28763145 0.12729615 -0.06884013
-0.18734139 0.115640275 0.43946853 0.38796216 0.15287806 0.044683892 0.038661387 -0.17828047
0.61357605 0.3347147 -0.19226497 -0.1173767 0.22870186 -0.0074313884 0.4764369 0.20295505
-0.14592592 -0.097165234 0.21209162 0.016564723 -0.46000594 -0.4116288 -0.17255025 -0.06402724
-0.08362286 0.11378281 0.044628847 0.47390583 0.0474531 0.04232679 -0.08714195 0.21431765
0.25258487 0.4120759 0.042949863 -0.15710573 -0.012938099 0.008692366 0.62497294 0.44244406
-0.09020647 0.17326255 0.12600547 -0.03987297 0.50669026 0.51140213 0.18489301 0.033790816
0.0446951 -0.07522906 0.3000345 -0.025101539 0.028729618 -0.20268115 -0.15870737 -0.03165751
-0.15346342 0.16350238 -0.07792898 -0.021258898 0.17740247 -0.15215114 -0.12755302 0.057000734
0.08161393 -0.16112962 0.020347318 0.2342523 -0.19574168 -0.49698508 -0.2023296 0.16367799
0.22832215 0.23500633 -0.043255843 -0.1696241 -0.14769855 -0.15056138 -0.036705524 0.12348982
0.46778822 0.5335567 0.20441231 -0.06270558 0.20106168 -0.15052444 -0.19162324 -0.26907218
-0.116039224 0.16213033 -0.0626199 0.17036082 -0.6359733 -0.27406955 0.07193548 0.004979622
-0.034471177 0.13463128 -0.14017932 0.07443866 0.113293335 0.22805865 0.037926488 -0.20076326
0.04854471 0.55506206 0.093173355 0.14863996 0.13742314 0.05684697 0.112306826 0.03411291
0.14592035 -0.19664831 -0.17587437 0.12240656 -0.023937626 0.16854776 0.10521695 -0.17752738
-0.08910206 0.18880479 0.035831355 -0.4135633 -0.06782818 0.17929155 0.14195745 -0.014729817
-0.036021408 -0.10426837 0.1721667 0.18466333 0.14146128 -0.017565627 0.057842866 -0.21044585
-0.0011349337 -0.12603633 -0.19840969 0.19011346 0.24823849 0.35057053 -0.046475682 -0.13129306
-0.22898492 0.011730901 -0.07377737 -0.09175774 -0.15951613 0.025311654 0.23348913 -0.0076055955
-0.28832147 -0.5566103 0.1525851 0.14868054 0.11560642 0.23295519 0.102346696 0.3647629
-0.14088541 -0.13194302 0.16793206 0.03828277 0.30324426 0.52606356 0.04016209 0.21088889
-0.13369422 -0.16676117 0.4670751 -0.061243914 -0.008333572 -0.13100308 0.1553928 -0.12658067
0.15694067 0.008000873 -0.18412246 -0.18599604 -0.22369766 -0.12861954 -0.00012980624 0.024979062
0.22136685 0.1770752 0.19465356 0.060606465 -0.4621662 -0.5373993 -0.06285678 -0.16082937
-0.038435396 0.13853079 0.057402838 0.36213666 -0.06549767 -0.041744713 -0.16266857 -0.115970425
0.6399073 0.33716622 0.037236508 -0.19227432 -0.18669647 0.1907072 0.39175677 0.18051183
-0.055664763 0.18377256 -0.15637599 -0.16334946 0.385016 0.44029444 -0.067566894 0.078559816
0.02233589 -0.024695637 -0.045867547 -0.45657063 0.20777589 0.1467562 0.13705838 0.17203927
0.5212048 0.5374637 0.18865828 -0.13001812 0.014776039 -0.05366283 0.018567879 0.50905246
0.19435042 0.23322614 0.18559022 0.07742915 0.30739284 0.14682078 -0.06164435 0.025737816
00000000: 3885 293f 7388 58bd 0471 1fbe ef42 5bbe
00000010: 9c92 60ba 6652 87bc 0e82 983e 0a27 16be
00000020: 9380 0e3e 2282 6b3e 1891 8e3d c6fe 7ebd
00000030: b723 103f 6e44 933e ec59 023e 0efc 8cbd
00000040: 6cd6 3fbe cfd4 ec3d 0502 e13e faa2 c63e
00000050: 118c 1c3e 7506 373d 675b 1e3d 288f 36be
00000060: 5213 1d3f ba5f ab3e 1ce1 44be 3263 f0bd
00000070: d230 6a3e 0183 f3bb 8aef f33e 73d3 4f3e
00000080: 9b6d 15be 91fe c6bd 8c2e 593e beb2 873c
00000090: e685 ebbe 03c1 d2be 03b1 30be b720 83bd
000000a0: 7642 abbd f606 e93d bdcc 363d c9a3 f23e
000000b0: 2f5e 423d db5e 2d3d 7b77 b2bd 1676 5b3e
000000c0: ce52 813e 9dfb d23e 32ec 2f3d 53e0 20be
000000d0: 52fa 53bc 6d6a 0e3c 3afe 1f3f 0788 e23e
000000e0: 2bbe b8bd bd6b 313e 9407 013e d751 23bd
000000f0: 74b6 013f 40eb 023f 9854 3d3e 3d68 0a3d
00000100: 3612 373d b211 9abd 1f9e 993e bea1 cdbc
00000110: 605a eb3c a68b 4fbe 2f84 22be 4eab 01bd
00000120: 8425 1dbe 2b6d 273e 3b99 9fbd 2427 aebc
00000130: fea8 353e 82cd 1bbe 429d 02be 9a79 693d
00000140: 3425 a73d 2aff 24be 6baf a63c d6df 6f3e
00000150: 8270 48be d474 febe 7e2f 4fbe 349b 273e
00000160: 48cd 693e 80a5 703e 0a2d 31bd f1b1 2dbe
00000170: 4a3e 17be c32c 1abe 8858 16bd 3be8 fc3d
00000180: f081 ef3e 2c97 083f 7651 513e c86b 80bd
00000190: 1de3 4d3e 1423 1abe e238 44be d4c3 89be
000001a0: f9a5 edbd 7e05 263e dd3e 80bd 1173 2e3e
000001b0: 25cf 22bf d852 8cbe e952 933d 192c a33b
000001c0: a631 0dbd c8dc 093e 2b8b 0fbe 4c73 983d
000001d0: 5606 e83d 3588 693e ce58 1b3d e294 4dbe
000001e0: d1d6 463d 8c18 0e3f acd1 be3d 1335 183e
000001f0: a7b8 0c3e 5ed8 683d 1f01 e63d fbb9 0b3d
00000200: 256c 153e 2d5e 49be 6918 34be 4ab0 fa3d
00000210: d718 c4bc c997 2c3e fc7b d73d bdc9 35be
00000220: 247b b6bd 0b56 413e e6c3 123d 92be d3be
00000230: 80e9 8abd 3498 373e 4b5d 113e 5555 71bc
00000240: 2f8b 13bd a88a d5bd 784c 303e 6218 3d3e
00000250: 3adb 103e cae5 8fbc a4ec 6c3d 1e7f 57be
00000260: 0ec2 94ba ab0f 01be e92b 4bbe 1aad 423e
00000270: 3b32 7e3e fb7d b33e 495d 3ebd b071 06be
00000280: 067b 6abe f732 403c 9718 97bd 7beb bbbd
00000290: 3258 23be 635a cf3c c617 6f3e 5c38 f9bb
000002a0: df9e 93be 037e 0ebf 453f 1c3e b63f 183e
000002b0: 0fc3 ec3d ce8b 6e3e 259b d13d 34c2 ba3e
000002c0: 4444 10be 121c 07be 62f6 2b3e 65ce 1c3d
000002d0: d542 9b3e 1aac 063f 0181 243d 42f3 573e
000002e0: 23e7 08be 71c3 2abe 7824 ef3e e6da 7abd
000002f0: 8989 08bc ac25 06be 4a1f 1f3e 5d9e 01be
00000300: 0eb5 203e 1816 033c 998a 3cbe bf75 3ebe
00000310: 0011 65be d7b4 03be 991c 08b9 e4a0 cc3c
00000320: fead 623e 3453 353e 4353 473e 7c3e 783d
00000330: 0ca1 ecbe 0093 09bf 0ebb 80bd 74b0 24be
00000340: 6f6e 1dbd 04db 0d3e 3d1f 6b3d fa69 b93e
00000350: a423 86bd 81fc 2abd 9792 26be e781 edbd
00000360: f7d0 233f 0da1 ac3e 4f85 183d 8fe3 44be
00000370: 5c2d 3fbe c048 433e 5894 c83e 18d8 383e
00000380: bc00 64bd e02e 3c3e 0721 20be 1545 27be
00000390: d120 c53e 466e e13e 8360 8abd f8e3 a03d
000003a0: c2f9 b63c 814e cabc 9cdf 3bbd a0c3 e9be
000003b0: 34c3 543e 4247 163e 0859 0c3e 102b 303e
000003c0: ae6d 053f 3997 093f a32f 413e 7823 05be
000003d0: 3317 723c 8ecd 5bbd aa1b 983c 4351 023f
000003e0: cc03 473e d5d2 6e3e 5d0b 3e3e 2d93 9e3d
000003f0: 9862 9d3e 3058 163e c97e 7cbd 1dd8 d23c

net.0.bias f4 [128]
-0.21974954 0.08484673 -0.027306909 -0.04157808 -0.08466822 0.06132284 0.023284793 -0.15594918
-0.08566311 -0.0146491425 0.19646099 0.070593394 -0.15672229 -0.06509205 -0.17738104 -0.17404556
0.17032321 -0.010966409 0.17838739 -0.071104795 0.1549402 0.20382655 0.0634137 0.13632147
0.065297276 -0.041157782 -0.0044754017 -0.17382969 -0.014105363 0.037395664 0.06727096 -0.19364078
0.19665034 -0.13824971 0.2038936 -0.11456859 0.04834583 -0.078015104 0.18915518 0.061438225
-0.049827803 -0.21968739 -0.022989457 0.10393313 0.107169755 0.1480054 0.19142735 -0.04236001
-0.17354406 0.028626073 -0.1131247 0.2270244 -0.17267431 0.20433488 0.18495542 -0.17908202
-0.16092777 0.1735729 0.0785654 -0.004101922 -0.12114724 -0.037056796 0.21354684 -0.13953564
0.17397143 0.09939147 -0.09250214 -0.21195957 -0.19334659 -0.21114877 -0.07140865 -0.08540635
0.033745226 0.19190282 0.16637728 -0.053395666 0.115295015 0.123681866 -0.12333587 -0.0598825
-0.1491547 -0.21395703 -0.07145722 0.19348568 0.06546566 -0.16740407 0.07429538 -0.051542804
0.17045644 0.20286557 0.076281115 0.097846076 -0.043891784 0.065395325 -0.20770007 0.028205289
-0.1555768 0.032124363 -0.043735366 0.041607603 0.21659972 -0.07662091 -0.12167008 -0.157849
-0.1549331 0.13581313 -0.21347691 -0.052349277 -0.17617376 0.17851147 -0.07189389 -0.06810814
0.092824936 -0.21629184 -0.17970282 -0.14378779 -0.07522981 -0.14349358 0.21831681 -0.13270342
0.008300635 -0.072583295 -0.061451413 -0.15834078 -0.04213988 -0.049461465 -0.036938787 -0.19323689
00000000: 0606 61be 1fc4 ad3d bdb2 dfbc c74d 2abd
00000010: 8866 adbd a92d 7b3d c0bf be3c 24b1 1fbe
00000020: 2470 afbd f502 70bc 122d 493e 4593 903d
00000030: cf7b 20be fb4e 85bd 60a3 35be 0039 32be
00000040: 3569 2e3e 74ac 33bc 2fab 363e 649f 91bd
00000050: a5a8 1e3e e8b7 503e 0bdf 813d db97 0b3e
00000060: 94ba 853d 1095 28bd 64a6 92bb 6900 32be
00000070: 2e1a 67bc 322c 193d 5bc5 893d c549 46be
00000080: b55e 493e 5591 0dbe 7cc9 503e f0a2 eabd
00000090: 4706 463d 62c6 9fbd e5b1 413e a6a6 7b3d
000000a0: 3d18 4cbd bbf5 60be 6354 bcbc e5da d43d
000000b0: d17b db3d ba8e 173e 8805 443e b181 2dbd
000000c0: 89b5 31be 3a81 ea3c ecad e7bd 1679 683e
000000d0: 89d1 30be 2a3d 513e f464 3d3e 4761 37be
000000e0: 40ca 24be 18bd 313e e5e6 a03d 6a69 86bb
000000f0: 0b1c f8bd dec8 17bd 06ac 5a3e 6ee2 0ebe
00000100: 9125 323e c18d cb3d c371 bdbd ee0b 59be
00000110: a6fc 45be 6237 58be b33e 92bd 86e9 aebd
00000120: 6f38 0a3d 2c82 443e ce5e 2a3e 6ab5 5abd
00000130: cb1f ec3d eb4c fd3d 8497 fcbd 5a47 75bd
00000140: 02bc 18be 8d17 5bbe 2a58 92bd 1c21 463e
00000150: dc12 863d f96b 2bbe 2d28 983d 8c1e 53bd
00000160: 228c 2e3e febb 4f3e 4639 9c3d 8663 c83d
00000170: dfc7 33bd fced 853d 54af 54be c70e e73c
00000180: 864f 1fbe d694 033d db23 33bd bc6c 2a3d
00000190: 51cc 5d3e 6ceb 9cbd 2a2e f9bd 2ba3 21be
000001a0: c8a6 1ebe 9912 0b3e b199 5abe 326c 56bd
000001b0: e566 34be b6cb 363e 1b3d 93bd 487c 8bbd
000001c0: 001b be3d 9c7b 5dbe 0404 38be 1b3d 13be
000001d0: 1612 9abd fbef 12be 718e 5f3e 68e3 07be
000001e0: 63ff 073c 8da6 94bd 7ab4 7bbd 1624 22be
000001f0: de9a 2cbd 1b98 4abd 204d 17bd e4df 45be

net.2.weight f4 [128, 128]
0.02099589 0.0059226938 -0.12313619 -0.03076388 -0.030088559 -0.078692 -0.09956178 0.030085193
0.062094025 0.024634639 -0.048589878 0.018916972 0.018020185 -0.109124474 0.011412086 -0.019965198
0.079897545 0.04273464 0.026086336 0.001736195 0.11240549 0.043322816 0.030658 0.008958147
0.0012182663 0.035043217 0.16613486 -0.08292977 -0.042721406 0.039778758 0.069937155 0.046831895
0.106576726 -0.038007192 0.0007025288 -0.07540986 0.0233628 -0.12286067 0.060153216 -0.008478938
0.1369767 -0.02885921 -0.06091343 -0.018359477 -0.06824686 -0.06702816 -0.0029736713 -0.07530739
0.072794825 -0.14005014 0.066522494 0.063004054 0.073703796 -0.015869603 -0.08666629 -0.022227671
0.069104455 -0.07904385 0.009656497 -0.09750615 0.11071951 -0.14729486 0.0991376 -0.0014561218
-0.09905403 -0.09815533 -0.012613994 0.06953741 0.008734897 0.07756633 -0.010711454 -0.0012866232
-0.042436417 -0.015009296 -0.018700518 0.054076154 0.008599762 -0.06766373 -0.0072993627 -0.0071573565
0.025917772 -0.06289522 -0.09306877 -0.03531778 -0.03149615 -0.084291406 0.0016167866 0.033127174
0.0070312438 -0.012395689 -0.029101225 -0.0451556 -0.033107217 0.13663201 -0.0002950906 0.08263744
-0.016836857 0.027839975 0.025056737 -0.0028024295 -0.00012268437 -0.026246926 0.121710785 0.059368003
0.12806617 0.073254175 0.06635521 0.01439544 -0.0008942642 0.06216199 -0.066735655 0.05580572
0.0013566223 -0.10789526 0.01690998 0.005980224 -0.010483078 0.086324185 0.08867128 -0.08778124
-0.055076115 -0.0034696956 -0.058511216 -0.09424245 0.0065707867 -0.0080094375 0.038069546 0.017660476
-0.012604683 0.062294375 -0.060220424 0.13893557 0.04677633 -0.0100208605 0.03527553 -0.08554319
0.034366205 -0.09906378 0.09223056 -0.05822071 -0.025761014 -0.03214219 -0.03750672 0.10645652
0.020007906 0.07289549 -0.09524185 -0.059839588 0.013690446 -0.002504657 0.11907363 0.06602691
-0.002498373 0.04388996 0.17747769 0.027450524 -0.020151537 0.03996599 0.0026946317 -0.0063115526
0.06476364 0.006425341 0.017122218 0.021682592 0.025253806 0.02548754 0.011991609 -0.02169353
-0.02706515 -0.032762244 0.08190202 0.016075218 0.019318504 -0.03044407 0.005743728 -0.06071758
0.06620345 0.004597939 -0.033857826 -0.031798437 -0.10029607 -0.04769728 -0.028260188 0.0128387995
-0.08325533 -0.012092011 0.04434792 0.015090253 0.042660054 -0.005130598 -0.022075687 0.022399547
0.0774286 -0.047208983 0.036373504 0.09544928 -0.021775736 0.005766064 -0.13961437 -0.009419157
-0.1455253 0.051532388 -0.041840408 0.116884075 -0.082235105 -0.09483662 -0.1214841 -0.03174531
-0.094156526 -0.06555966 -0.069362834 0.050564844 -0.09555526 -0.03101219 0.08894791 -0.0095097935
-0.076913044 -0.07038038 -0.012481087 -0.1307482 0.025584573 0.13362958 -0.03018639 0.04705341
0.041519687 -0.038708832 -0.1556154 0.042816754 -0.016537309 -0.07675695 0.082731314 -0.010542325
0.09475429 -0.04603328 0.06605957 -0.018785218 0.06186887 -0.05676009 -0.1000165 -0.029465621
0.07984805 -0.03600337 0.10935936 -0.047660325 -0.047918025 0.0365077 -0.082502976 -0.06566721
-0.02526551 0.06303031 0.082437456 -0.06986014 -0.07865995 0.12358497 -0.04882007 0.038304415
00000000: 93ff ab3c 2813 c23b d42e fcbd 8804 fcbc
00000010: 487c f6bc 4529 a1bd 0ce7 cbbd 3975 f63c
00000020: 4e56 7e3d 95ce c93c 2e06 47bd c4f7 9a3c
00000030: 119f 933c a77c dfbd c2f9 3a3c 0e8e a3bc
00000040: 53a1 a33d 850a 2f3d 03b3 d53c 0991 e33a
00000050: d934 e63d 4473 313d 7c26 fb3c 31c5 123c
00000060: 3cae 9f3a 7a89 0f3d 421f 2a3e 15d7 a9bd
00000070: a4fc 2ebd 0def 223d 363b 8f3d cdd2 3f3d
00000080: e644 da3d 6ead 1bbd e929 383a 7c70 9abd
00000090: 5863 bf3c 609e fbbd 3863 763d 3eeb 0abc
000000a0: 9f43 0c3e 266a ecbc 5c80 79bd 9d66 96bc
000000b0: 02c5 8bbd 0f46 89bd ede1 42bb c33a 9abd
000000c0: 7415 953d 4e69 0fbe f23c 883d 4508 813d
000000d0: 04f2 963d f800 82bc 197e b1bd ce16 b6bc
000000e0: a386 8d3d bee1 a1bd 4936 1e3c 4eb1 c7bd
000000f0: e9c0 e23d 77d4 16be a708 cb3d 57db beba
00000100: d7dc cabd a905 c9bd edaa 4ebc a169 8e3d
00000110: d01c 0f3c 19db 9e3d 187f 2fbc e9a3 a8ba
00000120: cfd1 2dbd 8de9 75bc d431 99bc f57e 5d3d
00000130: 04e6 0c3c 4893 8abd 7e2f efbb 4288 eabb
00000140: 8251 d43c 36cf 80bd d79a bebd 60a9 10bd
00000150: 1b02 01bd f9a0 acbd 5bea d33a 5cb0 073d
00000160: 5966 e63b 4a17 4bbc b165 eebc 14f5 38bd
00000170: 6f9b 07bd 43e9 0b3e 64b6 9ab9 d13d a93d
00000180: 73ed 89bc a910 e43c c943 cd3c f7a8 37bb
00000190: d6a4 00b9 cb03 d7bc 8143 f93d dd2b 733d
000001a0: c723 033e 4906 963d 3ee5 873d dada 6b3c
000001b0: 0e6d 6aba 929d 7e3d b4ac 88bd 8a94 643d
000001c0: b1d0 b13a 31f8 dcbd cc86 8a3c c1f5 c33b
000001d0: 37c1 2bbc bcca b03d 4a99 b53d a7c6 b3bd
000001e0: 7e97 61bd d563 63bb 75a9 6fbd 3002 c1bd
000001f0: c14f d73b 043a 03bc d0ee 1b3d b4ac 903c
00000200: df83 4ebc 6328 7f3d b1a9 76bd 2045 0e3e
00000210: 8998 3f3d 892e 24bc 137d 103d 4531 afbd
00000220: 94c3 0c3d f3e1 cabd 60e3 bc3d d778 6ebd
00000230: c308 d3bc 87a7 03bd a5a0 19bd e005 da3d
00000240: 9fe7 a33c 3b4a 953d 290e c3bd 5b1a 75bd
00000250: e44d 603c 2c25 24bb e0dc f33d 1e39 873d
00000260: bebb 23bb f5c5 333d b6bc 353e ecdf e03c
00000270: d614 a5bc 61b3 233d 6b98 303b 24d1 cebb
00000280: cda2 843d ab8b d23b e543 8c3c b19f b13c
00000290: 12e1 ce3c 3fcb d03c 7478 443c a1b6 b1bc
000002a0: bcb7 ddbc b431 06bd 3fbc a73d 2db0 833c
000002b0: d741 9e3c d865 f9bc e235 bc3b ffb2 78bd
000002c0: ad95 873d 4faa 963b 81ae 0abd 143f 02bd
000002d0: 0768 cdbd 395e 43bd e981 e7bc d459 523c
000002e0: c581 aabd 921d 46bc 2aa6 353d 1c3d 773c
000002f0: 4fbc 2e3d 931e a8bb 12d8 b4bc 417f b73c
00000300: e392 9e3d 355e 41bd 62fc 143d ea7a c33d
00000310: 0763 b2bc 40f1 bc3b 12f7 0ebe cf52 1abc
00000320: 9604 15be a013 533d d960 2bbd eb60 ef3d
00000330: e16a a8bd b439 c2bd a8cc f8bd 5f07 02bd
00000340: 23d5 c0bd 2544 86bd 1a0e 8ebd 151d 4f3d
00000350: 7ab2 c3bd 470d febc 522a b63d f7ce 1bbc
00000360: 9684 9dbd 9723 90bd 797d 4cbc dbe2 05be
00000370: bd96 d13c 31d6 083e 7349 f7bc 14bb 403d
00000380: 8c10 2a3d 278d 1ebd a559 1fbe 9f60 2f3d
00000390: 4079 87bc bf32 9dbd 096f a93d b7b9 2cbc
000003a0: 8a0e c23d 658d 3cbd 3d4a 873d 75e3 99bc
000003b0: 366a 7d3d 457d 68bd 73d5 ccbd e361 f1bc
000003c0: 6087 a33d 4578 13bd cdf7 df3d 7937 43bd
000003d0: b145 44bd 1989 153d 52f7 a8bd 887c 86bd
000003e0: 9df9 cebc 0916 813d f8d4 a83d d512 8fbd
000003f0: 7818 a1bd 1e1a fd3d 8ef7 47bd 17e5 1c3d

net.2.bias f4 [128]
-0.02937624 -0.060614403 0.09107834 -0.012784069 0.03206061 0.042305518 -0.05897553 0.022940135
0.04599145 0.055451315 -0.036792826 0.08388532 -0.06293666 -0.08949507 -0.0059573157 0.04173008
0.07616154 0.08801141 0.06533674 0.07129696 0.03525178 0.01713817 -0.03573273 -0.022949517
-0.092357 0.029480971 -0.07064349 0.053632118 -0.05226035 -0.0008492755 -0.0052885413 -0.02368889
-0.07829391 0.08388235 -0.013171869 0.010828487 0.046776373 -0.005183273 0.045103718 0.023265265
-0.046906378 0.06212927 0.068255745 0.07698882 0.051261265 0.055730324 0.07052964 0.0022425049
0.027908012 -0.0037498856 0.047962327 -0.012804174 0.023781938 -0.042152934 -0.057079233 0.0051683635
0.08749718 0.0062891953 0.06961117 0.077385955 -0.06947275 0.07340861 -0.078461565 0.0032115371
-0.060976744 0.069645874 0.06268343 0.0071446435 0.074182615 0.04397106 -0.018764148 -0.07442966
0.059284985 -0.040509775 -0.06011313 0.06736472 0.07240899 -0.089913845 -0.06134573 -0.0047190837
0.018197995 0.077313334 0.028709907 -0.033256702 0.055487785 0.032728784 -0.08595633 -0.014073148
0.0508601 -0.03030411 -0.06923686 -0.08072124 -0.0017928737 -0.010341215 -0.060111172 -0.064406924
0.08956821 0.058164597 0.03873194 0.09219536 -0.0061985734 0.058737792 0.060845476 -0.000532963
-0.042470433 -0.015224309 0.051555667 0.010184809 -0.07589314 -0.06301758 0.05450203 0.03564721
-0.04033134 0.048499897 0.04476785 0.02363044 -0.086515024 -0.006371188 -0.011533351 -0.05904261
0.037277956 -0.04985704 -0.07242187 -0.017534485 -0.07944381 0.07142592 0.07821096 -0.035689335
00000000: 71a6 f0bc cf46 78bd 4887 ba3d 4674 51bc
00000010: fc51 033d 8d48 2d3d 5390 71bd f3ec bb3c
00000020: 8861 3c3d eb20 633d 13b4 16bd 11cc ab3d
00000030: f0e4 80bd 3149 b7bd 9635 c3bb 29ed 2a3d
00000040: 95fa 9b3d 533f b43d 45cf 853d 2404 923d
00000050: 2c64 103d 5965 8c3c 7c5c 12bd a000 bcbc
00000060: ab25 bdbd 1482 f13c 89ad 90bd 5aad 5b3d
00000070: f30e 56bd eaa1 5eba 804b adbb 340f c2bc
00000080: 8f58 a0bd 82ca ab3d d3ce 57bc f769 313c
00000090: 9598 3f3d 72d8 a9bb adbe 383d cc96 be3c
000000a0: e720 40bd 437b 7e3d abc9 8b3d 51ac 9d3d
000000b0: 55f7 513d 7b45 643d d871 903d fdf6 123b
000000c0: 589f e43c a4c0 75bb 2574 443d 99c8 51bc
000000d0: 57d2 c23c 8ea8 2cbd eacb 69bd 605b a93b
000000e0: b931 b33d 9815 ce3b 4d90 8e3d 877c 9e3d
000000f0: bb47 8ebd 4157 963d 75b0 a0bd a778 523b
00000100: c0c2 79bd 7fa2 8e3d 2c60 803d 9d1d ea3b
00000110: 0eed 973d 001b 343d 45b7 99bc 946e 98bd
00000120: d0d4 723d 94ed 25bd 2f39 76bd 84f6 893d
00000130: 2a4b 943d c024 b8bd a945 7bbd 8ba2 9abb
00000140: f613 953c 7456 9e3d 0a31 eb3c 2e38 08bd
00000150: 2947 633d 9e0e 063d df09 b0bd 1093 66bc
00000160: ae52 503d 5340 f8bc 0ecc 8dbd 2d51 a5bd
00000170: dcfe eaba 336e 29bc 2237 76bd c7e7 83bd
00000180: 8a6f b73d 003e 6e3d 62a5 1e3d ecd0 bc3d
00000190: 671d cbbb 0a97 703d 1b39 793d 8bb6 0bba
000001a0: 7af5 2dbd 616f 79bc 092c 533d 2fde 263c
000001b0: dd6d 9bbd 5c0f 81bd 853d 5f3d cf02 123d
000001c0: 7a32 25bd d4a7 463d 7e5e 373d a094 c13c
000001d0: ca2e b1bd 66c5 d0bb 61f6 3cbc aad6 71bd
000001e0: c5b0 183d e536 4cbd eb51 94bd 7ba4 8fbc
000001f0: 70b3 a2bd c147 923d 112d a03d fb2e 12bd

net.4.weight f4 [3, 128]
-0.1906431 -0.13662146 0.296648 -0.1062265 -0.019859506 -0.13044848 0.049877413 -0.14138883
0.08024438 0.012967557 -0.16327555 0.14315154 0.12542833 -0.17095584 0.01520543 -0.15747744
0.08618697 0.002653693 -0.10233061 0.10766319 0.109663896 0.052532636 -0.15439315 -0.1005186
-0.19245915 0.15987863 0.295862 -0.12372748 0.25049204 0.1165774 0.21656536 -0.16029535
-0.13943186 0.14587294 -0.0651477 -0.11513009 -0.16078874 -0.058347367 0.11735293 0.07031625
-0.012292072 0.09501403 -0.15197363 0.15334755 0.118792884 -0.20698375 -0.14479959 -0.10821879
0.2345013 -0.2785863 -0.009315966 -0.17395432 -0.16523397 0.2713099 0.1403205 0.104156636
0.21000023 -0.0016631894 0.07481611 0.042488135 0.12426725 0.12786824 -0.12395925 -0.093385674
0.067215756 -0.04942336 0.08897211 -0.08163475 0.11401899 -0.17908709 -0.13614938 0.05736066
-0.017546635 0.075607665 0.15700305 -0.23593496 0.023415193 0.14815257 0.04813131 0.07346918
-0.019397119 -0.109779105 0.08720031 -0.20282656 0.06377768 0.23394403 -0.21930131 0.08633331
0.08987695 -0.15949295 0.13447039 -0.118644156 0.16646656 0.16421372 0.1152631 0.020364698
0.16856056 0.076211914 -0.053782374 0.03288322 0.1569452 -0.0665118 -0.20618786 -0.1667995
-0.26421753 -0.13494368 -0.10449503 0.09182967 0.09310676 0.027060168 0.117453806 0.1080683
0.10466168 0.06626876 0.21636274 -0.08737758 -0.18539508 0.10295047 0.0006651464 -0.21956503
-0.076188006 0.021687435 -0.24683824 -0.0074779456 -0.15425867 0.05369157 0.14093253 -0.14437409
0.1543899 -0.055529844 0.0971108 -0.0998189 0.101346776 -0.23993656 -0.059307348 -0.12274154
-0.11395664 0.085268885 -0.051485527 -0.070482895 -0.00984285 0.09779263 0.108016685 0.112785235
-0.058771174 0.18064216 -0.016393382 0.08966728 0.1029002 0.06520197 0.030643042 0.093369395
-0.21933138 -0.045140453 0.0018619517 -0.13581254 0.100723214 -0.066847235 0.1470683 0.04559699
-0.02638539 -0.048248842 -0.18698826 -0.15487167 0.16886798 0.124372 0.07241021 0.0024666411
-0.0700707 -0.1040899 -0.10276317 0.25859818 -0.16146654 -0.051420346 -0.0023438092 -0.054819636
-0.003061997 -0.07949577 0.17502236 -0.09282804 -0.07572771 0.2018305 0.065300375 -0.12867543
-0.024772607 0.18118086 0.1388826 -0.037311636 -0.0047649695 0.09872269 0.09374348 0.039627276
0.3207283 -0.036442563 -0.0701028 0.20224759 -0.11245455 -0.21477428 0.13690193 0.17253588
-0.13955784 0.1880598 -0.11913721 -0.049578372 -0.020185124 0.06552765 -0.037675668 -0.16998425
0.08796653 0.16548619 -0.112255864 0.0020646516 0.15331766 0.1159438 -0.0979087 0.01904532
0.00405874 0.1979068 0.19682483 0.018770983 -0.019312415 0.031480674 0.099678315 0.06844827
-0.093117826 -0.005642898 -0.123024985 0.0013115776 0.13303685 -0.073986925 -0.19269443 0.094642475
0.121652976 -0.08750955 0.15380834 0.18590721 0.06433525 -0.07707688 -0.08036455 -0.020900045
-0.046700694 0.11628818 -0.0728809 -0.09648811 -0.06410064 -0.06890373 0.2588298 -0.2611124
-0.1993016 -0.015455957 -0.018603802 -0.055752933 0.09286356 0.28458 0.044192497 0.057133928
00000000: f237 43be 7fe6 0bbe 3fe2 973e 478d d9bd
00000010: 67b0 a2bc 4994 05be 424c 4c3d 3cc8 10be
00000020: 2a57 a43d e075 543c b531 27be 5196 123e
00000030: 4970 003e 0c0f 2fbe 3220 793c c441 21be
00000040: cb82 b03d 95e9 2d3b b692 d1bd 857e dc3d
00000050: 7797 e03d 762c 573d 3d19 1ebe b2dc cdbd
00000060: 0314 45be 39b7 233e 397b 973e d564 fdbd
00000070: 7e40 803e 22c0 ee3d 4fc3 5d3e 7724 24be
00000080: 3ac7 0ebe b75f 153e 286c 85bd 53c9 ebbd
00000090: cea5 24be a6fd 6ebd bc56 f03d f701 903d
000000a0: b064 49bc b796 c23d fa9e 1bbe 2407 1d3e
000000b0: af49 f33d 8cf3 53be 5846 14be d0a1 ddbd
000000c0: 1c21 703e dda2 8ebe fea1 18bc 1521 32be
000000d0: 1833 29be 22e9 8a3e 2db0 0f3e 1350 d53d
000000e0: 4d0a 573e 60ff d9ba 3039 993d 0a08 2e3d
000000f0: d47f fe3d e4ef 023e 59de fdbd fd40 bfbd
00000100: 6aa8 893d 2670 4abd 0237 b63d 1f30 a7bd
00000110: ca82 e93d 9b62 37be be6a 0bbe 03f3 6a3d
00000120: f6bd 8fbc 31d8 9a3d 68c5 203e ef98 71be
00000130: 38d1 bf3c 4fb5 173e 5625 453d 0277 963d
00000140: b5e6 9ebc ded3 e0bd 1396 b23d c4b1 4fbe
00000150: df9d 823d 068f 6f3e 8690 60be 85cf b03d
00000160: 6811 b83d 1f52 23be 9bb2 093e b5fb f2bd
00000170: 3676 2a3e a427 283e 0f0f ec3d ded3 a63c
00000180: 249b 2c3e fe14 9c3d e84a 5cbd 8eb0 063d
00000190: 3eb6 203e 5737 88bd e922 53be 7dcd 2abe
000001a0: 8547 87be ad2e 0abe 7e01 d6bd 3211 bc3d
000001b0: c2ae be3d 49ad dd3c 9f8b f03d ea52 dd3d
000001c0: dd58 d63d eab7 873d 328e 5d3e 04f3 b2bd
000001d0: 35d8 3dbe b2d7 d23d 385d 2e3a a8d5 60be
000001e0: 7508 9cbd d9a9 b13c 2ac3 7cbe 8e09 f5bb
000001f0: fcf5 1dbe b1eb 5b3d 9e50 103e cdd6 13be
00000200: 6318 1e3e 4373 63bd 07e2 c63d da6d ccbd
00000210: e68e cf3d eeb1 75be 43ec 72bd eb5f fbbd
00000220: 1962 e9bd 74a1 ae3d 7de2 52bd 5659 90bd
00000230: e843 21bc 8147 c83d da37 dd3d f2fb e63d
00000240: 0bba 70bd 42fa 383e 6a4b 86bc 7ba3 b73d
00000250: 57bd d23d 9c88 853d 1e07 fb3c 7438 bf3d
00000260: 6898 60be 32e5 38bd bb0c f43a 7112 0bbe
00000270: f947 ce3d 34e7 88bd 1399 163e e9c3 3a3d
00000280: 2c26 d8bc 94a0 45bd da79 3fbe ae96 1ebe
00000290: baeb 2c3e bfb6 fe3d ce4b 943d 5fa7 213b
000002a0: 3a81 8fbd 162d d5bd 7f75 d2bd fb66 843e
000002b0: 7c57 25be 249e 52bd 989a 19bb 8e8a 60bd
000002c0: c9ab 48bb aece a2bd 1039 333e a11c bebd
000002d0: 2117 9bbd a8ac 4e3e 34bc 853d 7ec3 03be
000002e0: ecef cabc 7a87 393e 3e37 0e3e 16d4 18bd
000002f0: 7623 9cbb 1f2f ca3d 95fc bf3d 3650 223d
00000300: 8036 a43e cc44 15bd 0f92 8fbd fe19 4f3e
00000310: 924e e6bd caed 5bbe 0530 0c3e 3fad 303e
00000320: 40e8 0ebe c092 403e 36fe f3bd b112 4bbd
00000330: 465b a5bc 5c33 863d cd51 1abd 5a10 2ebe
00000340: cc27 b43d 3675 293e 67e6 e5bd 1b4f 073b
00000350: 4eff 1c3e f173 ed3d 5b84 c8bd ee04 9c3c
00000360: 2eff 843b 15a8 4a3e 738c 493e 9bc5 993c
00000370: 1235 9ebc e1f1 003d 2524 cc3d 9b2e 8c3d
00000380: 8fb4 bebd 0fe8 b8bb 86f4 fbbd 3ee9 ab3a
00000390: d03a 083e 7586 97bd b051 45be ead3 c13d
000003a0: 3225 f93d 3538 b3bd ef7f 1d3e 765e 3e3e
000003b0: 33c2 833d 7cda 9dbd 2b96 a4bd 9236 abbc
000003c0: 3a49 3fbd 7f28 ee3d 9542 95bd 8f9b c5bd
000003d0: 3247 83bd 661d 8dbd 5785 843e 86b0 85be
000003e0: b815 4cbe fb3a 7dbc 0067 98bc 305d 64bd
000003f0: 402f be3d 78b4 913e 3103 353d 4405 6a3d

net.4.bias f4 [3]
0.013990143 0.0040913187 0.025142523
00000000: ea36 653c 7810 863b b1f7 cd3c

net.0.weight f4 [128, 18]
0.06631307 -0.029969525 0.050512288 -0.014171541 -0.082764976 0.23500614 0.07974454 -0.07169216
0.009092149 -0.017926179 -0.059967715 0.2152906 -0.3052466 -0.14469385 -0.05303675 -0.1458202
-0.006358611 -0.04936902 -0.07468719 -0.095623605 -0.007698797 -0.13309078 6.625485e-05 -0.17182635
-0.15865514 0.047713578 -0.03603515 0.12931198 -0.14864926 -0.14321364 0.0504268 -0.10328567
-0.07176662 0.1899126 -0.09785619 -0.11363498 -0.148236 0.20265622 0.02204225 0.17487879
0.1521196 -0.15934049 0.105803944 0.15297885 -0.010174398 0.06815578 0.22183426 -0.006372435
-0.17728795 -0.03134802 -0.0028524252 0.21823202 -0.0039048775 0.032488223 -0.18981208 0.029637044
-0.07050435 0.110307716 0.0002888183 -0.11614643 0.09121187 -0.1940464 -0.06737996 -0.19637507
0.06699573 -0.06717241 -0.1216193 -0.15089159 0.020790758 -0.06594037 -0.09257808 0.03365148
-0.21994635 -0.09358547 -0.092192434 0.10620472 -0.10001172 -0.13074327 0.11105032 -0.19870754
0.004374888 0.16230713 0.08455077 0.21079662 0.13454491 -0.14293909 0.022580605 0.22513382
-0.22987933 0.036720216 0.2255438 -0.13946569 0.06530486 0.00486591 -0.09918573 -0.17718066
-0.060639534 0.12260726 0.008558847 -0.12193839 0.16660585 0.102804564 0.045677472 0.08972911
-0.080697306 -0.18520138 0.05909685 0.16915424 0.24900056 0.015065643 0.0061193407 0.12918577
0.18378113 -0.1845948 0.026011629 0.11002257 -0.031343177 0.11634447 -0.16975756 0.10528735
-0.02250931 -0.17372161 0.00836885 0.04209734 0.22329816 -0.0598678 -0.026231851 0.10278207
0.036177464 -0.16392073 -0.14187545 -0.23360793 -0.08860887 -0.10178688 -0.024511507 0.1831004
0.21429937 -0.09999792 0.17339234 0.1289347 0.07716737 0.08136163 0.13489579 -0.06662534
0.14420784 -0.1240505 0.00044696374 0.094277725 -0.17780934 -0.1407023 0.04411128 0.19235778
-0.041697867 -0.1698484 0.02591843 -0.21722436 0.12900472 0.12795289 0.022246651 -0.09661457
0.11075265 0.113381006 -0.13495547 -0.20347781 0.05028295 -0.0043888073 0.092868924 -0.09173669
-0.2747923 0.071754806 0.032001346 -0.22986034 0.08883412 0.07788297 -0.086162366 -0.15698119
-0.070041284 -0.23304422 0.12571564 -0.1263166 -0.09927632 -0.10051386 0.003059788 -0.023675824
0.23289564 -0.15283437 0.007626492 0.004657086 -0.010143813 -0.17525809 0.0353063 0.0062228697
-0.009937947 0.02754565 0.060890768 -0.030010412 -0.07681336 -0.22183226 -0.010050689 0.1351441
-0.056320995 0.19891346 -0.23091093 -0.19014472 -0.14942461 0.19191372 -0.0014812894 -0.097633034
-0.1506582 -0.037585266 0.06604012 -0.120949335 -0.031981815 0.03193113 -0.16261886 0.20375636
-0.054000013 -0.1868999 0.0058806613 0.1597095 -0.15996115 0.2335845 0.04367507 0.15174142
-0.030482959 0.114122 -0.16927287 -0.23235393 -0.05045326 -0.2012698 -0.082319245 -0.11306215
0.19070345 0.1392133 0.10735493 0.20099708 0.06848153 0.07589681 0.1010496 0.1537083
0.13328354 -0.05239952 -0.05598733 -0.1074301 -0.09282624 0.015326112 -0.1300207 -0.095323
0.08097432 0.14066823 -0.10930791 -0.05416463 -0.03845802 -0.103717044 0.025800277 0.11162809
00000000: 26cf 873d a682 f5bc f9e5 4e3d c02f 68bc
00000010: af80 a9bd 73a5 703e 1b51 a33d 57d3 92bd
00000020: 3df7 143c ecd9 92bc b5a0 75bd 2475 5c3e
00000030: 4849 9cbe a02a 14be 103d 59bd e451 15be
00000040: e55b d0bb 2b37 4abd 99f5 98bd 4fd6 c3bd
00000050: 3146 fcbb f348 08be 4df2 8a38 3ff3 2fbe
00000060: 7e76 22be 506f 433d 9899 13bd 5c6a 043e
00000070: 8337 18be 99a6 12be 558c 4e3d 7087 d3bd
00000080: 61fa 92bd 7378 423e d368 c8bd 75b9 e8bd
00000090: 2ecb 17be 1d85 4f3e f391 b43c 6d13 333e
000000a0: 3ec5 1b3e 272a 23be bdaf d83d 7da6 1c3e
000000b0: 85b2 26bc 4295 8b3d 8528 633e dccf d0bb
000000c0: f98a 35be c866 00bd c1ef 3abb 3778 5f3e
000000d0: f9e8 7fbb 5f12 053d 195e 42be 63c9 f23c
000000e0: 9664 90bd 03e9 e13d 896c 9739 2ede edbd
000000f0: 4acd ba3d 19b4 46be 81fe 89bd 8c16 49be
00000100: 0f35 893d b091 89bd 8a13 f9bd 5383 1abe
00000110: 6151 aa3c bf0b 87bd 9499 bdbd 22d6 093d
00000120: 9e39 61be bda9 bfbd 63cf bcbd dc81 d93d
00000130: f2d2 ccbd 90e1 05be 5a6e e33d fd79 4bbe
00000140: 385b 8f3b d733 263e f428 ad3d 12db 573e
00000150: 24c6 093e a05e 12be f6fa b83c 7b89 663e
00000160: 7d65 6bbe f067 163d f4f4 663e 18d0 0ebe
00000170: 8ebe 853d 3672 9f3b e321 cbbd d96e 35be
00000180: 2961 78bd 8419 fb3d 683a 0c3c d6ba f9bd
00000190: b99a 2a3e 338b d23d 4d18 3b3d e5c3 b73d
000001a0: a144 a5bd 6ea5 3dbe 8a0f 723d c536 2d3e
000001b0: 01fa 7e3e e3d5 763c c084 c83b 4649 043e
000001c0: 1f31 3c3e 6b06 3dbe 5716 d53c 8353 e13d
000001d0: b461 00bd 0246 ee3d edd4 2dbe e5a0 d73d
000001e0: 7265 b8bc 14e4 31be 801d 093c 436e 2c3d
000001f0: 46a8 643e f037 75bd 2ee4 d6bc 687f d23d
00000200: d22e 143d d6da 27be cc47 11be eb36 6fbe
00000210: 9178 b5bd a475 d0bd 5bcc c8bc ac7e 3b3e
00000220: 4b71 5b3e b6cb ccbd c38d 313e 7507 043e
00000230: ed09 9e3d eda0 a63d 1f22 0a3e de72 88bd
00000240: 38ab 133e 300e febd 7556 ea39 ae14 c13d
00000250: a713 36be 4414 10be 08ae 343d 70f9 443e
00000260: 62cb 2abd bdec 2dbe e352 d43c 1070 5ebe
00000270: d019 043e 1506 033e 9c3e b63c dcdd c5bd
00000280: 49d2 e23d 4d34 e83d c431 0abe 7d5c 50be
00000290: 7ff5 4d3d fccf 8fbb 1032 be3d 72e0 bbbd
000002a0: 94b1 8cbe 2ff4 923d d813 033d 8260 6bbe
000002b0: aaee b53d 1b81 9f3d e575 b0bd adbf 20be
000002c0: ce71 8fbd 25a3 6ebe 9abb 003e 2459 01be
000002d0: 6251 cbbd 36da cdbd b986 483b cdf3 c1bc
000002e0: 327c 6e3e 9d80 1cbe a7e7 f93b 789a 983b
000002f0: 3c32 26bc db76 33be 579d 103d 37e9 cb3b
00000300: c5d2 22bc 6aa7 e13c 9968 793d 65d8 f5bc
00000310: 5350 9dbd ff27 63be a5ab 24bc 3763 0a3e
00000320: d8b0 66bd f8af 4b3e ea73 6cbe 4cb5 42be
00000330: c402 19be 0885 443e d327 c2ba d4f3 c7bd
00000340: 2546 1abe 02f3 19bd 0b40 873d 49b4 f7bd
00000350: 5dff 02bd 37ca 023d 8f85 26be 82a5 503e
00000360: 1e2f 5dbd b062 3fbe 90b2 c03b e38a 233e
00000370: dbcc 23be c630 6f3e a1e4 323d 1a62 1b3e
00000380: 66b7 f9bc ccb8 e93d de55 2dbe 30ee 6dbe
00000390: 14a8 4ebd ac19 4ebe fe96 a8bd 218d e7bd
000003a0: c447 433e ee8d 0e3e e7dc db3d 2ed2 4d3e
000003b0: 0b40 8c3d c96f 9b3d 18f3 ce3d b565 1d3e
000003c0: 7b7b 083e e1a0 56bd f852 65bd 5004 dcbd
000003d0: af1b bebd 5f1a 7b3c 2524 05be b438 c3bd
000003e0: ddd5 a53d 550b 103e d3dc dfbd bbdb 5dbd
000003f0: 2886 1dbd 9a69 d4bd 1a5b d33c 459d e43d

net.0.bias f4 [128]
-0.33463603 0.3676769 -0.25829753 -0.3164727 -0.2629455 0.34888604 0.38112164 0.4100397
0.34836504 -0.24075077 0.29675353 0.2896921 -0.2522172 -0.28363493 -0.28021643 0.40855676
0.35843492 0.31944928 -0.42325532 -0.35290948 0.3422616 -0.37162688 -0.29086712 -0.4094962
-0.3546386 -0.38332412 0.3142273 0.33296227 0.34684113 -0.36656588 0.3724916 0.272761
-0.35452715 -0.4045404 0.27566275 -0.30191678 0.33677578 0.37338844 -0.40016043 -0.32073748
-0.2848698 -0.25107306 0.41246846 0.39903557 -0.33086053 -0.35054976 -0.25209534 0.3965113
0.4050263 0.27787098 0.35477012 -0.33981416 -0.24204554 -0.3274033 -0.36256418 0.42366755
-0.41415665 0.31776255 0.36868593 -0.3075908 -0.28593972 -0.36232895 0.40275925 0.27840117
-0.2879872 -0.2635693 0.30700743 -0.26870114 -0.40486327 0.32209557 0.4227825 -0.33966768
-0.28611308 -0.3347896 0.40164757 0.39816266 -0.33137348 0.29469365 -0.26904348 -0.2740862
-0.37414113 0.3924837 -0.2953035 0.28936994 0.3030316 0.39374068 0.28529295 -0.31517127
-0.41232184 -0.29428732 -0.31995356 -0.32032543 0.42778572 -0.38199836 0.22295077 -0.29214916
-0.37025318 0.25678942 -0.3973271 0.31963214 0.3125551 0.35167506 -0.3419186 -0.2760065
-0.34331736 0.34151238 -0.3029539 -0.2881165 -0.38118735 0.28197262 -0.3851529 -0.37463972
-0.3442003 -0.36900973 0.29563397 -0.4023571 0.3881437 0.24274625 0.40619376 0.32083723
0.29414812 -0.42486233 -0.328762 0.32943714 0.3760249 0.29425222 -0.38818714 -0.303058
00000000: 6a55 abbe 2640 bc3e 933f 84be b608 a2be
00000010: cba0 86be 31a1 b23e 6022 c33e b9f0 d13e
00000020: e75c b23e 5f87 76be 14f0 973e 8652 943e
00000030: 9d22 81be 9938 91be 8778 8fbe 5a2e d13e
00000040: c884 b73e db8e a33e ecb4 d8be 8db0 b4be
00000050: ea3c af3e e145 bebe 89ec 94be 7ca9 d1be
00000060: 3193 b5be 0f43 c4be 67e2 a03e 087a aa3e
00000070: 2995 b13e 86ae bbbe 38b7 be3e 54a7 8b3e
00000080: 9584 b5be eb1f cfbe ab23 8d3e d694 9abe
00000090: e06d ac3e c52c bf3e d4e1 ccbe b437 a4be
000000a0: 74da 91be a68c 80be 112f d33e 644e cc3e
000000b0: 8d66 a9be 427b b3be a412 81be 8703 cb3e
000000c0: 9b5f cf3e 1b45 8e3e 6ea4 b53e 1ffc adbe
000000d0: c9da 77be 68a1 a7be 03a2 b9be f4ea d83e
000000e0: 570c d4be c6b1 a23e 67c4 bc3e 8b7c 9dbe
000000f0: b166 92be 2e83 b9be 7636 ce3e 998a 8e3e
00000100: 0f73 93be 8ef2 86be 1430 9d3e 3293 89be
00000110: 3d4a cfbe b6e9 a43e f376 d83e ece8 adbe
00000120: 6a7d 92be 8b69 abbe c0a4 cd3e fadb cb3e
00000130: c9a9 a9be 16e2 963e 11c0 89be 0755 8cbe
00000140: 6d8f bfbe a0f3 c83e 0532 97be 4c28 943e
00000150: f526 9b3e 6198 c93e eb11 923e 215e a1be
00000160: d91b d3be d4ac 96be f4d0 a3be b201 a4be
00000170: bb06 db3e 4a95 c3be 354d 643e 9394 95be
00000180: d391 bdbe e779 833e 756e cbbe d3a6 a33e
00000190: 3907 a03e c10e b43e f40f afbe b950 8dbe
000001a0: 4bc7 afbe b6da ae3e c61c 9bbe 0284 93be
000001b0: fd2a c3be b75e 903e c332 c5be c7d0 bfbe
000001c0: 063b b0be d8ee bcbe 565d 973e c001 cebe
000001d0: c5ba c63e 7992 783e a1f8 cf3e c744 a43e
000001e0: 959a 963e 8e87 d9be 7e53 a8be fcab a83e
000001f0: 5686 c03e 3aa8 963e 77c0 c6be 6b2a 9bbe

net.2.weight f4 [128, 128]
0.036265112 -0.12257419 0.28100696 0.14372918 0.07861409 -0.02066306 -0.109772 -0.117712036
-0.072210535 0.16974548 -0.0827169 -0.15766999 0.080471046 0.13469803 0.13125558 -0.0143041
-0.10649192 -0.17940968 0.089900926 0.025684755 -0.08828229 0.1524994 0.21429308 0.16369954
0.03829234 0.07281017 -0.14953901 -0.049608395 -0.13172609 0.038315527 -0.022272276 -0.2084357
0.17737685 0.021555943 -0.20176336 0.10277372 -0.08471437 -0.18260469 0.0115697235 0.0927677
0.29298 0.15720923 -0.0164956 -0.13395603 0.2166098 0.074932225 0.15187873 -0.036128275
-0.09933895 -0.081032366 -0.009078412 0.1690444 0.28495806 0.12228482 0.16669519 -0.1319408
0.10873441 -0.13241866 -0.08276145 0.19222441 0.26915845 0.18100788 -0.13092975 -0.23334993
0.21903399 0.19816229 -0.14745316 0.16638717 0.16957164 -0.1553015 -0.042708192 0.14474753
0.17565186 0.12832932 -0.043827865 -0.08073491 0.062721364 -0.15724812 0.10083053 0.18146646
0.18403192 -0.036940146 0.07268903 -0.06939583 -0.1177058 -0.091304496 -0.17573316 0.048349995
0.06832585 0.2759733 0.14692423 0.22582282 -0.14730264 0.08234606 -0.26971582 0.22150372
0.05004083 -0.21528283 0.16750856 -0.1132935 -0.13228309 -0.18345405 0.19344127 0.26050386
0.15820315 -0.174802 0.17678405 0.06799629 0.033994354 -0.085850954 0.014530243 0.12372837
0.13177662 0.15814924 -0.20473358 0.14021797 -0.18230277 -0.09964355 -0.10525032 -0.055746667
-0.16944277 0.16938798 0.15185189 -0.06968491 -0.10738043 -0.14232917 0.14842306 0.078650266
-0.16074963 0.20095642 -0.29161426 -0.20333397 -0.10655719 0.05755677 0.12387269 0.11837133
0.13624303 -0.2613166 0.22412701 0.120741114 -0.12675835 -0.23590046 -0.14674102 0.18107763
0.17098019 0.21674666 -0.14210886 -0.14814799 0.17390946 -0.15605687 -0.16650079 -0.09271714
-0.17059308 -0.07716962 0.13487482 0.08140679 0.09451969 -0.12211515 0.061949886 0.27974877
-0.18155463 -0.18906982 0.15114772 -0.15880568 0.08984028 0.1121468 -0.18973617 -0.21532314
-0.24086253 -0.2597193 0.16019301 0.20539698 -0.164454 -0.049174786 -0.13040195 0.15066978
0.044334017 0.17538945 0.12781817 -0.18669972 -0.16968839 -0.049623284 -0.13470249 0.05713237
-0.07834637 0.16554935 0.062419977 -0.16361384 -0.20441696 -0.047783535 0.116860025 0.28392422
-0.23984338 -0.14183524 0.21993409 -0.16528761 -0.041203335 0.20303442 0.04428524 -0.12336688
-0.18092182 -0.14159903 0.07968412 0.049066383 -0.054075 0.19960503 -0.1915021 -0.20430718
-0.1302388 0.036698107 -0.12530622 0.14857721 0.1030203 0.21395229 0.14728934 -0.16852413
-0.07306344 -0.28978834 -0.16739215 -0.2506042 0.06550139 -0.06744827 0.19403785 -0.18977083
-0.06597158 0.15109272 -0.16013832 0.18344106 0.1611255 0.19283663 -0.06896719 -0.18528676
-0.183702 0.19584313 -0.10696875 -0.19513981 -0.07267951 0.24611151 -0.18158709 -0.1832528
-0.13138145 -0.088924706 0.123734124 -0.112250865 0.085749775 0.08062466 0.09654488 0.06066892
0.14840361 -0.19700985 -0.16481933 0.16538349 0.15456955 0.11513263 -0.15793918 -0.19083393
00000000: ba8a 143d 2d08 fbbd 25e0 8f3e be2d 133e
00000010: 6d00 a13d 9445 a9bc 24d0 e0bd 0213 f1bd
00000020: 1ee3 93bd c2d1 2d3e 7a67 a9bd 3e74 21be
00000030: 01ce a43d 48ee 093e dd67 063e be5b 6abc
00000040: 7018 dabd 2cb7 37be fa1d b83d d668 d23c
00000050: 58cd b4bd cd28 1c3e a56f 5b3e daa0 273e
00000060: 6ed8 1c3d 801d 953d c120 19be 2c32 4bbd
00000070: 34e3 06be bef0 1c3d 5974 b6bc 2b70 55be
00000080: 47a2 353e 1796 b03c 0e9b 4ebe 077b d23d
00000090: ba7e adbd b9fc 3abe f08e 3d3c fefc bd3d
000000a0: 7901 963e 75fb 203e c821 87bc c52b 09be
000000b0: f6ce 5d3e 1176 993d 1986 1b3e 3efb 13bd
000000c0: 3872 cbbd 4cf4 a5bd 9fbd 14bc fa19 2d3e
000000d0: 06e6 913e 7770 fa3d 25b2 2a3e 7d1b 07be
000000e0: 25b0 de3d c298 07be d67e a9bd 7ad6 443e
000000f0: 23cf 893e 215a 393e 7312 06be 49f3 6ebe
00000100: 724a 603e 0eeb 4a3e f6fd 16be 6661 2a3e
00000110: 30a4 2d3e 5b07 1fbe c9ee 2ebd b238 143e
00000120: 15de 333e c368 033e d984 33bd 5858 a5bd
00000130: 0f74 803d a705 21be 3d80 ce3d 58d2 393e
00000140: dd72 3c3e 8d4e 17bd fcdd 943d 671f 8ebd
00000150: bd0f f1bd dafd babd 65f3 33be a50a 463d
00000160: 6cee 8b3d 5f4c 8d3e 4e73 163e 193e 673e
00000170: 81d6 16be 0da5 a83d 3118 8abe dfd1 623e
00000180: 9df7 4c3d 1a73 5cbe 5d87 2b3e 6c06 e8bd
00000190: 3875 07be 61db 3bbe 7815 463e c360 853e
000001a0: 0200 223e 4cff 32be e106 353e a441 8b3d
000001b0: aa3d 0b3d a0d2 afbd 4210 6e3c 4d65 fd3d
000001c0: 73f0 063e e0f1 213e aea5 51be 4d95 0f3e
000001d0: 94ad 3abe eb11 ccbd 7b8d d7bd 9e56 64bd
000001e0: 6882 2dbe 0b74 2d3e 107f 1b3e f6b6 8ebd
000001f0: 45ea dbbd bdbe 11be 37fc 173e 6413 a13d
00000200: 8d9b 24be 85c7 4d3e 774e 95be c836 50be
00000210: a83a dabd a6c0 6b3d f7b0 fd3d ab6c f23d
00000220: 4b83 0b3e 4acb 85be 8d81 653e 1e47 f73d
00000230: f1cc 01be e48f 71be 4743 16be 6a6c 393e
00000240: 6e15 2f3e d6f2 5d3e fc84 11be 1bb4 17be
00000250: 5215 323e 5fcd 1fbe 2f7f 2abe 7ce2 bdbd
00000260: f4af 2ebe 1b0b 9ebd a01c 0a3e 9ab8 a63d
00000270: 8a93 c13d 8217 fabd 2abf 7d3d 3b3b 8f3e
00000280: 75e9 39be 859b 41be 78c6 1a3e f59d 22be
00000290: 2efe b73d 39ad e53d 334a 42be ab7d 5cbe
000002a0: aba4 76be eef9 84be a309 243e 9653 523e
000002b0: a166 28be 806b 49bd 1788 05be 2e49 1a3e
000002c0: 9697 353d 4b99 333e c4e2 023e 362e 3fbe
000002d0: cbc2 2dbe c941 4bbd 73ef 09be a203 6a3d
000002e0: 1074 a0bd c585 293e 17ac 7f3d 638a 27be
000002f0: ae52 51be abb8 43bd 4f54 ef3d 845e 913e
00000300: 8199 75be 423d 11be 6736 613e 2841 29be
00000310: d4c4 28bd 41e8 4f3e 7164 353d c6a7 fcbd
00000320: 9243 39be 56ff 10be 6e31 a33d d5f9 483d
00000330: bf7d 5dbd 4365 4c3e 2019 44be e735 51be
00000340: 525d 05be c150 163d 4650 00be a024 183e
00000350: 4ffc d23d 4f16 5b3e 04d3 163e 9791 2cbe
00000360: 49a2 95bd 235f 94be d968 2bbe 324f 80be
00000370: 9825 863d 5222 8abd dcb1 463e 4953 42be
00000380: 1c1c 87bd 0db8 1a3e 4dfb 23be f9d7 3b3e
00000390: 15fe 243e f776 453e ac3e 8dbd d0bb 3dbe
000003a0: 611c 3cbe 1a8b 483e 6f12 dbbd bbd2 47be
000003b0: ffd8 94bd a804 7c3e f7f1 39be 9fa6 3bbe
000003c0: dc88 06be 281e b6bd 5168 fd3d c8e3 e5bd
000003d0: 949d af3d 8b1e a53d 52b9 c53d f97f 783d
000003e0: 1ef7 173e f3bc 49be 66c6 28be 4a5a 293e
000003f0: 7b47 1e3e a8ca eb3d cfba 21be f869 43be

net.2.bias f4 [128]
-0.04277005 0.05013954 0.011523476 0.17004544 0.008146067 0.08179202 -0.116857655 0.12741008
-0.03222998 -0.13408951 0.049602874 -0.11794074 -0.11896981 -0.0042270916 -0.13961469 0.024756208
-0.03771976 0.15795901 -0.15996924 -0.15186942 -0.037983593 -0.15292788 -0.15546645 -0.123179205
-0.0049818847 0.115515195 -0.13880336 0.1333862 -0.0033594568 0.111201145 0.07028815 0.12105869
-0.02549381 -0.13068981 -0.12634209 -0.14922455 -0.1060141 -0.01318227 -0.06292096 0.0045922906
-0.14550453 -0.11442029 0.04793613 0.12610558 -0.1259825 -0.11543348 -0.024265494 -0.028861826
0.017154898 -0.10320063 0.090306066 -0.16180818 -0.13847587 -0.06794334 -0.13223442 0.05082713
0.10095304 0.11708549 0.10717535 0.16888541 0.056994934 0.012248585 -0.0025332721 0.03972629
0.12093072 0.041996457 -0.07386564 -0.05006766 -0.023333877 0.15021035 0.0278133 0.017844873
0.11064236 -0.06282934 -0.04836961 0.0036122478 -0.0435449 0.09716154 -0.10758332 -0.08217028
0.038446292 0.04391524 -0.022784907 0.12645641 -0.12537698 0.15122092 -0.09325852 -0.13651022
-0.027842192 0.011631782 0.037525073 -0.15878126 -0.10507881 0.10943816 0.050521657 0.0057052253
0.028841956 -0.15707828 0.03162102 0.115817346 -0.16537435 -0.008820971 -0.10521285 0.12839372
0.1197546 0.14025763 0.09349639 -0.016225034 -0.07843579 0.12027528 0.06315073 0.10075068
0.05793284 0.015111488 -0.06596825 0.09847013 0.12937614 -0.13476293 -0.015308429 0.1756864
0.094514966 -0.1570381 -0.06508911 0.08718471 0.0847776 -0.07549412 -0.06670536 -0.03978357
00000000: a62f 2fbd 1e5f 4d3d f6cc 3c3c 6420 2e3e
00000010: 1577 053c 9382 a73d 1153 efbd ca77 023e
00000020: 9503 04bd c34e 09be 622c 4b3d ea8a f1bd
00000030: 72a6 f3bd 6a83 8abb 27f7 0ebe 88cd ca3c
00000040: 0980 1abd 02c0 213e face 23be a883 1bbe
00000050: af94 1bbd 2099 1cbe 9932 1fbe 6145 fcbd
00000060: 143f a3bb 3b93 ec3d 7822 0ebe 6496 083e
00000070: 552a 5cbb 6dbd e33d 3cf3 8f3d 9eed f73d
00000080: 65d8 d0bc 8dd3 05be d25f 01be 52ce 18be
00000090: ec1d d9bd 73fa 57bc b4dc 80bd ed7a 963b
000000a0: 24ff 14be 2f55 eabd ad58 443d d221 013e
000000b0: 8e01 01be 6368 ecbd 6ec8 c6bc a36f ecbc
000000c0: 6e88 8c3c da5a d3bd 63f2 b83d 0bb1 25be
000000d0: 9ecc 0dbe e125 8bbd 7668 07be 1c30 503d
000000e0: 78c0 ce3d 84ca ef3d c07e db3d 4cf0 2c3e
000000f0: 8573 693d 4aae 483c 4105 26bb 09b8 223d
00000100: 86aa f73d 7a04 2c3d de46 97bd bf13 4dbd
00000110: b026 bfbc bed0 193e b8d8 e33c 692f 923c
00000120: 7698 e23d abac 80bd 361f 46bd 76bb 6c3b
00000130: 235c 32bd a1fc c63d a554 dcbd e448 a8bd
00000140: dc79 1d3d 77e0 333d 6aa7 babc ca7d 013e
00000150: d362 00be a8d9 1a3e 53fe bebd 56c9 0bbe
00000160: 4f15 e4bc 3b93 3e3c e4b3 193d 8e97 22be
00000170: 8f33 d7bd 1d21 e03d ccef 4e3d e6f2 ba3b
00000180: f745 ec3c 21d9 20be 0b85 013d a531 ed3d
00000190: e557 29be d585 10bc d679 d7bd a579 033e
000001a0: e641 f53d b29f 0f3e 097b bf3d 5dea 84bc
000001b0: f2a2 a0bd e352 f63d 2c55 813d 5f56 ce3d
000001c0: fc4a 6d3d 2d96 773c 5d1a 87bd b5aa c93d
000001d0: 2e7b 043e 4bff 09be 34d0 7abc 23e7 333e
000001e0: 1091 c13d 98ce 20be 704d 85bd e68d b23d
000001f0: e19f ad3d a99c 9abd d29c 88bd 19f4 22bd

net.4.weight f4 [1, 128]
1.032328 -0.99050766 -1.0645686 -1.0521333 -0.9829857 -1.0634454 0.97309375 -1.025427
1.0215882 1.0528287 -1.0760504 1.048018 1.0234305 -1.0568732 0.97301656 -1.0335801
1.0627354 -0.9863832 0.9872893 1.0129173 1.0505377 0.9929889 0.98364717 0.97658104
1.0211885 -0.95738727 0.9901278 -1.0160795 -1.0368112 -0.9733276 -1.0097774 -1.0063555
1.0268037 1.0474626 0.99425083 0.9606248 1.014858 1.046382 1.0023304 1.0359688
1.0097805 0.9778481 -0.95458233 -0.989166 0.9659308 0.9629413 1.0427126 1.0208727
-1.0387502 1.0020927 -1.026463 1.0698055 1.0079035 1.0415964 1.0227551 -1.0289762
-0.95322216 -0.9835032 -0.980203 -0.92346525 -1.0499727 1.0853091 1.0817283 -0.990621
-1.0292338 -1.0002395 1.015551 1.040101 1.077457 -1.067523 -1.051197 -1.053422
-1.0093213 1.0148695 1.0688885 1.0107942 1.0511646 -1.0308135 1.0583274 1.0009872
-0.99638957 -0.99023604 1.0507668 -1.00526 0.9645301 -1.0005301 1.0329537 0.9949429
1.0201275 -0.98103267 -0.9902404 0.9989668 1.0364333 -1.030127 -1.0485101 1.084546
-1.043021 1.0439633 -1.0155858 -0.97688997 1.0356328 1.0400451 1.0408363 -0.99910605
-1.0754542 -1.0255911 -1.0422992 0.9950826 1.0240097 -1.0041269 -1.0769811 -1.029448
-1.0167613 -1.0240394 1.0157655 -1.0230212 -1.001447 1.0392915 1.022195 -0.98858994
-0.99041265 0.98410577 1.0637887 -1.0008354 -1.0399443 1.0827268 1.0597365 1.0728478
00000000: 5323 843f e991 7dbf c943 88bf 4eac 86bf
00000010: f3a4 7bbf fb1e 88bf ac1c 793f 3141 83bf
00000020: 67c3 823f 17c3 863f 05bc 89bf 7425 863f
00000030: c5ff 823f 9f47 87bf 9d17 793f 5a4c 84bf
00000040: b707 883f 9c83 7cbf febe 7c3f 46a7 813f
00000050: 0578 863f 8534 7e3f 4dd0 7b3f 3701 7a3f
00000060: 4eb6 823f 5517 75bf 0479 7d3f e50e 82bf
00000070: 3bb6 84bf ff2b 79bf 6340 81bf 42d0 80bf
00000080: 4e6e 833f 4113 863f 3987 7e3f 82eb 753f
00000090: dee6 813f d8ef 853f 5d4c 803f a09a 843f
000000a0: 7d40 813f 4154 7a3f 825f 74bf fc39 7dbf
000000b0: 3e47 773f 5283 763f 9b77 853f f5ab 823f
000000c0: c4f5 84bf 9344 803f 2463 83bf 63ef 883f
000000d0: fb02 813f 0853 853f a4e9 823f 7eb5 83bf
000000e0: 5e06 74bf dec6 7bbf 95ee 7abf 3868 6cbf
000000f0: 8165 86bf 69eb 8a3f 1376 8a3f 5699 7dbf
00000100: efbd 83bf d907 80bf 93fd 813f 0822 853f
00000110: 1cea 893f 98a4 88bf a08d 86bf 88d6 86bf
00000120: 7131 81bf 3ee7 813f 57d1 883f b461 813f
00000130: 908c 863f b2f1 83bf 4677 873f 5920 803f
00000140: 6313 7fbf 1c80 7dbf 877f 863f 5cac 80bf
00000150: 72eb 763f 5f11 80bf d437 843f 94b4 7e3f
00000160: 8a93 823f f524 7bbf 6580 7dbf 4abc 7f3f
00000170: d9a9 843f 34db 83bf 9435 86bf 67d2 8a3f
00000180: b681 85bf 97a0 853f b7fe 81bf 7615 7abf
00000190: 9e8f 843f 3320 853f 203a 853f 6ac5 7fbf
000001a0: 7ca8 89bf 9246 83bf 0f6a 85bf bcbd 7e3f
000001b0: c012 833f 3b87 80bf 84da 89bf f4c4 83bf
000001c0: 3c25 82bf b913 83bf 9b04 823f 5cf2 82bf
000001d0: 6a2f 80bf 8107 853f 49d7 823f 3b14 7dbf
000001e0: af8b 7dbf 5bee 7b3f 3a2a 883f 601b 80bf
000001f0: e51c 85bf cb96 8a3f 72a5 873f 1453 893f

log_std f4 [3]
-0.401113 -0.36691254 -0.3218313
00000000: af5e cdbe f6db bbbe 12c7 a4be
