runs/checkpoint_e020.pt (torch, 158519 bytes, 12 tensors)

net.0.weight f4 [128, 18]
0	0x3e83a3b3	0.2571083
1	0xbdef3a22	-0.1168101
2	0xbe22d376	-0.15900978
3	0xbe5b42ef	-0.21412252
4	0xba60929c	-0.00085667684
5	0xbc875266	-0.016518783
6	0x3da94ce6	0.0826662
7	0xbdaf2545	-0.085520305
8	0x3e113f91	0.14184405
9	0x3e6b8222	0.2299886
10	0x3d8e9118	0.06961268
11	0xbd7efec6	-0.06225469
12	0x3e7493f9	0.23884572
13	0x3d8bdc5a	0.06829138
14	0x3e0c3edb	0.13695852
15	0xbd8cfc0e	-0.06884013
16	0xbe3fd66c	-0.18734139
17	0x3decd4cf	0.115640275
18	0xbcb016da	-0.021495271
19	0x3e96afe3	0.29431066
20	0x3e1e7d8c	0.1547758
21	0x3d370675	0.044683892
22	0x3d1e5b67	0.038661387
23	0xbe368f28	-0.17828047
24	0x3e01f969	0.12692799
25	0x3e1d4cd1	0.15361334
26	0xbe52e0ff	-0.20593642
27	0xbdf06332	-0.1173767
28	0x3e6a30d2	0.22870186
29	0xbbf38301	-0.0074313884
30	0x3dcb5b06	0.09929471
31	0x3e0b0028	0.13574278
32	0xbe17e725	-0.14834268
33	0xbdc6fe91	-0.097165234
34	0x3e592e8c	0.21209162
35	0x3c87b2be	0.016564723
36	0xbdf5d50f	-0.12003528
37	0xbe2b161e	-0.16707656
38	0xbe2e2a7b	-0.17008393
39	0xbd8320b7	-0.06402724
40	0xbdab4276	-0.08362286
41	0x3de906f6	0.11378281
42	0xbe4cc043	-0.19995217
43	0x3e5f7309	0.21821226
44	0x3d5d86f0	0.054083765
45	0x3d2d5edb	0.04232679
46	0xbdb2777b	-0.08714195
47	0x3e5b7616	0.21431765
48	0x3e299302	0.16559985
49	0x3e5096cb	0.20370023
50	0x3d5c40ad	0.053772617
51	0xbe20e053	-0.15710573
52	0xbc53fa52	-0.012938099
53	0x3c0e6a6d	0.008692366
54	0x3e1f0077	0.15527521
55	0x3ea09e18	0.31370616
56	0xbdcfab67	-0.10140114
57	0x3e316bbd	0.17326255
58	0x3e010794	0.12600547
59	0xbd2351d7	-0.03987297
60	0x3cc8c31e	0.024507102
61	0x3ea394f8	0.31949592
62	0x3e3e121b	0.18561594
63	0x3d0a683d	0.033790816
64	0x3d371236	0.0446951
65	0xbd9a11b2	-0.07522906
66	0xbcfbd5cf	-0.0307416
67	0x3bb254d5	0.0054422417
68	0x3ce1633a	0.027513135
69	0xbe4f8ba6	-0.20268115
70	0xbe22842f	-0.15870737
71	0xbd01ab4e	-0.03165751
72	0xbdc74c92	-0.097314015
73	0x3d624041	0.05523706
74	0xbdbc0689	-0.09180934
75	0xbcae2724	-0.021258898
76	0x3e35a8fe	0.17740247
77	0xbe1bcd82	-0.15215114
78	0x3d206af4	0.0391645
79	0x3dbebdcb	0.09313544
80	0x3dacbb5a	0.08434172
81	0xbe24ff2a	-0.16112962
82	0x3ca6af6b	0.020347318
83	0x3e6fdfd6	0.2342523
84	0x3d97f1bc	0.07419154
85	0xbe225a99	-0.15854873
86	0xbe6c0e65	-0.23052366
87	0x3e279b34	0.16367799
88	0x3e69cd48	0.22832215
89	0x3e70a580	0.23500633
90	0x3d06bc3a	0.03289435
91	0xbd8f7194	-0.07004085
92	0xbe1fba22	-0.15598348
93	0xbe1a2cc3	-0.15056138
94	0xbd165888	-0.036705524
95	0x3dfce83b	0.12348982
96	0x3deb36e6	0.114850804
97	0x3e4ede3a	0.2020196
98	0x3e58d1a5	0.21173723
99	0xbd806bc8	-0.06270558
100	0x3e4de31d	0.20106168
101	0xbe1a2314	-0.15052444
102	0xbe5f3087	-0.21795855
103	0xbda5910b	-0.080843054
104	0xbdfeeabf	-0.12447118
105	0x3e26057e	0.16213033
106	0xbd803edd	-0.0626199
107	0x3e2e7311	0.17036082
108	0xbe7c6ef1	-0.24651696
109	0xbd504230	-0.05084437
110	0x3db455a2	0.08805396
111	0x3ba32c19	0.004979622
112	0xbd0d31a6	-0.034471177
113	0x3e09dcc8	0.13463128
114	0xbdfdaea2	-0.12386824
115	0x3be344a3	0.0069356724
116	0x3e042f04	0.1290856
117	0x3e698835	0.22805865
118	0x3d1b58ce	0.037926488
119	0xbe4d94e2	-0.20076326
120	0xb9bd08ab	-0.00036055347
121	0x3e69771e	0.22799346
122	0x3de196c9	0.11015088
123	0x3e183513	0.14863996
124	0x3e0cb8a7	0.13742314
125	0x3d68d85e	0.05684697
126	0x3d953fc3	0.07287552
127	0xbcfd891e	-0.030949172
128	0x3e1751f8	0.14777362
129	0xbe495e2d	-0.19664831
130	0xbe341869	-0.17587437
131	0x3dfab04a	0.12240656
132	0xbd3a444e	-0.045475297
133	0x3da26c53	0.079308175
134	0x3ddc8e48	0.107693255
135	0xbe35c9bd	-0.17752738
136	0xbdb67b24	-0.08910206
137	0x3e41560b	0.18880479
138	0x3e59b5c6	0.21260747
139	0xbda0b6ae	-0.078473434
140	0xbda760c9	-0.08172757
141	0x3e379834	0.17929155
142	0x3e115d4b	0.14195745
143	0xbc715555	-0.014729817
144	0x3ca19cbb	0.019728055
145	0xbcbdc6ab	-0.023166021
146	0x3e47f116	0.1952556
147	0x3e3d1862	0.18466333
148	0x3e10db3a	0.14146128
149	0xbc8fe5ca	-0.017565627
150	0x3e4dd501	0.20100786
151	0xbd0be30b	-0.034152072
152	0x3b83781e	0.004012122
153	0xbe010fab	-0.12603633
154	0xbe4b2be9	-0.19840969
155	0x3e42ad1a	0.19011346
156	0x3e083b3d	0.13303848
157	0x3d86ceb1	0.06582392
158	0xbd30bf2e	-0.043151073
159	0xbe0671b0	-0.13129306
160	0xbe6a7b06	-0.22898492
161	0x3c4032f7	0.011730901
162	0x3d918f11	0.07107366
163	0xbdb203aa	-0.08692105
164	0xbe2c365d	-0.16817613
165	0x3ccf5a63	0.025311654
166	0x3e6f17c6	0.23348913
167	0xbbf9385c	-0.0076055955
168	0x3dc081e1	0.093997724
169	0xbe898aed	-0.26863804
170	0x3e27e74f	0.16396831
171	0x3e183fb6	0.14868054
172	0x3decc30f	0.11560642
173	0x3e6e8bce	0.23295519
174	0x3e2d3f13	0.16918592
175	0x3e2784ac	0.16359204
176	0xbe18d3a5	-0.14924486
177	0xbe071c12	-0.13194302
178	0x3e2bf662	0.16793206
179	0x3d1cce65	0.03828277
180	0xbe3df622	-0.18550923
181	0x3eae9d83	0.34104547
182	0x3ced0de8	0.028937295
183	0x3e57f342	0.21088889
184	0xbe08e723	-0.13369422
185	0xbe2ac371	-0.16676117
186	0x3e739fdc	0.2379145
187	0xbc6667ee	-0.014062865
188	0xbc934b6a	-0.017980296
189	0xbe0625ac	-0.13100308
190	0x3e1f1f4a	0.1553928
191	0xbe019e5d	-0.12658067
192	0xbdc31d12	-0.09527029
193	0x3d4a66d8	0.049414486
194	0xbe3ed503	-0.18635945
195	0xbe3e75bf	-0.18599604
196	0xbe651100	-0.22369766
197	0xbe03b4d7	-0.12861954
198	0xbd8c8500	-0.06861305
199	0xbd57cbb4	-0.0526845
200	0x3e6c862f	0.23098062
201	0x3e355334	0.1770752
202	0x3e475343	0.19465356
203	0x3d783e7c	0.060606465
204	0xbe037aa6	-0.12839755
205	0xbe7eb0a8	-0.24872077
206	0xbd8be27e	-0.06830309
207	0xbe24b074	-0.16082937
208	0xbd1d6e6f	-0.038435396
209	0x3e0ddb04	0.13853079
210	0x3d856e70	0.06515205
211	0x3e4514b3	0.19246177
212	0xbd8f30fa	-0.069917634
213	0xbd2afc81	-0.041744713
214	0xbe269297	-0.16266857
215	0xbded81e7	-0.115970425
216	0x3e2a4a30	0.16629863
217	0x3e7b5296	0.24543223
218	0x3d12f339	0.035876486
219	0xbe44e38f	-0.19227432
220	0xbe3f2d5c	-0.18669647
221	0x3e4348c0	0.1907072
222	0xbcb2977e	-0.021800753
223	0x3dcdcef9	0.100492425
224	0xbd78a8a4	-0.060707703
225	0x3e3c2ee0	0.18377256
226	0xbe202107	-0.15637599
227	0xbe274515	-0.16334946
228	0xbcdb24c8	-0.026750937
229	0x3e698591	0.22804858
230	0xbd8a99a2	-0.067675844
231	0x3da0e3f8	0.078559816
232	0x3cb6f9c2	0.02233589
233	0xbcca4e81	-0.024695637
234	0x3dbb0f1d	0.09133742
235	0xbe80f099	-0.2518356
236	0x3e625078	0.22101009
237	0x3e164742	0.1467562
238	0x3e0c5908	0.13705838
239	0x3e302b10	0.17203927
240	0x3e162370	0.14661956
241	0x3e8db062	0.27673632
242	0x3e4ec4d4	0.20192271
243	0xbe052378	-0.13001812
244	0x3c721733	0.014776039
245	0xbd5bcd8e	-0.05366283
246	0xbe4245d3	-0.18971948
247	0x3e8f1a8c	0.2794994
248	0x3e5c090b	0.21487825
249	0x3e6ed2d5	0.23322614
250	0x3e3e0b5d	0.18559022
251	0x3d9e932d	0.07742915
252	0xbd5490da	-0.051895954
253	0x3e1f1e07	0.15538798
254	0xbd59aa42	-0.053140886
255	0x3cd2d81d	0.025737816

net.0.bias f4 [128]
0	0xbe68b58c	-0.22725505
1	0x3db84a56	0.089985535
2	0xbcf72187	-0.030167354
3	0xbd3dd1de	-0.046342723
4	0xbdd3e3b1	-0.10346163
5	0x3d8268b1	0.063676246
6	0x3cdd44fe	0.027010437
7	0xbe339abd	-0.17539497
8	0xbdc18ef2	-0.09451093
9	0xbc4f1508	-0.012639292
10	0x3e52315d	0.20526643
11	0x3da69a0c	0.08134851
12	0xbe2626c8	-0.16225731
13	0xbd86a7ba	-0.0657496
14	0xbe3dcd33	-0.18535309
15	0xbe3e04d2	-0.18556526
16	0x3e36e81c	0.1786198
17	0xbc25ce26	-0.01011995
18	0x3e39b25e	0.18134448
19	0xbd99ca79	-0.07509322
20	0x3e25cb97	0.16190945
21	0x3e5f21ff	0.21790312
22	0x3d8c345d	0.06845925
23	0x3e14bd5d	0.14525361
24	0x3d8c450e	0.06849109
25	0xbd3beaba	-0.04587815
26	0xbb3f9e92	-0.0029238802
27	0xbe3d3d05	-0.18480308
28	0xbc67ec59	-0.014155471
29	0x3d343fb1	0.044006053
30	0x3d8b39f2	0.067981616
31	0xbe4e8350	-0.20167279
32	0x3e53b39c	0.20673984
33	0xbe158849	-0.1460277
34	0x3e5ecce1	0.21757843
35	0xbdf4e7e7	-0.11958294
36	0x3d3846cc	0.044989392
37	0xbda3465d	-0.07972405
38	0x3e476311	0.19471385
39	0x3d8be109	0.068300314
40	0xbd4e6736	-0.0503914
41	0xbe6db73f	-0.23214434
42	0xbcf2c064	-0.029632755
43	0x3ddc0614	0.10743347
44	0x3deca65d	0.11555169
45	0x3e2486ab	0.16066997
46	0x3e4b3c1b	0.19847147
47	0xbd2d9540	-0.042378664
48	0xbe47df7c	-0.19518846
49	0x3cf0b05d	0.029380972
50	0xbe01df4e	-0.1268284
51	0x3e708e59	0.23491801
52	0xbe40925a	-0.18805829
53	0x3e5dcf3b	0.21661083
54	0x3e479425	0.19490106
55	0xbe3e1d14	-0.1856578
56	0xbe37071f	-0.1787381
57	0x3e3b56b0	0.18294787
58	0x3da79441	0.08182574
59	0xbbc09958	-0.005877655
60	0xbe03287b	-0.12808411
61	0xbd361af9	-0.044459317
62	0x3e662feb	0.22479217
63	0xbe1a6871	-0.15078904
64	0x3e4f1e19	0.20226325
65	0x3ded670d	0.11591921
66	0xbdd09c20	-0.101860285
67	0xbe6547b6	-0.22390637
68	0xbe4d1374	-0.20026952
69	0xbe67e351	-0.22645308
70	0xbd94e479	-0.0727014
71	0xbdc8097b	-0.09767433
72	0x3d126bc2	0.035747297
73	0x3e50f1f9	0.20404805
74	0x3e2e388c	0.17013758
75	0xbd7a58bf	-0.06111979
76	0x3defe999	0.11714477
77	0x3e0d27a8	0.13784659
78	0xbe034343	-0.12818627
79	0xbd883cc7	-0.06652217
80	0xbe29cda0	-0.16582346
81	0xbe6b5ca9	-0.22984566
82	0xbd9e9d61	-0.077448614
83	0x3e52a780	0.20571709
84	0x3d96e92c	0.07368693
85	0xbe38c007	-0.18042003
86	0x3da1057c	0.07862374
87	0xbd676db1	-0.056501094
88	0x3e38115d	0.17975374
89	0x3e5e1631	0.21688153
90	0x3dafd0a6	0.085847184
91	0x3dd7310e	0.10507403
92	0xbd58acf7	-0.052899327
93	0x3d9242b5	0.071416296
94	0xbe61d109	-0.22052397
95	0x3d0f69d8	0.03501305
96	0xbe25cea4	-0.16192108
97	0x3d0e291a	0.034707166
98	0xbd40ab93	-0.047038626
99	0x3d431564	0.04762782
100	0x3e6533ba	0.22383013
101	0xbda6ea2f	-0.08150136
102	0xbe034a82	-0.12821391
103	0xbe2f194a	-0.17099491
104	0xbe23aaf2	-0.15983179
105	0x3e177b26	0.14793071
106	0xbe6198cc	-0.22030944
107	0xbd7ae338	-0.06125185
108	0xbe3f54e7	-0.18684731
109	0x3e440e7f	0.19146155
110	0xbda14f9f	-0.07876515
111	0xbd9e9251	-0.077427514
112	0x3dc6fb8e	0.09715949
113	0xbe69d6fc	-0.22835916
114	0xbe424279	-0.1897067
115	0xbe184ad0	-0.14872289
116	0xbd9fa691	-0.07795442
117	0xbe1922c9	-0.14954676
118	0x3e63974e	0.22225687
119	0xbe12f624	-0.14351708
120	0x3bc75457	0.006083052
121	0xbd96c637	-0.07362025
122	0xbd8cd6e5	-0.068769254
123	0xbe33e1bd	-0.17566581
124	0xbd477740	-0.04869771
125	0xbd4ee9e1	-0.050516013
126	0xbd14a4b8	-0.0362899
127	0xbe4c14a2	-0.19929746

net.2.weight f4 [128, 128]
0	0x3bc4105a	0.0059833946
1	0x3b9543fa	0.0045552226
2	0xbd81f0e7	-0.063447766
3	0xbcfe481c	-0.031040244
4	0xbca9420f	-0.020661382
5	0xbd3b87a7	-0.045783665
6	0xbda084b8	-0.07837814
7	0x3d09622f	0.0335409
8	0x3d5a455b	0.0532888
9	0x3a5e1aa1	0.0008472596
10	0xbd845649	-0.0646177
11	0xbc1c5532	-0.0095417965
12	0xbb755b35	-0.0037438397
13	0xbda60435	-0.08106271
14	0x3c8afc35	0.016965965
15	0xbcc72567	-0.024309827
16	0x3d5ae1df	0.053438064
17	0x3d714aeb	0.058909338
18	0x3d628052	0.055298157
19	0x3895d92c	7.145325e-05
20	0x3dce3e72	0.10070504
21	0x3d94d5fe	0.07267378
22	0x3d15373e	0.036429636
23	0xbc82bc9b	-0.015959075
24	0xbc9db01b	-0.019249013
25	0x3d35df07	0.04440215
26	0x3cfbee24	0.030753203
27	0xbd80ee2a	-0.06295426
28	0xbcac8a3a	-0.021062005
29	0x3d45076f	0.048102792
30	0x3d6b9268	0.05751267
31	0x3d4b2649	0.04959706
32	0x3db5fa0b	0.088855825
33	0xbd25c58c	-0.0404716
34	0xbbb3950d	-0.0054804147
35	0xbcec9d68	-0.02888365
36	0x3cc0de7b	0.023543587
37	0xbdbe7c89	-0.09301097
38	0x3da170c5	0.07882837
39	0xbd85868c	-0.065198034
40	0x3dc75730	0.097334266
41	0xbd0c93da	-0.03432069
42	0xbd1c3ba2	-0.038142808
43	0xbc546bbf	-0.012965142
44	0xbd0b46a6	-0.034002922
45	0xbd4ca073	-0.049957704
46	0xbb9226d0	-0.004460193
47	0xbda91b4a	-0.08257158
48	0x3d91dc9b	0.07122155
49	0xbdd4a6d4	-0.103833824
50	0x3d932265	0.071842946
51	0x3d979fc2	0.07403518
52	0x3d968d42	0.073511615
53	0xbbf61c2b	-0.007510682
54	0xbdadada4	-0.08480385
55	0xbc694e4e	-0.014239861
56	0x3d41f06f	0.047348436
57	0xbd28ab7e	-0.041179173
58	0x3ac57e33	0.0015067518
59	0xbda5b3df	-0.08090948
60	0x3db629b2	0.088946715
61	0xbdb55c11	-0.08855451
62	0x3d94e5dc	0.07270405
63	0x3c920251	0.01782337
64	0xbdb3fcd8	-0.087884605
65	0xbd947761	-0.07249332
66	0x3ccda3a3	0.025102442
67	0x3d960e39	0.073269315
68	0xbc7f51ef	-0.015583499
69	0x3db70f3a	0.08938451
70	0xbbe86efd	-0.007093309
71	0x3cf9aa1d	0.030476624
72	0xbc9c1eb6	-0.019057613
73	0xbc9505b8	-0.018191203
74	0xbd3361db	-0.043794494
75	0x3cd267e7	0.02568431
76	0x3cd570bb	0.02605473
77	0xbd8ac48c	-0.067757696
78	0x3c0b7fed	0.008514387
79	0xbd1ee43c	-0.03879188
80	0x3cacbc79	0.021085965
81	0xbd9dde61	-0.07708431
82	0xbda60029	-0.08105499
83	0xbd22f4f7	-0.039784398
84	0xbd2b3806	-0.041801475
85	0xbd8b569a	-0.06803627
86	0xbc943db5	-0.01809583
87	0x3d5042ef	0.050845083
88	0xbbbd4eeb	-0.00577723
89	0x3c694626	0.014237916
90	0xbcdf1666	-0.02723236
91	0xbd110fd0	-0.03541547
92	0xbd0f0aa5	-0.03492226
93	0x3db49d91	0.08819116
94	0xbbb7a031	-0.005603813
95	0x3c4a0253	0.012329656
96	0xbcc4d5ff	-0.024027823
97	0x3c9630d4	0.01833383
98	0x3d5368d6	0.05161365
99	0xbd4eb934	-0.050469592
100	0x3bf0204c	0.007328069
101	0x3cac96f6	0.021068078
102	0x3da9fce6	0.0830019
103	0x3d8ec09a	0.069703296
104	0x3db6c786	0.08924775
105	0x3d4ecea2	0.05049003
106	0x3d6d2826	0.057899617
107	0x3d04b8d2	0.03240282
108	0x3c55d105	0.013050322
109	0x3d3f8ba1	0.04676402
110	0xbd58e3a9	-0.05295149
111	0x3d300ca2	0.042980798
112	0x3c926d44	0.017874368
113	0xbda395d4	-0.07987562
114	0xbc569ffa	-0.013099665
115	0xbc9383e1	-0.01800722
116	0xbcd6402e	-0.02615365
117	0x3d974746	0.07386641
118	0x3d93432c	0.071905464
119	0xbdb2d1f2	-0.0873145
120	0xbd8988cc	-0.06715545
121	0xbd43ff88	-0.047851115
122	0xbcb73329	-0.022363262
123	0xbdaa41c2	-0.083133236
124	0x3d542adf	0.051798698
125	0xbd045968	-0.032311827
126	0x3d14fdd6	0.03637489
127	0x3c1e7a61	0.009672732
128	0xbcbc8efa	-0.023017395
129	0x3d091c89	0.03347448
130	0xbcfc8d8d	-0.030829215
131	0x3db4cd79	0.08828253
132	0x3d61a1ed	0.055086065
133	0xbbf30468	-0.0074162968
134	0x3d7c55c9	0.06160525
135	0xbdb72a11	-0.089435704
136	0x3cf6efab	0.03014358
137	0xbdb75fab	-0.08953794
138	0x3d8db71b	0.0691969
139	0xbd5719b8	-0.05251476
140	0xbd81556a	-0.063151196
141	0xbd081284	-0.033220783
142	0xbd3c78de	-0.046013705
143	0x3db0f5d6	0.086406395
144	0xbc6aeb3c	-0.014338311
145	0x3cf20b7c	0.029546492
146	0xbd957259	-0.07297201
147	0xbc6be3b7	-0.014397553
148	0xbc91fc21	-0.01782042
149	0x39861acd	0.0002557844
150	0x3d9d11e1	0.07669426
151	0x3d0c235f	0.03421342
152	0xbcca8732	-0.02472267
153	0x3cdf314d	0.027245188
154	0xbb3af9ef	-0.002853032
155	0x3ccfa9e7	0.02534957
156	0xbd81e7ec	-0.06343064
157	0x3d2e822c	0.04260461
158	0x3ce1b51d	0.027552182
159	0xbb9b30ee	-0.0047360575
160	0x3d1dbda0	0.03851092
161	0xbc7ac423	-0.015305552
162	0x3c89a3da	0.016801763
163	0x3d5e7106	0.054307006
164	0x3c2a3924	0.0103896
165	0x3d314354	0.0432771
166	0x3cb9994e	0.02265611
167	0xbc86522e	-0.016396608
168	0xbd774c20	-0.060375333
169	0xbd5a5094	-0.0532995
170	0x3d99217a	0.07477088
171	0x3bb14049	0.0054092747
172	0x3cacca5d	0.021092588
173	0xbd345a98	-0.04403171
174	0xbc295ec6	-0.010337537
175	0xbd038951	-0.032113377
176	0x3d9bb298	0.076024234
177	0x3d495bde	0.049159877
178	0xbc3f31bd	-0.011669573
179	0xbd1e686a	-0.038673796
180	0xbdb50b4b	-0.088400446
181	0xbd6becb6	-0.057598792
182	0xbd70f190	-0.058824122
183	0x3d310bce	0.04322415
184	0xbda408f3	-0.080095194
185	0x3bb345b8	0.0054709576
186	0xbbe935a1	-0.0071169888
187	0x3cabbf20	0.020965159
188	0x3d406047	0.046966817
189	0x388099e8	6.132183e-05
190	0xbd562799	-0.052283857
191	0x3d1770d4	0.036972836
192	0x3d9ffc92	0.07811846
193	0xbcebe889	-0.028797405
194	0x3d5372b0	0.051623046
195	0x3db63835	0.088974394
196	0xbd006f80	-0.031356335
197	0xbbd3eb30	-0.0064672455
198	0xbdcc7169	-0.09982569
199	0xbb4857f2	-0.0030569998
200	0xbda5da69	-0.08098299
201	0x3d860137	0.065432005
202	0xbd8ab649	-0.067730494
203	0x3db6308e	0.0889598
204	0xbd898e23	-0.067165636
205	0xbdaf85ae	-0.08570419
206	0xbd867d81	-0.06566907
207	0xbaa41c71	-0.0012520683
208	0xbda91405	-0.082557715
209	0xbd8d300b	-0.06893929
210	0xbd34ad65	-0.044110674
211	0x3ca1663d	0.019702071
212	0xbda0ce0b	-0.078517996
213	0xbd1aa6cd	-0.03775673
214	0x3d85b974	0.06529513
215	0x3b9fc0db	0.004875285
216	0xbd8f0ad3	-0.069844864
217	0xbd6fc9b3	-0.058541965
218	0xbc9461d7	-0.01811306
219	0xbdc1107d	-0.09426973
220	0x3c9cba9b	0.01913195
221	0x3dc693ce	0.0969616
222	0xbc3a583a	-0.011373574
223	0x3c8e3085	0.01735712
224	0x3ce0bdf3	0.027434325
225	0x3bdfb6a1	0.006827191
226	0xbdd18c09	-0.10231788
227	0x3d3e4699	0.046454046
228	0x3c5baddc	0.0134081505
229	0xbd426fb7	-0.04746982
230	0x3d5ed740	0.054404497
231	0x3bda3b12	0.0066598738
232	0x3da58f6a	0.08083995
233	0xbd71890d	-0.058968592
234	0x3d4fd3f6	0.05073925
235	0xbce78bc1	-0.028264882
236	0x3d49a5f8	0.049230546
237	0xbd65cb72	-0.056102224
238	0xbd6ab3f9	-0.05730054
239	0xbd789ec3	-0.060698282
240	0x3d18f097	0.03733882
241	0x39d05fe1	0.00039744287
242	0x3dc17c7b	0.09447571
243	0xbd88985c	-0.06669685
244	0xbd5340ec	-0.051575586
245	0x3d66912d	0.056290794
246	0xbd9e9731	-0.07743681
247	0xbd511a52	-0.05105049
248	0xbcdc7ac0	-0.026914
249	0x3d0166be	0.031592123
250	0x3dad7c67	0.084709935
251	0xbd724a31	-0.059152786
252	0xbd49f02b	-0.049301308
253	0x3daa0da8	0.08303386
254	0xbd1f9acf	-0.038965996
255	0x3d04cedb	0.032423835

net.2.bias f4 [128]
0	0xbce0d410	-0.02744487
1	0xbd83a50c	-0.064279646
2	0x3db9481d	0.09046958
3	0xbc98b909	-0.01864292
4	0x3cf9c780	0.030490637
5	0x3d22e304	0.03976728
6	0xbd8654b6	-0.06559126
7	0x3ca1f386	0.019769441
8	0x3d4439ee	0.04790681
9	0x3d5ea52d	0.054356743
10	0xbd25e852	-0.04050476
11	0x3daada13	0.083423756
12	0xbd8cf457	-0.068825416
13	0xbdaf418e	-0.085574254
14	0xbaa24f01	-0.0012383164
15	0x3d260c82	0.040539272
16	0x3d9c9332	0.07645263
17	0x3dba1aa8	0.090871155
18	0x3d929267	0.0715683
19	0x3d9ac45c	0.07556984
20	0x3d01baa8	0.03167215
21	0x3cb2b778	0.021816
22	0xbd09a9a7	-0.03360906
23	0xbc850995	-0.01623992
24	0xbdbdeab3	-0.09273281
25	0x3d00c1cb	0.031434815
26	0xbd9734e6	-0.073831365
27	0x3d6c30fd	0.057663906
28	0xbd555e29	-0.05209175
29	0x3a3ae17d	0.0007128937
30	0xbbc7157a	-0.0060755583
31	0xbcaad9b9	-0.020855771
32	0xbd9d606f	-0.07684409
33	0x3dac437b	0.084113084
34	0xbc9b5725	-0.018962452
35	0x3c3db1ea	0.011578063
36	0x3d3f3bc5	0.04668786
37	0xbb371297	-0.0027934664
38	0x3d5a26a9	0.053259525
39	0x3cb2761c	0.021784835
40	0xbd5ef9d8	-0.05443749
41	0x3d7113e4	0.05885686
42	0x3d883085	0.06649879
43	0x3da718a6	0.08158998
44	0x3d4d189a	0.05007229
45	0x3d7395aa	0.059468903
46	0x3d8f2244	0.069889575
47	0x3b5954e3	0.0033162169
48	0x3cd14dc8	0.025549784
49	0xbb986e8d	-0.0046518506
50	0x3d5e8a7c	0.054331288
51	0xbc7c6ded	-0.015407068
52	0x3ced6294	0.02897767
53	0xbd340973	-0.043954324
54	0xbd83b070	-0.06430137
55	0x3a7a7dce	0.00095554895
56	0x3db2616b	0.08709987
57	0x3c16632c	0.009178918
58	0x3d9c71ff	0.076389305
59	0x3d9eb95a	0.07750197
60	0xbd9670d2	-0.073457375
61	0x3d979b47	0.07402664
62	0xbd9a96e0	-0.07548308
63	0x3b001ffd	0.0019550317
64	0xbd81ab6f	-0.063315265
65	0x3d9bd79a	0.07609482
66	0x3d750eba	0.059828497
67	0x3c6bc034	0.0143890865
68	0x3d96375f	0.0733478
69	0x3d3854e0	0.045002818
70	0xbcb098ed	-0.021557296
71	0xbd982299	-0.07428474
72	0x3d829e18	0.0637781
73	0xbd2818d5	-0.041039307
74	0xbd7de1f9	-0.061983082
75	0x3d873b4a	0.06603105
76	0x3d95d49f	0.07315945
77	0xbdb1d48c	-0.08683118
78	0xbd87cfb4	-0.06631413
79	0xbbf35d02	-0.007426859
80	0x3cad5f18	0.021163508
81	0x3db1900b	0.08670052
82	0x3ceb6f60	0.028739631
83	0xbd10fcb7	-0.035397258
84	0x3d71e13d	0.059052695
85	0x3cfe4ca6	0.031042408
86	0xbdb59bf3	-0.088676356
87	0xbbf4f2e6	-0.007475245
88	0x3d451266	0.04811325
89	0xbcf93d4e	-0.03042474
90	0xbd90aab1	-0.07063807
91	0xbdae31c6	-0.08505587
92	0x3adf3adf	0.0017031095
93	0xbc5a3bbd	-0.013319907
94	0xbd890ef1	-0.06692303
95	0xbd8cda35	-0.06877557
96	0x3dae3eab	0.08508047
97	0x3d6ac948	0.057320863
98	0x3d1f6c59	0.038921688
99	0x3db6d184	0.08926681
100	0xbb46993d	-0.003030374
101	0x3d5ec958	0.054391235
102	0x3d81e395	0.06342236
103	0xbb41db10	-0.0029580034
104	0xbd283d0a	-0.041073836
105	0xbc89eedd	-0.016837532
106	0x3d4eddb6	0.05050441
107	0x3c094beb	0.008379917
108	0xbd9f2c8c	-0.077721685
109	0xbd82c6a1	-0.06385542
110	0x3d51de52	0.05123741
111	0x3d1142c3	0.03546406
112	0xbd43f03a	-0.04783652
113	0x3d501bfa	0.05080793
114	0x3d242186	0.040071033
115	0x3cbd829f	0.023133574
116	0xbdb56ecc	-0.088590235
117	0xbb773bda	-0.0037724883
118	0xbc0d89bb	-0.0086387945
119	0xbd7978cb	-0.060906213
120	0x3d1b0841	0.03784967
121	0xbd75ae7d	-0.059980858
122	0xbd970da7	-0.07375651
123	0xbcd9e5ec	-0.026598893
124	0xbda1ae54	-0.078945786
125	0x3d9797fe	0.07402037
126	0x3d9dac89	0.07698924
127	0xbd02c758	-0.03192839

net.4.weight f4 [3, 128]
0	0xbdcc0616	-0.09962098
1	0xbd939e2f	-0.072079055
2	0x3dfee447	0.12445884
3	0xbd58e1d5	-0.052949745
4	0xbc805c2a	-0.015668947
5	0xbda95719	-0.08268566
6	0x3c822518	0.015886828
7	0xbd689512	-0.05678279
8	0x3d316542	0.043309458
9	0x3bc7bb1b	0.0060953028
10	0xbdb60e45	-0.088894404
11	0x3d067bee	0.032833032
12	0x3da21eb5	0.07916013
13	0xbd8dd604	-0.06925586
14	0x3c8e6315	0.01738123
15	0xbdbc112b	-0.09182962
16	0x3cde8d87	0.027167095
17	0xbcdf9b2c	-0.027295671
18	0xbd74a900	-0.059731483
19	0x3d964712	0.07337774
20	0x3ce6095a	0.028080631
21	0x3d011f85	0.0315242
22	0xbdbc36f5	-0.0919017
23	0xbd2295d5	-0.039693672
24	0xbdcf06a1	-0.10108686
25	0x3dd2089c	0.10255548
26	0x3dd41ed2	0.10357441
27	0xbda89554	-0.08231607
28	0x3ddd78d9	0.108140655
29	0x3d97fc06	0.074211165
30	0x3dd1186e	0.10209738
31	0xbd94b476	-0.07260983
32	0xbd8668d4	-0.06562963
33	0x3c9dd3af	0.019265978
34	0xbc353619	-0.011060261
35	0xbd86d6e3	-0.06583955
36	0xbd6fc62e	-0.05853861
37	0xbd4c83d0	-0.049930394
38	0x3d8a0ad6	0.06740348
39	0x3d110d9c	0.03541337
40	0xbc2aef6f	-0.010433062
41	0x3d2416a9	0.040060673
42	0xbd897f84	-0.06713775
43	0x3d907c5f	0.07054972
44	0x3d840c77	0.0644769
45	0xbdd8f73a	-0.1059403
46	0xbd82b949	-0.063829966
47	0xbd41a05f	-0.047272082
48	0x3db40e69	0.08791811
49	0xbdf2b265	-0.11850432
50	0xbc215017	-0.009845755
51	0xbd7859ff	-0.060632702
52	0xbdc1d1ab	-0.09463819
53	0x3dc61af8	0.09673113
54	0x3d20048f	0.039066847
55	0x3d5849f2	0.052804895
56	0x3de1e6af	0.110303275
57	0xbc982563	-0.018572515
58	0x3cf4e231	0.029893013
59	0x3d167d46	0.036740564
60	0x3da976e8	0.08274633
61	0x3d7a0626	0.06104102
62	0xbd93f3ec	-0.07224259
63	0xbd794620	-0.060857892
64	0x3d07636e	0.033053808
65	0xbcb3ac79	-0.021932827
66	0x3d550726	0.05200877
67	0xbd8525b8	-0.06501335
68	0x3daef186	0.08542161
69	0xbd4ab053	-0.049484562
70	0xbd7bc4d5	-0.06146701
71	0x3c38d061	0.01128015
72	0xbc135714	-0.008992929
73	0x3ca6bdc1	0.020354154
74	0x3d9ecfbd	0.07754467
75	0xbde1be0c	-0.11022577
76	0x3c5f9bdf	0.013648002
77	0x3d3be839	0.04587576
78	0x3c4152ec	0.011799555
79	0x3d28ace7	0.041180518
80	0xbb630251	-0.0034638832
81	0xbd9b0989	-0.07570178
82	0x3d17708c	0.036972567
83	0xbdadd5ca	-0.08488043
84	0x3cf157e3	0.029460853
85	0x3dd6263e	0.10456513
86	0xbdd954d6	-0.10611884
87	0x3d51a73f	0.05118489
88	0x3d2aeb9c	0.0417286
89	0xbdbde140	-0.09271479
90	0x3d99e98b	0.07515248
91	0xbd8c25f0	-0.068431735
92	0x3d9678e5	0.073472776
93	0x3d88ebcb	0.06685599
94	0x3da1b668	0.07896119
95	0x3c48ed43	0.012263599
96	0x3dc6069e	0.09669231
97	0x3d0bfd8c	0.034177348
98	0xbd16485f	-0.036690112
99	0x3ba74adb	0.005105359
100	0x3d5f171e	0.054465406
101	0xbc002820	-0.007822067
102	0xbd880e6c	-0.06643376
103	0xbdc0c40f	-0.09412395
104	0xbde69668	-0.112591565
105	0xbd5d5e9e	-0.054045312
106	0xbd7aa4f6	-0.061192475
107	0x3d28a1d9	0.041169975
108	0x3d71965b	0.05898128
109	0x3c4727bc	0.0121554695
110	0x3d9832e5	0.07431582
111	0x3d851645	0.06498388
112	0x3d8dc413	0.06922164
113	0x3cf0928b	0.029366752
114	0x3de9ed55	0.114222206
115	0xbd51bd7d	-0.0512061
116	0xbdc2ac4b	-0.095055185
117	0x3d2f3fc1	0.04278541
118	0xba5e8ad0	-0.00084893126
119	0xbddcde40	-0.10784578
120	0xbc98c4ac	-0.018648468
121	0x3c2f2c5b	0.0106917275
122	0xbd876064	-0.06610182
123	0x3c1d8a8f	0.0096155545
124	0xbd73198c	-0.059350535
125	0x3ca04b3e	0.019567128
126	0x3d41f021	0.047348145
127	0xbd8941fc	-0.06702039
128	0x3da7dee3	0.08196809
129	0xbbd9611a	-0.00663389
130	0x3ca979f1	0.020688029
131	0xbd433575	-0.047658402
132	0x3cead222	0.028664652
133	0xbdd5fcde	-0.10448621
134	0xbd82c25d	-0.06384728
135	0xbd8f4efd	-0.06997488
136	0xbd76e24d	-0.06027441
137	0x3d3e6ec4	0.046492353
138	0xbd068fb7	-0.0328519
139	0xbcbea11c	-0.023270182
140	0xbbce946a	-0.0063043134
141	0x3d78c95e	0.060738914
142	0x3d681c2a	0.056667484
143	0x3d54132e	0.051776104
144	0xbcfa1ff7	-0.03053282
145	0x3dbef9c7	0.09324985
146	0xbc26fcfc	-0.010192152
147	0x3d57afbd	0.05265783
148	0x3c9987e6	0.01874156
149	0x3c9f01bb	0.019410005
150	0x3d2420c2	0.040070303
151	0x3d931b0f	0.071828954
152	0xbdbd0cd7	-0.09230965
153	0xbcf2a65c	-0.029620342
154	0xbc199c89	-0.0093757
155	0xbd862413	-0.06549849
156	0x3d0898ab	0.03334872
157	0xbd056047	-0.03256252
158	0x3d946667	0.07246094
159	0x3cbfc74e	0.023410466
160	0xbb0c5d04	-0.0021417746
161	0xbb85ad54	-0.0040795
162	0xbd70deae	-0.058806114
163	0xbd8f356e	-0.06992613
164	0x3d542f8a	0.05180315
165	0x3d9fa9e7	0.07796078
166	0x3d370668	0.044683844
167	0xbc2e52bf	-0.010639845
168	0xbd196121	-0.037446145
169	0xbd7cdb6c	-0.061732695
170	0xbd553d46	-0.052060388
171	0x3dd0dd27	0.101984315
172	0xbdb266ce	-0.08711015
173	0xbcb1b763	-0.02169389
174	0xbc010fe0	-0.00787732
175	0xbc1f588d	-0.009725702
176	0xbcb47779	-0.022029625
177	0xbd853415	-0.065040745
178	0x3d81b98f	0.063342206
179	0xbd30849f	-0.043095227
180	0xbd024216	-0.031801306
181	0x3d49ca30	0.049265087
182	0x3c802371	0.0156419
183	0xbd8fde4b	-0.07024821
184	0xbc5e3377	-0.013562075
185	0x3d69c290	0.057070315
186	0x3db11f59	0.08648557
187	0xbd0a076c	-0.033698484
188	0xbb3bdbec	-0.002866502
189	0x3d034942	0.032052286
190	0x3d827533	0.0637001
191	0x3c9d8a6b	0.019231042
192	0x3df1e12f	0.118105285
193	0xbbf90e08	-0.0076005496
194	0xbd3f1513	-0.046650957
195	0x3dd244a7	0.10267001
196	0xbd84c26f	-0.06482398
197	0xbd5364ac	-0.05160968
198	0x3d358f40	0.044326067
199	0x3d5d75c4	0.05406739
200	0xbd540233	-0.05175991
201	0x3d8b59f2	0.06804265
202	0xbd889ad1	-0.06670154
203	0xbc6e431c	-0.014542367
204	0xbcc0958b	-0.023508808
205	0x3cee135d	0.029061968
206	0xbcc8426b	-0.024445733
207	0xbdb06a43	-0.08614018
208	0x3d46ab50	0.04850322
209	0x3dbd44a6	0.09241609
210	0xbd9bcca0	-0.076073885
211	0x3c8c45ec	0.017123185
212	0x3db4dc12	0.088310376
213	0x3d035747	0.032065656
214	0xbd63a9c8	-0.055581838
215	0x3cdf36a8	0.027247742
216	0xbc36d9fb	-0.011160369
217	0x3d810fce	0.06301843
218	0x3dca3cf5	0.09874908
219	0x3c9ba390	0.018998891
220	0xbc3e8188	-0.011627562
221	0xbabdd091	-0.0014481713
222	0x3d79fcc3	0.061032068
223	0x3cc43dd2	0.02395526
224	0xbd8e8a90	-0.069600224
225	0xbaebad89	-0.0017980795
226	0xbd8a2ef8	-0.0674724
227	0xbbed26d5	-0.007237295
228	0x3d8f823b	0.07007261
229	0xbd5818dd	-0.052758086
230	0xbd4572ab	-0.04820506
231	0x3d3be5fe	0.045873635
232	0x3d4de13a	0.05026362
233	0xbc938858	-0.01800935
234	0x3d94bf8e	0.07263099
235	0x3da3523e	0.07974671
236	0x3cc8d82f	0.024517147
237	0xbc90bf06	-0.017669212
238	0xbd6b97e6	-0.05751791
239	0xbcbc91a8	-0.023018673
240	0xbcf724ce	-0.030168917
241	0x3d8e4a3f	0.06947755
242	0xbd640e42	-0.05567766
243	0xbd4dd910	-0.050255835
244	0xbca6aa50	-0.020344883
245	0xbcbc3093	-0.02297238
246	0x3d93dc4d	0.072197534
247	0xbdba1af4	-0.09087172
248	0xbd99357b	-0.07480904
249	0xbc660fed	-0.014041883
250	0xbc001a29	-0.007818737
251	0xbc87f277	-0.016595108
252	0x3d6a2059	0.057159755
253	0x3dbba584	0.09162429
254	0x3ca8a63d	0.020587081
255	0x3d0dc3f9	0.034610722

net.4.bias f4 [3]
0	0x3c5a41c2	0.013321342
1	0x3bd5ec48	0.006528411
2	0x3cbc9af5	0.023023108

net.0.weight f4 [128, 18]
0	0x3d8072af	0.06271874
1	0xbcf7ece8	-0.030264333
2	0x3d8ac37c	0.06775567
3	0xbc682fc0	-0.014171541
4	0xbda980af	-0.082764976
5	0x3e70a573	0.23500614
6	0x3da372f0	0.07980907
7	0xbd91c7df	-0.071182005
8	0x3c596572	0.013268815
9	0xbc92d9ec	-0.017926179
10	0xbd75a0b5	-0.059967715
11	0x3e5c7524	0.2152906
12	0xbe9917ff	-0.2990112
13	0xbe15e54e	-0.14638254
14	0xbd912281	-0.07086659
15	0xbe1551e4	-0.1458202
16	0xbbd05be5	-0.006358611
17	0xbd4a372b	-0.04936902
18	0xbd9206b4	-0.07130185
19	0xbdc5459e	-0.09632419
20	0xbc5a4706	-0.013322597
21	0xbe0848f3	-0.13309078
22	0x388af24d	6.625485e-05
23	0xbe2ff33f	-0.17182635
24	0xbe20b0e2	-0.15692475
25	0x3d395272	0.04524464
26	0xbd548cbb	-0.051892024
27	0x3e046a5c	0.12931198
28	0xbe183783	-0.14864926
29	0xbe12a699	-0.14321364
30	0x3d4f5e11	0.050626818
31	0xbdd79f3e	-0.1052842
32	0xbdb6f316	-0.08933084
33	0x3e427873	0.1899126
34	0xbdc868d3	-0.09785619
35	0xbde8b975	-0.11363498
36	0xbe1d8723	-0.15383582
37	0x3e5093cb	0.20368879
38	0x3d12ea49	0.035867963
39	0x3e33136d	0.17487879
40	0x3e1bc53e	0.1521196
41	0xbe232a27	-0.15934049
42	0x3dda3ea9	0.10656483
43	0x3e223656	0.1584104
44	0xbcc05720	-0.023479044
45	0x3d8b9542	0.06815578
46	0x3e632885	0.22183426
47	0xbbd0cfdc	-0.006372435
48	0xbe2db048	-0.16961777
49	0xbcfdfbf9	-0.031003939
50	0x3ba0454d	0.004891074
51	0x3e5f7837	0.21823202
52	0xbb7fe8f9	-0.0039048775
53	0x3d05125f	0.032488223
54	0xbe44311c	-0.19159359
55	0x3cf3c040	0.029754758
56	0xbdc3b3a3	-0.09555747
57	0x3de1e903	0.110307716
58	0x39976c89	0.0002888183
59	0xbdedde2e	-0.11614643
60	0x3dc06950	0.09395087
61	0xbe4731a9	-0.19452538
62	0xbdbd4c08	-0.092430174
63	0xbe49168c	-0.19637507
64	0x3d89350f	0.06699573
65	0xbd8991b0	-0.06717241
66	0xbdee7949	-0.11644227
67	0xbe1c089d	-0.1523766
68	0x3cfd584c	0.030925892
69	0xbd870bbf	-0.06594037
70	0xbdbd9994	-0.09257808
71	0x3d09d622	0.03365148
72	0xbe63839f	-0.22218178
73	0xbdc0aa01	-0.09407426
74	0xbe02cd92	-0.12773731
75	0x3dd981dc	0.10620472
76	0xbdccd2f2	-0.10001172
77	0xbe05e190	-0.13074327
78	0x3de309ad	0.1108583
79	0xbe4bb44f	-0.19893001
80	0x3b8b0355	0.0042423406
81	0x3e2633d7	0.16230713
82	0x3dad28f4	0.08455077
83	0x3e57db12	0.21079662
84	0x3e107219	0.14106025
85	0xbe13debf	-0.1444044
86	0x3d0d667f	0.034521576
87	0x3e66897b	0.22513382
88	0xbe6b657d	-0.22987933
89	0x3d1667f0	0.036720216
90	0x3e6897f4	0.22714216
91	0xbe0f990d	-0.14023228
92	0x3db6159c	0.088908404
93	0x3b9f7236	0.00486591
94	0xbdcb21e3	-0.09918573
95	0xbe356ed9	-0.17718066
96	0xbd7cccfa	-0.06171892
97	0x3df8e9ce	0.1215397
98	0x3c8dfd9d	0.017332846
99	0xbdf9bad6	-0.12193839
100	0x3e2a9ab9	0.16660585
101	0x3dd28b33	0.102804564
102	0x3d3aacaa	0.04557482
103	0x3db9b818	0.09068316
104	0xbdcefbb7	-0.101066045
105	0xbe3da56e	-0.18520138
106	0x3d720f8a	0.05909685
107	0x3e2d36c5	0.16915424
108	0x3e80c0f8	0.25147223
109	0x3c7859c3	0.01515812
110	0x3c655277	0.013996712
111	0x3e044946	0.12918577
112	0x3e3c311f	0.18378113
113	0xbe3d066b	-0.1845948
114	0x3ce163e3	0.02751345
115	0x3de10b31	0.10988463
116	0xbd34b6b5	-0.044119556
117	0x3dee4602	0.11634447
118	0xbe2dd4ed	-0.16975756
119	0x3dd7a0e5	0.10528735
120	0xbcee7658	-0.029109165
121	0xbe3483c2	-0.17628387
122	0x3c531a20	0.012884647
123	0x3d2c6e43	0.04209734
124	0x3e64a846	0.22329816
125	0xbd7537f0	-0.0598678
126	0xbccc1ef1	-0.024917098
127	0x3dd3cb3c	0.10341498
128	0x3d52b390	0.051440775
129	0xbe27dad6	-0.16392073
130	0xbe1147cc	-0.14187545
131	0xbe6f36eb	-0.23360793
132	0xbdb48689	-0.08814723
133	0xbdd64bd9	-0.104636855
134	0xbd192397	-0.037387457
135	0x3e3b7eac	0.1831004
136	0x3e5b714b	0.21429937
137	0xbdcccbb6	-0.09999792
138	0x3e2be318	0.16785848
139	0x3e05c7c1	0.13064481
140	0x3dc3df75	0.095641054
141	0x3da6a0ed	0.08136163
142	0x3e0a221f	0.13489579
143	0xbd8872de	-0.06662534
144	0x3e17961c	0.14803356
145	0xbdff9bc4	-0.12480882
146	0x3bc46b5e	0.0059942445
147	0x3dc114ae	0.094277725
148	0xbe3613a7	-0.17780934
149	0xbe101444	-0.1407023
150	0x3d4546cd	0.048163224
151	0x3e46b413	0.1940463
152	0xbd833d9e	-0.06408237
153	0xbe2decbd	-0.1698484
154	0x3cd452e3	0.02591843
155	0xbe5e7010	-0.21722436
156	0x3dfa064a	0.12208231
157	0x3e0592e5	0.13044317
158	0x3d20dfc2	0.039275892
159	0xbdc5dddc	-0.09661457
160	0x3de2d249	0.11075265
161	0x3de8344d	0.113381006
162	0xbe0f8631	-0.14016034
163	0xbe5173b6	-0.20454296
164	0x3d9333aa	0.071875885
165	0xbb8fcffc	-0.0043888073
166	0x3dbe3210	0.092868924
167	0xbdbbe072	-0.09173669
168	0xbe8e229f	-0.2776079
169	0x3d98e2de	0.074651465
170	0x3d4f6993	0.050637793
171	0xbe6b6082	-0.22986034
172	0x3db5eeaa	0.08883412
173	0x3d9f811b	0.07788297
174	0xbd9c0b99	-0.076193996
175	0xbe224894	-0.15847999
176	0xbdd574ed	-0.104226924
177	0xbe6ea325	-0.23304422
178	0x3e00bb9a	0.12571564
179	0xbe015924	-0.1263166
180	0xbdc586d4	-0.09644857
181	0xbdcee081	-0.101014145
182	0x3c1dd590	0.009633437
183	0xbcc1f3cd	-0.023675824
184	0x3e6e7c32	0.23289564
185	0xbe1c809d	-0.15283437
186	0x3bf4c9c8	0.0074703433
187	0x3b545b99	0.003240323
188	0xbc44a8ad	-0.012003106
189	0xbe3376db	-0.17525809
190	0x3d109d57	0.0353063
191	0x3bcbe937	0.0062228697
192	0xbc9245af	-0.017855493
193	0x3ce302db	0.027711323
194	0x3dafee09	0.085903235
195	0xbcf5d865	-0.030010412
196	0xbd9d5053	-0.07681336
197	0xbe6327ff	-0.22183226
198	0xbba1baf3	-0.004935616
199	0x3e0b7cc0	0.13621807
200	0xbda8f0f0	-0.0824908
201	0x3e4baff8	0.19891346
202	0xbe6c73ea	-0.23091093
203	0xbe42b54c	-0.19014472
204	0xbe193bdd	-0.14964242
205	0x3e4496d5	0.19198163
206	0xbaea77e1	-0.001788851
207	0xbdc7f3d4	-0.097633034
208	0xbe1a4625	-0.1506582
209	0xbd19f302	-0.037585266
210	0x3d753f44	0.059874788
211	0xbdfc8d3d	-0.123316266
212	0xbd3cb8ae	-0.04607456
213	0x3d02ca37	0.03193113
214	0xbe26858f	-0.16261886
215	0x3e50a582	0.20375636
216	0xbd6bb575	-0.057546098
217	0xbe404d2d	-0.1877944
218	0x3a595e6f	0.0008291965
219	0x3e238ae3	0.1597095
220	0xbe23ccdb	-0.15996115
221	0x3e6f30c6	0.2335845
222	0x3d38de8e	0.04513412
223	0x3e1f3d2c	0.15550679
224	0xbd474721	-0.04865182
225	0x3de9b8cc	0.114122
226	0xbe2d55de	-0.16927287
227	0xbe6dee30	-0.23235393
228	0xbd29492e	-0.041329555
229	0xbe4f9467	-0.20271455
230	0xbdf2b960	-0.11851764
231	0xbde78d21	-0.11306215
232	0x3e4347c4	0.19070345
233	0x3e0e8dee	0.1392133
234	0x3dd26970	0.10274017
235	0x3e4eb673	0.20186786
236	0x3dca3f6f	0.0987538
237	0x3d9b6fc9	0.07589681
238	0x3dcef318	0.1010496
239	0x3e1d65b5	0.1537083
240	0x3e0b6ce7	0.13615762
241	0xbd4c57af	-0.04988831
242	0xbdacfb0e	-0.084463224
243	0xbddc0450	-0.1074301
244	0xbdbe1baf	-0.09282624
245	0x3c7b1a5f	0.015326112
246	0xbe0399e3	-0.12851672
247	0xbdc4b2f8	-0.09604448
248	0x3dda6903	0.10664561
249	0x3e100b55	0.14066823
250	0xbddfdcd3	-0.10930791
251	0xbd5ddbbb	-0.05416463
252	0xbd322ddd	-0.04350077
253	0xbdd68217	-0.104740314
254	0x3d05830b	0.032595675
255	0x3de49d45	0.11162809

net.0.bias f4 [128]
0	0xbe8cf004	-0.27526867
1	0x3e98fb9e	0.2987947
2	0xbe201c5a	-0.15635815
3	0xbe7a6149	-0.24451174
4	0xbe374e02	-0.17900851
5	0x3e8fa890	0.2805829
6	0x3ea5c683	0.32378015
7	0x3eb41347	0.35170957
8	0x3e87fc86	0.26559848
9	0xbe1dbae2	-0.15403321
10	0x3e60c6dc	0.21950859
11	0x3e552175	0.20813544
12	0xbe2e3f6b	-0.1701638
13	0xbe53aa2b	-0.20670383
14	0xbe389363	-0.18024974
15	0x3eaf68b3	0.34259567
16	0x3e916d4c	0.284037
17	0x3e85529d	0.2603959
18	0xbeacbc41	-0.33737376
19	0xbe8821f0	-0.26588392
20	0x3e8f80ef	0.28028056
21	0xbe982523	-0.29715833
22	0xbe35649f	-0.17714165
23	0xbeb41f9e	-0.35180372
24	0xbe8e0486	-0.27737826
25	0xbea37f9e	-0.31933302
26	0x3e4fa0b9	0.20276155
27	0x3e704785	0.23464783
28	0x3e87ad31	0.26499322
29	0xbe98928e	-0.29799312
30	0x3e970baf	0.295011
31	0x3e243076	0.16034111
32	0xbe90ab06	-0.2825548
33	0xbeb169ca	-0.34651023
34	0x3e490aef	0.19633077
35	0xbe5a6b78	-0.21330059
36	0x3e881fbb	0.26586708
37	0x3e8ccc24	0.27499497
38	0xbeabe155	-0.33570352
39	0xbe7495fe	-0.23885342
40	0xbe34c659	-0.17653789
41	0xbe257716	-0.16158709
42	0x3eaf6af8	0.34261298
43	0x3ea82649	0.3284171
44	0xbe3a0975	-0.1816767
45	0xbe8c2f76	-0.2737996
46	0xbe20f34a	-0.15717807
47	0x3ea4c48f	0.32181212
48	0x3ea88da9	0.32920578
49	0x3e5ccf69	0.21563496
50	0x3e9c9781	0.30584338
51	0xbe8c387f	-0.27386853
52	0xbe0ee1fe	-0.13953397
53	0xbe810e91	-0.25206426
54	0xbe9826d9	-0.29717138
55	0x3eb63ba1	0.35592368
56	0xbeb06f22	-0.34459788
57	0x3e7e180a	0.24813858
58	0x3e983764	0.2972976
59	0xbe70587a	-0.23471251
60	0xbe2f8884	-0.1714192
61	0xbe9d4574	-0.3071705
62	0x3ea9f01f	0.3319101
63	0x3e3611dc	0.1778025
64	0xbe4ac0df	-0.19800137
65	0xbe396788	-0.181059
66	0x3e711cbb	0.23546116
67	0xbe49f017	-0.19720493
68	0xbeb08871	-0.34479097
69	0x3e8899d0	0.2667985
70	0x3eb4e4d2	0.35330826
71	0xbe92c0a4	-0.28662598
72	0xbe4b46f0	-0.1985128
73	0xbe8d948d	-0.27652398
74	0x3eadfd14	0.33982146
75	0x3eab11b6	0.3341195
76	0xbe7b1010	-0.24517846
77	0x3e75b6d3	0.23995523
78	0xbe437530	-0.19087672
79	0xbe319bd7	-0.17344604
80	0xbe9e6579	-0.30936792
81	0x3eaa4447	0.33255216
82	0xbe51537c	-0.20442003
83	0x3e4c075c	0.19924682
84	0x3e553a77	0.20823084
85	0x3ea797fa	0.32733136
86	0x3e50396c	0.20334405
87	0xbe6abb49	-0.22923006
88	0xbeaee19f	-0.3415651
89	0xbe25d007	-0.16192637
90	0xbe79d95a	-0.2439932
91	0xbe3db8af	-0.18527482
92	0x3eb8cb67	0.36092684
93	0xbea12ab1	-0.31477883
94	0x3e116280	0.14197731
95	0xbe3e03e4	-0.18556172
96	0xbe9732c6	-0.29530925
97	0x3e322909	0.17398466
98	0xbeaa8bf1	-0.33309892
99	0x3e86b09d	0.2630662
100	0x3e7b7e4b	0.24559896
101	0x3e911495	0.28336015
102	0xbe86edda	-0.2635334
103	0xbe2e326b	-0.1701142
104	0xbe881496	-0.26578206
105	0x3e85809e	0.2607469
106	0xbe51bf8e	-0.20483229
107	0xbe597c29	-0.2123877
108	0xbe9bb3d6	-0.3041064
109	0x3e3c4e39	0.18389215
110	0xbea3555b	-0.3190106
111	0xbe9cdb4d	-0.30636063
112	0xbe87242a	-0.26394778
113	0xbea07cec	-0.31345308
114	0x3e604d96	0.21904597
115	0xbeacf7fb	-0.33782944
116	0x3ea467eb	0.32110533
117	0x3e2632ab	0.16230266
118	0x3eaea487	0.341099
119	0x3e782c24	0.24235588
120	0x3e37d77b	0.17953293
121	0xbeb74fdb	-0.35803112
122	0xbe8723ce	-0.26394504
123	0x3e83e62e	0.2576155
124	0x3ea2c80a	0.31793243
125	0x3e54444f	0.20729183
126	0xbea50374	-0.32229197
127	0xbe42eaed	-0.1903493

net.2.weight f4 [128, 128]
0	0x3bea0e52	0.0071428204
1	0xbdbdff2b	-0.09277185
2	0x3e38232b	0.17982166
3	0x3de4aabd	0.11165378
4	0x3d046075	0.03231855
5	0x3c0d61b3	0.00862925
6	0xbdada128	-0.08478004
7	0xbdbec94a	-0.093157366
8	0xbd159c68	-0.036526114
9	0x3d9db26c	0.07700047
10	0xbd32a565	-0.043614764
11	0xbddde84f	-0.10835325
12	0x3cd1fb13	0.025632417
13	0x3db9ec02	0.09078218
14	0x3d825cb6	0.063653395
15	0x3c426e2f	0.01186709
16	0xbd9a6efa	-0.07540698
17	0xbe1ad09b	-0.15118639
18	0x3d776121	0.060395364
19	0xbc080145	-0.008301084
20	0xbd797fae	-0.06091278
21	0x3df8407a	0.12121673
22	0x3de86b63	0.113486074
23	0x3e0eafd1	0.13934256
24	0x3becec54	0.007230321
25	0x3d3e5762	0.046470053
26	0xbd9d0aa5	-0.07668046
27	0xbc24ce1d	-0.010058907
28	0xbdc58925	-0.09645299
29	0x3c2be504	0.010491613
30	0x3c0e891c	0.008699682
31	0xbdeed999	-0.11662597
32	0x3e14ddc2	0.14537719
33	0xbb5aa532	-0.0033362624
34	0xbe1cc2e3	-0.15308718
35	0x3d48ecc1	0.04905391
36	0xbd5c0ae8	-0.05372134
37	0xbe11e59d	-0.14247747
38	0xbc7dd7ef	-0.015493377
39	0x3d64e9e4	0.055887118
40	0x3e424c55	0.18974431
41	0x3dc19a0d	0.09453211
42	0x3c3c1c7c	0.011481401
43	0xbdda1d7b	-0.10650154
44	0x3dd806b7	0.10548156
45	0x3d31ef2f	0.043440994
46	0x3d9955b9	0.074870534
47	0xbbe13a63	-0.0068734153
48	0xbd90c9bc	-0.07069728
49	0xbd4a09a2	-0.049325593
50	0x3c7b7b6f	0.015349253
51	0x3e0f73ca	0.14009014
52	0x3e1a4a5b	0.15067427
53	0x3db5a34d	0.08869038
54	0x3e0dfe7c	0.1386661
55	0xbdd94262	-0.10608365
56	0x3da7c5f1	0.08192051
57	0xbdc81139	-0.0976891
58	0xbd5defae	-0.054183654
59	0x3e1db91a	0.15402642
60	0x3e241508	0.16023648
61	0x3e1f3a8f	0.15549682
62	0xbdd264bb	-0.10273119
63	0xbe0fe565	-0.14052351
64	0x3e314df1	0.17314889
65	0x3e1417e2	0.14462236
66	0xbde02991	-0.10945428
67	0x3dfd32ef	0.123632304
68	0x3e143cd6	0.14476332
69	0xbe01d13e	-0.12677476
70	0xbc88a41d	-0.016679818
71	0x3df4e9f0	0.119586825
72	0x3e0233e3	0.12715106
73	0x3dd0ded8	0.10198754
74	0xbc98b98b	-0.018643161
75	0xbd5ee5c2	-0.054418333
76	0x3cd54013	0.02603153
77	0xbe02c8da	-0.12771931
78	0x3d312d24	0.04325594
79	0x3df19bf3	0.11797323
80	0x3e1d9698	0.15389478
81	0xbc38684f	-0.011255338
82	0x3cafcf6c	0.021461211
83	0xbc9cdc8a	-0.01914813
84	0xbd97c237	-0.074100904
85	0xbd85cc43	-0.065331005
86	0xbe08c93f	-0.1335802
87	0x3bf9f1d5	0.0076277056
88	0x3d211d0f	0.039334353
89	0x3e269616	0.1626819
90	0x3de2d1db	0.11075183
91	0x3df43e04	0.11925891
92	0xbdfa0d87	-0.122096114
93	0x3d647303	0.055773746
94	0xbe427db5	-0.18993266
95	0x3e1e9142	0.15485099
96	0x3cab6ae2	0.02092499
97	0xbe291d3d	-0.1651506
98	0x3e119743	0.14217858
99	0xbdabfcf7	-0.083978586
100	0xbdc92451	-0.0982138
101	0xbe1db45f	-0.15400837
102	0x3e21f44c	0.15815848
103	0x3e0e2f55	0.13885243
104	0x3dfbe9da	0.12300463
105	0xbe102fec	-0.1408078
106	0x3e009317	0.1255611
107	0x3cfde465	0.030992696
108	0x3ba310ab	0.004976352
109	0xbce3a23c	-0.02778732
110	0xbc598ead	-0.013278645
111	0x3dc27d5b	0.09496566
112	0x3dc99273	0.09842386
113	0x3e072012	0.13195828
114	0xbe23b419	-0.1598667
115	0x3de88a01	0.11354447
116	0xbe1d6484	-0.15370375
117	0xbd518934	-0.051156238
118	0xbda219b2	-0.07915057
119	0xbcb0d701	-0.021586897
120	0xbdce253b	-0.10065695
121	0x3e14094d	0.14456673
122	0x3dfa3d9d	0.12218783
123	0xbd15cb48	-0.036570817
124	0xbda5c376	-0.08093922
125	0xbdbf6abf	-0.09346532
126	0x3dfb2405	0.122627296
127	0x3c9abdfc	0.01888942
128	0xbe068e38	-0.1314019
129	0x3e2f36ea	0.17110792
130	0xbe61c834	-0.22049028
131	0xbe317686	-0.1733037
132	0xbd89f9c4	-0.06737092
133	0x3cecde21	0.028914513
134	0x3dc8a0af	0.09796273
135	0x3dbdfb5b	0.09276458
136	0x3dcf2098	0.10113639
137	0xbe4859ab	-0.19565456
138	0x3e3f8263	0.18702082
139	0x3da333e3	0.07968881
140	0xbda66ac2	-0.08125831
141	0xbe497f98	-0.1967758
142	0xbdc2b062	-0.095062986
143	0x3e1e2476	0.15443596
144	0x3e0f697e	0.14005086
145	0x3e40feaa	0.18847147
146	0xbde0d534	-0.10978165
147	0xbde7c461	-0.11316753
148	0x3e16040c	0.14649981
149	0xbe005f3d	-0.1253633
150	0xbdc01bd1	-0.093803056
151	0xbd8a1bec	-0.06743607
152	0xbe0f4eac	-0.13994855
153	0xbd4d79f2	-0.050165124
154	0x3d8ba879	0.06819243
155	0x3d24bbf2	0.0402183
156	0x3d78be8e	0.060728602
157	0xbdc099fc	-0.0940437
158	0x3d029c58	0.031887382
159	0x3e5592ca	0.20856777
160	0xbe1a4ab0	-0.15067554
161	0xbe272ca1	-0.16325618
162	0x3ddcc6a1	0.10780073
163	0xbde47385	-0.11154846
164	0x3d742b4e	0.05961161
165	0x3d93f5e0	0.07224631
166	0xbe2684f1	-0.1626165
167	0xbe38528f	-0.18000244
168	0xbe28db78	-0.1648997
169	0xbe5508e8	-0.20804179
170	0x3e06b119	0.13153495
171	0x3e35d76a	0.17757955
172	0xbda9ad3d	-0.08284996
173	0xbc9121ab	-0.01771625
174	0xbd8f907b	-0.07009979
175	0x3df8087f	0.121109955
176	0x3c832db0	0.016012996
177	0x3e151e77	0.14562403
178	0x3dd2e7b8	0.10298103
179	0xbe21eb5c	-0.15812439
180	0xbdaa229a	-0.08307381
181	0xbc8f7cdb	-0.01751559
182	0xbddac040	-0.106812
183	0x3cfc83a4	0.03082449
184	0xbd53e40c	-0.051731154
185	0x3e07d4be	0.13264748
186	0x3d0c4cdb	0.034252983
187	0xbe0475a7	-0.12935506
188	0xbe0a7d72	-0.13524416
189	0xbcb205fe	-0.021731373
190	0x3db4a04d	0.088196374
191	0x3e590bb1	0.21195866
192	0xbe4d4559	-0.20045985
193	0xbdcb64a7	-0.09931307
194	0x3e3c2a44	0.18375498
195	0xbe026187	-0.12732516
196	0xbc7ed254	-0.015553076
197	0x3e32c653	0.17458467
198	0x3c92e6bc	0.017932288
199	0xbdc7f065	-0.097626485
200	0xbe0f176e	-0.13973781
201	0xbdea813d	-0.114504315
202	0x3d5c77d1	0.053825203
203	0x3cbadb04	0.022809513
204	0xbca748ea	-0.02042051
205	0x3e2e253f	0.17006396
206	0xbe0f90a8	-0.14020026
207	0xbe1c8d90	-0.15288377
208	0xbdcaf4ca	-0.09909971
209	0x3c2fe310	0.010735288
210	0xbda9f19c	-0.082980365
211	0x3dd8e4f9	0.10590548
212	0x3d831257	0.063999824
213	0x3e407bfd	0.18797298
214	0x3de1df4b	0.11028918
215	0xbe06130c	-0.13093203
216	0xbd33eee6	-0.043929003
217	0xbe486975	-0.19571479
218	0xbe081968	-0.13290942
219	0xbe2e1bf6	-0.17002854
220	0x3d2434bf	0.040089365
221	0xbd261e2d	-0.04055612
222	0x3e02642d	0.12733527
223	0xbe09fdbb	-0.13475697
224	0xbd19e76e	-0.037574224
225	0x3ddd8ea4	0.10818222
226	0xbe09388b	-0.13400476
227	0x3e1d178b	0.15341012
228	0x3e0397d3	0.12850885
229	0x3e27d400	0.16389465
230	0xbd0be86f	-0.034157213
231	0xbdd7c22e	-0.10535084
232	0xbe19fc9c	-0.15037769
233	0x3e26af09	0.16277708
234	0xbd7b874c	-0.061408326
235	0xbe24db0d	-0.16099186
236	0xbd32d674	-0.04366155
237	0x3e4b2d4a	0.19841495
238	0xbe1cb9e1	-0.15305282
239	0xbe1d97f3	-0.15389995
240	0xbdcc517a	-0.09976478
241	0xbd7bfc51	-0.061519925
242	0x3dabde70	0.08392036
243	0xbdaf0553	-0.085459374
244	0x3d686641	0.056738142
245	0x3d1faff0	0.038986146
246	0x3d8f657e	0.0700178
247	0x3ce4e211	0.027939828
248	0x3dbd4ec7	0.09243541
249	0xbe2f5181	-0.17120935
250	0xbe0bc655	-0.13649876
251	0x3e08f004	0.13372809
252	0x3e03261c	0.12807506
253	0x3d952713	0.072828434
254	0xbe06acb8	-0.13151824
255	0xbe1318b7	-0.14364897

net.2.bias f4 [128]
0	0xbcd8e60e	-0.026476886
1	0x3d018c8a	0.03162817
2	0xbbad2497	-0.005283903
3	0x3e1c0d8d	0.15239544
4	0xbc01eba1	-0.007929713
5	0x3d862ab8	0.06551117
6	0xbdcb0b04	-0.099142104
7	0x3de37f4a	0.11108263
8	0xbc711787	-0.014715082
9	0xbdf242e8	-0.118291676
10	0x3d09c64c	0.033636376
11	0xbdd0d621	-0.10197092
12	0xbdd1e503	-0.10248759
13	0xbca5a2c8	-0.020219222
14	0xbdfab66e	-0.12241827
15	0x3bd86ff6	0.0066051437
16	0xbcaecc85	-0.021337757
17	0x3e102ba7	0.14079152
18	0xbe118f8e	-0.14214918
19	0xbe0a0902	-0.13479999
20	0xbcb5122e	-0.022103395
21	0xbe0c24d9	-0.13685931
22	0xbe0e0e61	-0.13872673
23	0xbdda8a83	-0.1067095
24	0x3c3ee13d	0.011650381
25	0x3dcb6c7a	0.099328
26	0xbdf7ba3d	-0.12096069
27	0x3df08f13	0.11746039
28	0xbcbb4c96	-0.022863667
29	0x3dc359d9	0.095386215
30	0x3d5c4d3c	0.053784594
31	0x3dd756d9	0.10514612
32	0xbbed39d6	-0.0072395606
33	0xbdeb22d0	-0.11481249
34	0xbddc3a16	-0.107532665
35	0xbe072af8	-0.13199985
36	0xbdb8f66b	-0.090313755
37	0x3b618a7e	0.0034414823
38	0xbd2cce3e	-0.042188875
39	0x3cac76a5	0.021052668
40	0xbe03c00f	-0.12866233
41	0xbdc700dd	-0.097169615
42	0x3cf7d251	0.030251654
43	0x3dddcd0f	0.108301274
44	0xbdde976b	-0.108687244
45	0xbdc90135	-0.09814683
46	0xbbed969a	-0.007250619
47	0xbc5991bb	-0.013279374
48	0xb9c765d2	-0.000380321
49	0xbdb2be3d	-0.08727691
50	0x3d963bf2	0.073356524
51	0xbe14ab58	-0.14518487
52	0xbdf7bcdb	-0.12096568
53	0xbd54d64f	-0.051962193
54	0xbdec60bd	-0.11541889
55	0x3d03c994	0.03217466
56	0x3dab874d	0.08375416
57	0x3dce67e6	0.10078411
58	0x3db93d14	0.09044853
59	0x3e1b9dd0	0.1519692
60	0x3d259b1d	0.04043113
61	0x3ceb71d7	0.028740807
62	0x3c722cf6	0.014781227
63	0x3cbc2d74	0.022970892
64	0x3dd61d3b	0.10454794
65	0x3cbf6092	0.023361478
66	0xbd69bb53	-0.057063412
67	0xbd090a02	-0.03345681
68	0xbbdd4dfb	-0.0067536808
69	0x3e08ad7b	0.13347428
70	0x3c38ca8a	0.011278758
71	0x395262e5	0.00020064002
72	0x3dbf7f67	0.09350472
73	0xbd3df4c7	-0.046376016
74	0xbd04ea9f	-0.032450315
75	0x3c9f87d6	0.019473951
76	0xbcde3623	-0.027125424
77	0x3da75205	0.08169941
78	0xbdb8288b	-0.08992108
79	0xbd835aaa	-0.06413777
80	0x3cae1c03	0.021253591
81	0x3cdebe66	0.027190398
82	0xbbce3b96	-0.0062937243
83	0x3ddfa623	0.1092036
84	0xbdde1043	-0.108429454
85	0x3e08a1d9	0.1334299
86	0xbd9c829b	-0.076420985
87	0xbdf60b87	-0.120139174
88	0xbc0f0262	-0.008728595
89	0xbbba0320	-0.005676642
90	0x3cab34fc	0.020899288
91	0xbe0a7efc	-0.13525003
92	0xbdb56a63	-0.08858182
93	0x3dc08e1a	0.09402104
94	0x3d0c9553	0.034322094
95	0x3cb4d3c0	0.022073627
96	0x3c49efdb	0.012325252
97	0xbe10667a	-0.14101592
98	0x3c6600f3	0.014038312
99	0x3dc8731b	0.097875796
100	0xbe16c2cd	-0.14722748
101	0x3c03a82b	0.0080357
102	0xbdb60cc1	-0.08889151
103	0x3de22561	0.11042286
104	0x3dd2887f	0.10279941
105	0x3dff726f	0.12472998
106	0x3d9dadee	0.0769919
107	0x3b82ac5e	0.003987833
108	0xbd7564ab	-0.059910458
109	0x3dd30b6f	0.10304915
110	0x3d4197f5	0.04726406
111	0x3dadd298	0.08487433
112	0x3d2527bc	0.040321097
113	0xbaa2ae3f	-0.0012411549
114	0xbd4f4b92	-0.05060918
115	0x3da7f70a	0.08201416
116	0x3de7c48e	0.11316787
117	0xbdf41146	-0.11917357
118	0x3b3ff290	0.0029288866
119	0x3e21bdfb	0.15795128
120	0x3d9aaec7	0.075528674
121	0xbe0ebacc	-0.13938445
122	0xbd464943	-0.04840971
123	0x3d90313e	0.07040642
124	0x3d8aff47	0.067869715
125	0xbd6eb696	-0.058279596
126	0xbd4c800f	-0.049926814
127	0xbcc491dc	-0.023995332
