runs/checkpoint_e090.pt (torch, 158519 bytes, 12 tensors)

net.0.weight f4 [128, 18]
0	0x3f1ec5bc	0.6202047
1	0xbd260d47	-0.040540006
2	0xbe1e261b	-0.15444224
3	0xbe5b42ef	-0.21412252
4	0xba60929c	-0.00085667684
5	0xbc875266	-0.016518783
6	0x3e98ea89	0.29866436
7	0xbe254a68	-0.16141665
8	0x3e0d0bf8	0.13774097
9	0x3e6b8222	0.2299886
10	0x3d8e9118	0.06961268
11	0xbd7efec6	-0.06225469
12	0x3f0b4b49	0.5441175
13	0x3e993fdf	0.29931542
14	0x3e0366c1	0.12832166
15	0xbd8cfc0e	-0.06884013
16	0xbe3fd66c	-0.18734139
17	0x3decd4cf	0.115640275
18	0x3ed09b79	0.40743616
19	0x3ed24e1e	0.41075224
20	0x3e1e0b50	0.15434003
21	0x3d370675	0.044683892
22	0x3d1e5b67	0.038661387
23	0xbe368f28	-0.17828047
24	0x3f14d8b3	0.58143157
25	0x3ea57c1c	0.3232125
26	0xbe45f8bb	-0.19333164
27	0xbdf06332	-0.1173767
28	0x3e6a30d2	0.22870186
29	0xbbf38301	-0.0074313884
30	0x3eeb21c5	0.45924202
31	0x3e4e0ad7	0.20121323
32	0xbe157400	-0.14595032
33	0xbdc6fe91	-0.097165234
34	0x3e592e8c	0.21209162
35	0x3c87b2be	0.016564723
36	0xbedc6b73	-0.43050727
37	0xbed3ff46	-0.41405696
38	0xbe30be60	-0.17260122
39	0xbd8320b7	-0.06402724
40	0xbdab4276	-0.08362286
41	0x3de906f6	0.11378281
42	0x3be52aee	0.006993643
43	0x3ef1b483	0.47208032
44	0x3d3e23e7	0.046420958
45	0x3d2d5edb	0.04232679
46	0xbdb2777b	-0.08714195
47	0x3e5b7616	0.21431765
48	0x3e667067	0.22503816
49	0x3ed5914c	0.41712415
50	0x3d343e37	0.044004645
51	0xbe20e053	-0.15710573
52	0xbc53fa52	-0.012938099
53	0x3c0e6a6d	0.008692366
54	0x3f17a911	0.5924235
55	0x3eeeee2a	0.4666608
56	0xbdb75da2	-0.08953406
57	0x3e316bbd	0.17326255
58	0x3e010794	0.12600547
59	0xbd2351d7	-0.03987297
60	0x3ef38948	0.47565675
61	0x3f00c83d	0.5030554
62	0x3e3d1341	0.18464376
63	0x3d0a683d	0.033790816
64	0x3d371236	0.0446951
65	0xbd9a11b2	-0.07522906
66	0x3e961765	0.29314724
67	0xbd0706ae	-0.032965355
68	0x3ce4a8db	0.027912548
69	0xbe4f8ba6	-0.20268115
70	0xbe22842f	-0.15870737
71	0xbd01ab4e	-0.03165751
72	0xbe10f040	-0.14154148
73	0x3e28fe6e	0.16503307
74	0xbda25397	-0.079261
75	0xbcae2724	-0.021258898
76	0x3e35a8fe	0.17740247
77	0xbe1bcd82	-0.15215114
78	0xbdf3bbab	-0.11901029
79	0x3d8c51bd	0.06851528
80	0x3daa2643	0.08308079
81	0xbe24ff2a	-0.16112962
82	0x3ca6af6b	0.020347318
83	0x3e6fdfd6	0.2342523
84	0xbe260bee	-0.16215488
85	0xbf0471d3	-0.5173618
86	0xbe518766	-0.20461807
87	0x3e279b34	0.16367799
88	0x3e69cd48	0.22832215
89	0x3e70a580	0.23500633
90	0xbccc9672	-0.024974082
91	0xbe1fd551	-0.15608718
92	0xbe164baa	-0.14677301
93	0xbe1a2cc3	-0.15056138
94	0xbd165888	-0.036705524
95	0x3dfce83b	0.12348982
96	0x3ed6f414	0.41983092
97	0x3f096ac1	0.5367852
98	0x3e5049ea	0.20340696
99	0xbd806bc8	-0.06270558
100	0x3e4de31d	0.20106168
101	0xbe1a2314	-0.15052444
102	0xbe455a27	-0.19272672
103	0xbe94a53d	-0.29032317
104	0xbdeec8ac	-0.11659369
105	0x3e26057e	0.16213033
106	0xbd803edd	-0.0626199
107	0x3e2e7311	0.17036082
108	0xbf1bb587	-0.60823864
109	0xbe943f67	-0.28954622
110	0x3d949c59	0.072563834
111	0x3ba32c19	0.004979622
112	0xbd0d31a6	-0.034471177
113	0x3e09dcc8	0.13463128
114	0xbe16803d	-0.14697357
115	0x3d9493b9	0.07254738
116	0x3de691ae	0.11258255
117	0x3e698835	0.22805865
118	0x3d1b58ce	0.037926488
119	0xbe4d94e2	-0.20076326
120	0x3cb1732c	0.021661364
121	0x3f1232b4	0.57108617
122	0x3dc1f56d	0.094706394
123	0x3e183513	0.14863996
124	0x3e0cb8a7	0.13742314
125	0x3d68d85e	0.05684697
126	0x3de2e6d3	0.110791825
127	0x3d373e01	0.044736866
128	0x3e154855	0.14578374
129	0xbe495e2d	-0.19664831
130	0xbe341869	-0.17587437
131	0x3dfab04a	0.12240656
132	0xbd06e6b2	-0.032934852
133	0x3e3431ae	0.17597076
134	0x3dda23e0	0.10651374
135	0xbe35c9bd	-0.17752738
136	0xbdb67b24	-0.08910206
137	0x3e41560b	0.18880479
138	0x3d805236	0.062656805
139	0xbedf5f15	-0.4362723
140	0xbd8c52ad	-0.06851707
141	0x3e379834	0.17929155
142	0x3e115d4b	0.14195745
143	0xbc715555	-0.014729817
144	0xbd451c53	-0.048122715
145	0xbde69897	-0.11259573
146	0x3e31436e	0.17310879
147	0x3e3d1862	0.18466333
148	0x3e10db3a	0.14146128
149	0xbc8fe5ca	-0.017565627
150	0x3d905ef2	0.070493594
151	0xbe621e66	-0.22081909
152	0xbb050795	-0.0020298709
153	0xbe010fab	-0.12603633
154	0xbe4b2be9	-0.19840969
155	0x3e42ad1a	0.19011346
156	0x3e62f041	0.22161962
157	0x3ebffc11	0.37497
158	0xbd3c1b0d	-0.045924235
159	0xbe0671b0	-0.13129306
160	0xbe6a7b06	-0.22898492
161	0x3c4032f7	0.011730901
162	0xbd98f9b3	-0.07469501
163	0xbde08e9f	-0.10964703
164	0xbe23be5b	-0.15990584
165	0x3ccf5a63	0.025311654
166	0x3e6f17c6	0.23348913
167	0xbbf9385c	-0.0076055955
168	0xbe802f50	-0.25036097
169	0xbf0f0fe2	-0.5588361
170	0x3e1c8d0c	0.1528818
171	0x3e183fb6	0.14868054
172	0x3decc30f	0.11560642
173	0x3e6e8bce	0.23295519
174	0x3dc17b31	0.09447325
175	0x3ec5e839	0.38653734
176	0xbe0fa1c3	-0.14026551
177	0xbe071c12	-0.13194302
178	0x3e2bf662	0.16793206
179	0x3d1cce65	0.03828277
180	0x3e85a79b	0.26104435
181	0x3f0c38ad	0.5477398
182	0x3d23b8f6	0.039971314
183	0x3e57f342	0.21088889
184	0xbe08e723	-0.13369422
185	0xbe2ac371	-0.16676117
186	0x3eed10f0	0.46301985
187	0xbd8ee141	-0.069765575
188	0xbc0b840e	-0.008515371
189	0xbe0625ac	-0.13100308
190	0x3e1f1f4a	0.1553928
191	0xbe019e5d	-0.12658067
192	0x3e2183be	0.15772912
193	0x3bdbd277	0.006708439
194	0xbe3cdc52	-0.1844342
195	0xbe3e75bf	-0.18599604
196	0xbe651100	-0.22369766
197	0xbe03b4d7	-0.12861954
198	0xbc727e4c	-0.014800619
199	0x3c20fe64	0.009826276
200	0x3e6319e6	0.22177848
201	0x3e355334	0.1770752
202	0x3e475343	0.19465356
203	0x3d783e7c	0.060606465
204	0xbed5bb09	-0.4174426
205	0xbf0a9bca	-0.54143965
206	0xbd81be22	-0.06335093
207	0xbe24b074	-0.16082937
208	0xbd1d6e6f	-0.038435396
209	0x3e0ddb04	0.13853079
210	0x3d5a7452	0.053333588
211	0x3ec4a5cb	0.3840774
212	0xbd8438c9	-0.064561434
213	0xbd2afc81	-0.041744713
214	0xbe269297	-0.16266857
215	0xbded81e7	-0.115970425
216	0x3f1a2fa3	0.6022894
217	0x3eb5c7b4	0.35503924
218	0x3d192248	0.03738621
219	0xbe44e38f	-0.19227432
220	0xbe3f2d5c	-0.18669647
221	0x3e4348c0	0.1907072
222	0x3ebdbe05	0.37059036
223	0x3e2bb25e	0.1676726
224	0xbd669066	-0.056290053
225	0x3e3c2ee0	0.18377256
226	0xbe202107	-0.15637599
227	0xbe274515	-0.16334946
228	0x3eba3a1d	0.36372462
229	0x3ee5109a	0.44739228
230	0xbd8a7ce0	-0.06762099
231	0x3da0e3f8	0.078559816
232	0x3cb6f9c2	0.02233589
233	0xbcca4e81	-0.024695637
234	0xbd05c314	-0.032656744
235	0xbee71d61	-0.45139602
236	0x3e54b256	0.20771155
237	0x3e164742	0.1467562
238	0x3e0c5908	0.13705838
239	0x3e302b10	0.17203927
240	0x3ef46da2	0.47739893
241	0x3f07f7f3	0.53112715
242	0x3e3fd048	0.18731797
243	0xbe052378	-0.13001812
244	0x3c721733	0.014776039
245	0xbd5bcd8e	-0.05366283
246	0xbc5e4080	-0.013565183
247	0x3f0421d7	0.51614136
248	0x3e483037	0.19549643
249	0x3e6ed2d5	0.23322614
250	0x3e3e0b5d	0.18559022
251	0x3d9e932d	0.07742915
252	0x3e90f450	0.28311396
253	0x3e2a8e72	0.16655901
254	0xbd7d7d60	-0.061887145
255	0x3cd2d81d	0.025737816

net.0.bias f4 [128]
0	0xbe60e927	-0.2196394
1	0x3dafe223	0.08588054
2	0xbce3ba2e	-0.027798738
3	0xbd27d1ca	-0.040971555
4	0xbdaef6a6	-0.08543138
5	0x3d7b6224	0.06137289
6	0x3cbd967d	0.023143047
7	0xbe2020f0	-0.15637565
8	0xbdb0f46c	-0.0864037
9	0xbc730f3c	-0.014835175
10	0x3e4a4124	0.19751412
11	0x3d9048ed	0.070451595
12	0xbe20312d	-0.15643759
13	0xbd84a67a	-0.064770654
14	0xbe35938f	-0.1773207
15	0xbe321f90	-0.17394853
16	0x3e30218c	0.17200297
17	0xbc2737e1	-0.010206194
18	0x3e3658c5	0.178073
19	0xbd93251e	-0.07184814
20	0x3e20138a	0.15632454
21	0x3e511812	0.20419338
22	0x3d834845	0.06410269
23	0x3e0c5d10	0.13707376
24	0x3d8742a8	0.066045105
25	0xbd284f5c	-0.041091308
26	0xbb816967	-0.0039493325
27	0xbe320d94	-0.17387992
28	0xbc63b2b4	-0.013897587
29	0x3d19eccd	0.037579346
30	0x3d886bfd	0.06661222
31	0xbe465226	-0.19367275
32	0x3e4a413e	0.1975145
33	0xbe0d53e5	-0.13801534
34	0x3e5140fc	0.20434946
35	0xbdece0ee	-0.115663394
36	0x3d48ad7e	0.04899358
37	0xbd9f5507	-0.077798896
38	0x3e419ef7	0.18908297
39	0x3d7c4cbe	0.061596625
40	0xbd4c0c73	-0.04981656
41	0xbe60f6e8	-0.21969187
42	0xbcba30e9	-0.0227284
43	0x3dd71fbc	0.105041
44	0x3ddb9430	0.10721624
45	0x3e189c40	0.14903355
46	0x3e4597a9	0.19296135
47	0xbd30d814	-0.04317482
48	0xbe341eeb	-0.1758992
49	0x3ce35a3d	0.02775299
50	0xbdea2198	-0.11432189
51	0x3e696b93	0.22794943
52	0xbe32243d	-0.17396636
53	0x3e52bc6c	0.2057969
54	0x3e3e6fad	0.18597288
55	0xbe386044	-0.18005472
56	0xbe265bee	-0.16246006
57	0x3e31d75e	0.17367312
58	0x3da23a65	0.07921294
59	0xbb87bd1a	-0.0041424157
60	0xbdf9df05	-0.12200741
61	0xbd18fe7a	-0.037352063
62	0x3e5b7684	0.21431929
63	0xbe0f5e69	-0.14000858
64	0x3e3347a5	0.17507799
65	0x3dcafb68	0.09911233
66	0xbdbf220b	-0.09332665
67	0xbe593fd7	-0.21215759
68	0xbe45b401	-0.19306947
69	0xbe582b91	-0.2111037
70	0xbd937c5a	-0.072014526
71	0xbdb0add1	-0.08626903
72	0x3d077ac2	0.033076055
73	0x3e445578	0.19173229
74	0x3e2aeb48	0.16691315
75	0xbd5c18f5	-0.05373474
76	0x3deae6df	0.114698164
77	0x3dfd4259	0.123661704
78	0xbdfe4b3a	-0.12416692
79	0xbd76b2a1	-0.060228948
80	0xbe1953f5	-0.14973433
81	0xbe5d2b9e	-0.2159867
82	0xbd943540	-0.07236719
83	0x3e474f82	0.19463924
84	0x3d85278d	0.06501684
85	0xbe2b3d6b	-0.16722648
86	0x3d9b402a	0.07580598
87	0xbd594261	-0.05304182
88	0x3e2ea8ff	0.17056654
89	0x3e4fdf00	0.20299911
90	0x3d9d40eb	0.07678398
91	0x3dc7d11c	0.09756681
92	0xbd317359	-0.043322895
93	0x3d871968	0.06596643
94	0xbe557700	-0.20846176
95	0x3ceb7f17	0.028747125
96	0xbe1e3dd6	-0.15453276
97	0x3d0242f9	0.03180215
98	0xbd37042e	-0.04468172
99	0x3d2c327e	0.04204034
100	0x3e5d3d21	0.2160535
101	0xbd9e0d1a	-0.07717343
102	0xbdf749c7	-0.12074619
103	0xbe229aa1	-0.15879299
104	0xbe1e52a2	-0.1546121
105	0x3e0c634d	0.13709755
106	0xbe5a1cab	-0.21299998
107	0xbd566880	-0.052345753
108	0xbe341903	-0.17587666
109	0x3e375645	0.17904003
110	0xbd956673	-0.07294931
111	0xbd8b7000	-0.06808472
112	0x3dbf7e50	0.09350264
113	0xbe5e680f	-0.21719383
114	0xbe379348	-0.17927277
115	0xbe1350fc	-0.14386362
116	0xbd9a691e	-0.07539581
117	0xbe13e219	-0.14441718
118	0x3e5f8c97	0.21830975
119	0xbe095ebd	-0.13415046
120	0x3c071a39	0.008245998
121	0xbd93f04b	-0.072235666
122	0xbd7beda1	-0.061505917
123	0xbe22a5b2	-0.1588352
124	0xbd2d991d	-0.04238235
125	0xbd4634a8	-0.04839006
126	0xbd186afe	-0.03721141
127	0xbe460d50	-0.19341016

net.2.weight f4 [128, 128]
0	0x3ca90810	0.020633727
1	0x3bd755d2	0.00657151
2	0xbdfabfd2	-0.12243618
3	0xbcfb7737	-0.030696495
4	0xbcf99870	-0.030468196
5	0xbd9ed714	-0.07755867
6	0xbdc85c7c	-0.09783265
7	0x3cf32c8e	0.029684331
8	0x3d80b232	0.06283988
9	0x3cd57ce7	0.026060535
10	0xbd43b598	-0.047780603
11	0x3ca054f2	0.019571755
12	0x3c91cf25	0.01779897
13	0xbddf19e3	-0.108936094
14	0x3c34ad94	0.011027712
15	0xbcaa2143	-0.020767814
16	0x3da351b1	0.07974566
17	0x3d2e5195	0.04255827
18	0x3cd5fd83	0.02612186
19	0x39ccd9f6	0.00039072306
20	0x3de85b37	0.11345523
21	0x3d34057a	0.043950535
22	0x3cfc9675	0.030833462
23	0x3c22b091	0.009929792
24	0x3a0c4684	0.0005351084
25	0x3d1345ad	0.03595512
26	0x3e2b4752	0.16726425
27	0xbdaa5120	-0.083162546
28	0xbd2e6794	-0.04257925
29	0x3d220060	0.03955114
30	0x3d906eff	0.07052421
31	0x3d40a1c2	0.047029264
32	0x3ddb5f53	0.10711541
33	0xbd1ce34d	-0.03830271
34	0x3ac50171	0.0015030337
35	0xbd9d1c2f	-0.07671391
36	0x3cb3d61b	0.02195268
37	0xbdf988c8	-0.12184292
38	0x3d75c6c0	0.060003996
39	0xbc125441	-0.0089312205
40	0x3e0c0d78	0.13677013
41	0xbced4ba5	-0.028966734
42	0xbd79c51c	-0.060978994
43	0xbc93c1d9	-0.01803677
44	0xbd8a8a17	-0.0676462
45	0xbd85992f	-0.06523358
46	0xba8fda1e	-0.0010975038
47	0xbd99c5e1	-0.075084455
48	0x3d94be58	0.07262868
49	0xbe0e97cc	-0.13925093
50	0x3d86a724	0.06574848
51	0x3d812c87	0.06307321
52	0x3d97654f	0.0739237
53	0xbc88da33	-0.016705608
54	0xbdb1afa2	-0.086760774
55	0xbcbb0c24	-0.022832938
56	0x3d8eb3db	0.069678985
57	0xbd9fdbdf	-0.07805609
58	0x3c2745ab	0.010209481
59	0xbdc97a3b	-0.09837767
60	0x3de308c9	0.1108566
61	0xbe16b4c8	-0.147174
62	0x3dcc7d09	0.09984786
63	0xbb2deffd	-0.002654075
64	0xbdcbbb5c	-0.09947845
65	0xbdc5b168	-0.09652978
66	0xbc592227	-0.013252771
67	0x3d8e25cf	0.06940805
68	0x3c0c8896	0.0085774865
69	0x3d9dad10	0.07699025
70	0xbc2db1d3	-0.010601479
71	0xbaf41544	-0.001862206
72	0xbd2c6135	-0.04208489
73	0xbc648222	-0.013947042
74	0xbc98ffdf	-0.018676696
75	0x3d5f59b7	0.054528918
76	0x3c14c241	0.009079517
77	0xbd889695	-0.06669346
78	0xbc01f4ff	-0.007931947
79	0xbc10479b	-0.008806135
80	0x3cd337ea	0.025783498
81	0xbd7f6b9e	-0.06235849
82	0xbdc07ed7	-0.09399193
83	0xbd0bbb52	-0.03411419
84	0xbd006ce0	-0.03135383
85	0xbdae9672	-0.08524789
86	0x3a28ee50	0.0006444203
87	0x3d04b8d2	0.03240282
88	0x3be96141	0.0071221893
89	0xbc3dd4b8	-0.011586361
90	0xbce33149	-0.027733462
91	0xbd385e13	-0.04501159
92	0xbd0813a8	-0.03322187
93	0x3e0ba469	0.13636936
94	0x37fa745a	2.9856503e-05
95	0x3da9fc70	0.08300102
96	0xbc94a0f1	-0.01814315
97	0x3ceade59	0.028670477
98	0x3cc60168	0.024170592
99	0xbb0a2a3f	-0.002108231
100	0x3a06a298	0.00051359227
101	0xbcd37405	-0.025812158
102	0x3df7c03b	0.12097212
103	0x3d708101	0.058716778
104	0x3e02409e	0.12719962
105	0x3d969213	0.0735208
106	0x3d868532	0.06568374
107	0x3c732f0b	0.014842759
108	0xba890495	-0.0010453636
109	0x3d8035dd	0.062602736
110	0xbd8a6fc4	-0.06759599
111	0x3d5cf979	0.053948853
112	0x3b204f06	0.0024461164
113	0xbddd1b76	-0.107962534
114	0x3c8cdb81	0.017194511
115	0x3bc4b5e2	0.0060031274
116	0xbc29c374	-0.010361541
117	0x3dafe338	0.085882604
118	0x3db598d2	0.08867039
119	0xbdb566ab	-0.08857473
120	0xbd663b10	-0.05620867
121	0xbb7574f9	-0.0037453754
122	0xbd6c090f	-0.057625826
123	0xbdc1e873	-0.09468164
124	0x3bd35d47	0.0064503285
125	0xbc15da3b	-0.0091462685
126	0x3d1f08a8	0.038826615
127	0x3c88cadd	0.016698295
128	0xbc66297c	-0.014047977
129	0x3d810a5f	0.06300806
130	0xbd80118a	-0.06253345
131	0x3e0d2de5	0.13787039
132	0x3d41df07	0.047331836
133	0xbc2b7a7d	-0.010466215
134	0x3d0dbb59	0.034602497
135	0xbdafcc78	-0.08583921
136	0x3d0b54ba	0.03401635
137	0xbdc9d3d7	-0.09854858
138	0x3dbf4fb2	0.093413725
139	0xbd675f19	-0.056487177
140	0xbcd8835f	-0.02642983
141	0xbd0c79b6	-0.03429576
142	0xbd1a9a3f	-0.037744757
143	0x3dd85516	0.10563104
144	0x3caa5d16	0.02079634
145	0x3d931cbd	0.07183216
146	0xbdc3076d	-0.09522901
147	0xbd709847	-0.058738973
148	0x3c650661	0.013978572
149	0xbb208b94	-0.0024497258
150	0x3df3323b	0.11874815
151	0x3d873a7e	0.066029534
152	0xbab1850f	-0.0013543683
153	0x3d2ebe2e	0.04266184
154	0x3e3584f1	0.17726494
155	0x3cdf3355	0.027246157
156	0xbcba6dd3	-0.022757446
157	0x3d216580	0.03940344
158	0x3b906485	0.004406514
159	0xbbea1ecd	-0.007144785
160	0x3d850333	0.06494751
161	0x3bd268b8	0.006421175
162	0x3c8cadd2	0.017172728
163	0x3ca62f48	0.020286217
164	0x3cc906ed	0.024539435
165	0x3cca9574	0.024729468
166	0x3c530893	0.012880462
167	0xbc9b405b	-0.018951586
168	0xbcdb40b3	-0.02676425
169	0xbd0ac5c7	-0.03388002
170	0x3da56d4f	0.080774896
171	0x3c8155bb	0.01578795
172	0x3c96efb2	0.018424843
173	0xbcf73b6d	-0.030179704
174	0x3bd3c4fd	0.006462692
175	0xbd794201	-0.06085396
176	0x3d862412	0.065498486
177	0x3b9383e9	0.004501809
178	0xbd0ccb4c	-0.034373567
179	0xbd006ae2	-0.03135193
180	0xbdcf197d	-0.101122834
181	0xbd436537	-0.047703948
182	0xbce68e54	-0.02814404
183	0x3c44b77c	0.012006637
184	0xbda92cbc	-0.082604855
185	0xbc48934a	-0.012242148
186	0x3d362008	0.04446414
187	0x3c700ad9	0.014651024
188	0x3d2fac75	0.042889077
189	0xbbe98a5c	-0.0071270894
190	0xbcb0f702	-0.021602158
191	0x3cb536ab	0.022120794
192	0x3d9d3312	0.076757565
193	0xbd408874	-0.04700513
194	0x3d132cdf	0.035931464
195	0x3dc2e147	0.095156245
196	0xbcaebfa0	-0.021331608
197	0x3ba3d970	0.005000286
198	0xbe0f83d8	-0.14015138
199	0xbc34752a	-0.011014262
200	0xbe1420f9	-0.14465703
201	0x3d556abf	0.052103754
202	0xbd284b3a	-0.041087367
203	0x3df0cbcd	0.11757622
204	0xbda6657a	-0.08124824
205	0xbdbfe230	-0.09369314
206	0xbdf92b1b	-0.12166425
207	0xbcebdacd	-0.028790856
208	0xbdc05213	-0.093906544
209	0xbd857d1e	-0.06518005
210	0xbd8cacb2	-0.068688765
211	0x3d4fc66b	0.050726335
212	0xbdc416eb	-0.09574684
213	0xbd031bd3	-0.032008957
214	0x3db6cfb5	0.08926336
215	0xbc291718	-0.010320447
216	0xbd9bb7b5	-0.07603399
217	0xbd8f4829	-0.06996185
218	0xbc6151fe	-0.013752459
219	0xbe04cfe9	-0.12969936
220	0x3cd91162	0.026497547
221	0x3e09a298	0.13440931
222	0xbcf66a98	-0.030080125
223	0x3d428bf6	0.04749676
224	0x3d28305f	0.041061755
225	0xbd1822c4	-0.03714253
226	0xbe1fc708	-0.15603268
227	0x3d3896c6	0.045065664
228	0xbc7eecbc	-0.015559372
229	0xbda07d79	-0.07836432
230	0x3da8b701	0.0823803
231	0xbc27c4f9	-0.010239833
232	0x3dc28a5f	0.094990484
233	0xbd35e25f	-0.044405337
234	0x3d86714c	0.065645784
235	0xbca97340	-0.020684838
236	0x3d7c3f76	0.06158396
237	0xbd635518	-0.055501074
238	0xbdccff07	-0.1000958
239	0xbcf618f0	-0.030041188
240	0x3da0a625	0.078441896
241	0xbd16d5f5	-0.03682514
242	0x3de0824d	0.10962353
243	0xbd42c059	-0.04754672
244	0xbd42af39	-0.047530387
245	0x3d151751	0.03639919
246	0xbda684cd	-0.081307985
247	0xbd86b681	-0.065777786
248	0xbcc7bb30	-0.02438125
249	0x3d80964d	0.062786676
250	0x3da4bafa	0.080434754
251	0xbd8efb3e	-0.069815144
252	0xbda134b2	-0.07871379
253	0x3dfd1971	0.12358368
254	0xbd46f546	-0.048573755
255	0x3d1da1f7	0.03848454

net.2.bias f4 [128]
0	0xbcecf13d	-0.028923625
1	0xbd762d6f	-0.060101923
2	0x3db916ab	0.09037527
3	0xbc4df891	-0.01257147
4	0x3d0313c2	0.032001264
5	0x3d2f055f	0.04272973
6	0xbd72b00b	-0.05924992
7	0x3cc0cafa	0.023534287
8	0x3d3c08df	0.045906898
9	0x3d61ba88	0.05510953
10	0xbd139e25	-0.03603949
11	0x3daae3e7	0.0834425
12	0xbd823c0f	-0.063591115
13	0xbdb6156f	-0.08890807
14	0xbbc7991a	-0.006091249
15	0x3d2c7e9f	0.042112943
16	0x3d9b98cc	0.07597503
17	0x3db43937	0.08799975
18	0x3d86750c	0.06565294
19	0x3d91533a	0.07095952
20	0x3d0d82ac	0.034548447
21	0x3c89e7ca	0.016834158
22	0xbd107cb3	-0.035275172
23	0xbcb976b9	-0.02263962
24	0xbdbc63f9	-0.09198756
25	0x3ceeff1a	0.029174376
26	0xbd921007	-0.07131963
27	0x3d5ea3bb	0.054355364
28	0xbd591b79	-0.053004716
29	0xba98c632	-0.0011655746
30	0xbbbdb848	-0.0057897903
31	0xbcbd0a4c	-0.023076199
32	0xbd9e9e56	-0.07745044
33	0x3dab14d0	0.08353579
34	0xbc52d862	-0.0128689725
35	0x3c3c47fe	0.011491774
36	0x3d405b9d	0.04696237
37	0xbbad86d1	-0.0052956124
38	0x3d37431e	0.044741742
39	0x3cbc0d21	0.02295548
40	0xbd3fa960	-0.046792388
41	0x3d7cd342	0.06172491
42	0x3d8c6dc7	0.06856876
43	0x3d9cca34	0.07655755
44	0x3d514033	0.051086616
45	0x3d661403	0.05617143
46	0x3d913983	0.070910476
47	0x3b3163d7	0.0027067566
48	0x3cdf1ef0	0.027236432
49	0xbb53d38c	-0.0032322137
50	0x3d44d155	0.048051197
51	0xbc485d06	-0.01222921
52	0x3cc81587	0.024424328
53	0xbd2f55f9	-0.0428066
54	0xbd6cc447	-0.057804372
55	0x3b9b91ce	0.004747606
56	0x3db20428	0.08692199
57	0x3bcf14a4	0.006319599
58	0x3d8de858	0.06929082
59	0x3d9dbacb	0.077016436
60	0xbd8f6213	-0.07001128
61	0x3d959a68	0.07304841
62	0xbd9fc2dc	-0.07800838
63	0x3b664456	0.0035135946
64	0xbd7b3dc8	-0.061338216
65	0x3d8f5e5b	0.07000419
66	0x3d7f98c4	0.062401548
67	0x3befab61	0.007314131
68	0x3d97be91	0.074093945
69	0x3d36234a	0.044467248
70	0xbc98f068	-0.018669322
71	0xbd98df90	-0.07464516
72	0x3d742934	0.059609607
73	0xbd27b0d6	-0.04094013
74	0xbd774a2b	-0.060373466
75	0x3d8b91a6	0.068148896
76	0x3d945e3c	0.07244536
77	0xbdb970ad	-0.09054694
78	0xbd7c3eb6	-0.061583243
79	0xbb9b2e5b	-0.0047357506
80	0x3c95513f	0.018227218
81	0x3d9ef5e3	0.07761743
82	0x3ce9467e	0.028475996
83	0xbd05b0d3	-0.032639336
84	0x3d61fadc	0.05517088
85	0x3d03b0c7	0.03215101
86	0xbdaee9f0	-0.08540714
87	0xbc69a48a	-0.014260421
88	0x3d4f2bb0	0.050578773
89	0xbcf71431	-0.030160995
90	0xbd8ed88a	-0.06974895
91	0xbda430a4	-0.0801709
92	0xbb1aa361	-0.0023595917
93	0xbc33236c	-0.010933738
94	0xbd7831bf	-0.060594317
95	0xbd84f340	-0.06491709
96	0x3db72112	0.089418545
97	0x3d6da3bb	0.058017474
98	0x3d213a8e	0.039362483
99	0x3dbc18bd	0.09184406
100	0xbbd87641	-0.006605894
101	0x3d712a48	0.058878213
102	0x3d7b10f4	0.061295465
103	0xb93151f6	-0.00016910568
104	0xbd2be053	-0.04196198
105	0xbc73b597	-0.014874837
106	0x3d5399dc	0.051660404
107	0x3c1e5364	0.009663437
108	0xbd9cd721	-0.0765822
109	0xbd814ac6	-0.0631309
110	0x3d5d8d8c	0.054090068
111	0x3d112a00	0.035440445
112	0xbd278cdc	-0.04090582
113	0x3d449490	0.047993243
114	0x3d34b625	0.04411902
115	0x3cc63a40	0.024197698
116	0xbdb07cdb	-0.08617564
117	0xbbd5f9a2	-0.0065300027
118	0xbc3f9511	-0.011693255
119	0xbd6fa13f	-0.058503386
120	0x3d1aad66	0.037763022
121	0xbd4d8239	-0.050173018
122	0xbd93258e	-0.07184897
123	0xbc9010c1	-0.017586114
124	0xbda1f33e	-0.07907723
125	0x3d920cbf	0.071313374
126	0x3d9f8043	0.07788136
127	0xbd10180b	-0.03517918

net.4.weight f4 [3, 128]
0	0xbe481449	-0.19538988
1	0xbe0d2571	-0.13783814
2	0x3e9c0486	0.304722
3	0xbde2a269	-0.110661335
4	0xbcbeb0d0	-0.02327767
5	0xbe056323	-0.13026099
6	0x3d54c063	0.051941287
7	0xbe13a360	-0.14417791
8	0x3da8f9f4	0.082508
9	0x3c4e2e59	0.012584292
10	0xbe2ada55	-0.1668485
11	0x3e1bd436	0.15217671
12	0x3e03d8d9	0.1287569
13	0xbe38a557	-0.18031822
14	0x3c8309cc	0.015995882
15	0xbe28dd11	-0.1649058
16	0x3db44bbd	0.088035084
17	0xbaafc0fd	-0.0013408955
18	0xbdd33349	-0.10312516
19	0x3de15b75	0.11003772
20	0x3de6b86f	0.11265647
21	0x3d5a2c6b	0.053265017
22	0xbe213caf	-0.15745805
23	0xbdd2d015	-0.10293595
24	0xbe442a23	-0.19156699
25	0x3e278fdd	0.16363473
26	0x3e9c7581	0.30558398
27	0xbe006433	-0.12538223
28	0x3e82c5e8	0.25541615
29	0x3df33ffa	0.11877437
30	0x3e604d6f	0.21904539
31	0xbe2a5bec	-0.16636628
32	0xbe114cc6	-0.14189443
33	0x3e1b7e2b	0.15184848
34	0xbd8901b2	-0.066897765
35	0xbdef130e	-0.11673556
36	0xbe2ca545	-0.1685992
37	0xbd747156	-0.059678398
38	0x3df18669	0.11793215
39	0x3d8d3720	0.0689528
40	0xbc52d3a0	-0.012867838
41	0x3dd037f2	0.10166921
42	0xbe20bb1b	-0.15696375
43	0x3e1f441d	0.15553327
44	0x3df90f05	0.12161068
45	0xbe571a0b	-0.21006028
46	0xbe1b2f98	-0.15154874
47	0xbdddda62	-0.10832669
48	0x3e783064	0.2423721
49	0xbe9378d8	-0.28803134
50	0xbc61863b	-0.013764913
51	0xbe37179d	-0.17880102
52	0xbe2b4b09	-0.16727842
53	0x3e8d4efb	0.2759932
54	0x3e11c659	0.1423582
55	0x3de06d6a	0.10958369
56	0x3e59e26f	0.21277784
57	0xbb94ac6d	-0.0045371563
58	0x3d997ca3	0.07494476
59	0x3d2960d2	0.0413521
60	0x3e020cf6	0.12700257
61	0x3e07c9af	0.1326053
62	0xbe01e2b1	-0.12684132
63	0xbdcb73a0	-0.09934163
64	0x3d81870c	0.06324586
65	0xbd4562d4	-0.048189953
66	0x3dc46e83	0.09591391
67	0xbdaefdfb	-0.08544537
68	0x3df14430	0.11780584
69	0xbe386f39	-0.18011178
70	0xbe14f569	-0.14546742
71	0x3d60379b	0.05474053
72	0xbc6b5ce3	-0.014365408
73	0x3d95abaa	0.07308133
74	0x3e293c7e	0.16526982
75	0xbe76abac	-0.24088925
76	0x3cbf2dc7	0.023337258
77	0x3e1e5af6	0.15464386
78	0x3d4a9fb3	0.049468707
79	0x3d9f9f7e	0.077940926
80	0xbc91c7f7	-0.017795546
81	0xbde7d18c	-0.11319265
82	0x3db73264	0.08945158
83	0xbe57dc38	-0.210801
84	0x3d818d66	0.06325798
85	0x3e74408d	0.23852749
86	0xbe654192	-0.22388294
87	0x3db4a9c3	0.08821442
88	0x3db9e026	0.09075956
89	0xbe2e26fd	-0.1700706
90	0x3e0aa21d	0.13538404
91	0xbdfa26e3	-0.12214448
92	0x3e321fa6	0.17394885
93	0x3e2a0efb	0.16607277
94	0x3def6100	0.11688423
95	0x3ca2ad1b	0.019857934
96	0x3e2fb9f1	0.17160775
97	0x3d9955bd	0.074870564
98	0xbd5a042a	-0.053226627
99	0x3cfad156	0.030617397
100	0x3e28c432	0.16481093
101	0xbd8d4f51	-0.06899894
102	0xbe537c35	-0.2065285
103	0xbe3015f3	-0.17195873
104	0xbe8ef62d	-0.27922192
105	0xbe0b8d00	-0.13628006
106	0xbddf44d8	-0.10901803
107	0x3dbe2907	0.09285169
108	0x3dc5daf6	0.09660904
109	0x3d027e1d	0.031858552
110	0x3dfa6c9f	0.12227749
111	0x3ddfffd6	0.10937469
112	0x3ddef586	0.10886674
113	0x3d8638a3	0.06553771
114	0x3e662e9e	0.2247872
115	0xbdb3117a	-0.08743568
116	0xbe403dab	-0.18773524
117	0x3de38d93	0.111109875
118	0xbb3a418a	-0.0028420412
119	0xbe637a28	-0.22214568
120	0xbd98b76b	-0.07456859
121	0x3cb0ee2d	0.021597946
122	0xbe80f82c	-0.2518934
123	0xbbef5749	-0.0073041064
124	0xbe238be3	-0.15971331
125	0x3d3fe68e	0.046850733
126	0x3e12b288	0.14325917
127	0xbe19d179	-0.15021314
128	0x3e19e623	0.15029196
129	0xbd6608b9	-0.056160662
130	0x3dcd5581	0.10026074
131	0xbde07f36	-0.109617636
132	0x3db9b96d	0.0906857
133	0xbe70cf66	-0.23516616
134	0xbd7bc7df	-0.06146991
135	0xbe00779f	-0.12545632
136	0xbde6d70a	-0.11271484
137	0x3da6708d	0.08126936
138	0xbd633d06	-0.05547812
139	0xbd835e37	-0.064144544
140	0xbc0690df	-0.008213251
141	0x3dbb7c87	0.09154611
142	0x3de061fd	0.1095619
143	0x3dd2cf27	0.102934174
144	0xbd7b0663	-0.061285388
145	0x3e34c9e9	0.17655148
146	0xbc64ffe8	-0.013977028
147	0x3dc26782	0.09492399
148	0x3dd9002e	0.105957374
149	0x3d84ae5d	0.0647857
150	0x3d0271ae	0.031846695
151	0x3dc684bd	0.096932866
152	0xbe5b29e6	-0.21402702
153	0xbd19ea44	-0.03757693
154	0x3bad25ad	0.0052840323
155	0xbe0b6104	-0.13611227
156	0x3dd1eddd	0.10250447
157	0xbd872f76	-0.06600849
158	0x3e14d216	0.14533266
159	0x3d12ef75	0.035872895
160	0xbce813e3	-0.028329795
161	0xbd40f18d	-0.04710536
162	0xbe427449	-0.18989672
163	0xbe1c5529	-0.15266861
164	0x3e1f5281	0.15558816
165	0x3e006bbd	0.12541099
166	0x3d92c333	0.071661375
167	0xbb9023ce	-0.0043987995
168	0xbd9008c9	-0.07032926
169	0xbdc969c3	-0.098346256
170	0xbde4ccd2	-0.11171879
171	0x3e85ebd7	0.26156494
172	0xbe2542e9	-0.16138805
173	0xbd58f401	-0.052967075
174	0xbc429bc4	-0.011877958
175	0xbd50623c	-0.050874934
176	0x3b38ac02	0.0028178697
177	0xbdc60657	-0.09669178
178	0x3e2ce72f	0.16885065
179	0xbdd26066	-0.10272293
180	0xbd9a2288	-0.075261176
181	0x3e4e8238	0.20166862
182	0x3d8696f4	0.06571761
183	0xbdffdf3e	-0.12493752
184	0xbcc7154e	-0.024302151
185	0x3e341472	0.17585924
186	0x3e0e4c29	0.1389624
187	0xbd213fb7	-0.039367404
188	0xbbf3cb93	-0.0074400394
189	0x3dd63be4	0.10460642
190	0x3dbe93a3	0.09305503
191	0x3d072712	0.032996245
192	0x3ea02cb0	0.31284094
193	0xbd045207	-0.03230479
194	0xbd79e248	-0.061006814
195	0x3e4e66fc	0.20156473
196	0xbdde882e	-0.10865818
197	0xbe556682	-0.20839885
198	0x3dfcbb6e	0.12340437
199	0x3e2beb87	0.16789065
200	0xbe073a91	-0.13205935
201	0x3e3dc087	0.18530475
202	0xbdd8a406	-0.1057816
203	0xbd5a52c1	-0.053301577
204	0xbcc5e722	-0.024158064
205	0x3d936949	0.07197816
206	0xbd26d37d	-0.040729035
207	0xbe2b0c99	-0.16704024
208	0x3dbab00f	0.09115612
209	0x3e27364c	0.16329306
210	0xbde8020c	-0.113285154
211	0xbbc5c187	-0.006035033
212	0x3e1c3f0c	0.15258425
213	0x3dea56e4	0.11442354
214	0xbdd22d1f	-0.102625124
215	0x3ccbb04d	0.02486434
216	0xbb7d94eb	-0.0038693498
217	0x3e3957d8	0.18099916
218	0x3e4a5e76	0.19762596
219	0x3c79c33a	0.0152443
220	0xbc5985d3	-0.013276535
221	0x3cfa596a	0.030560214
222	0x3dcfd56b	0.10148128
223	0x3d835e65	0.06414489
224	0xbdbcaa10	-0.09212124
225	0xbc35203b	-0.011055048
226	0xbdfc2bfb	-0.12313076
227	0xbb7cd20e	-0.003857735
228	0x3e140a9c	0.14457172
229	0xbdab9621	-0.08378244
230	0xbe3e7f53	-0.18603258
231	0x3db9334a	0.09042986
232	0x3de030d4	0.10946813
233	0xbda95c0c	-0.0826951
234	0x3e15a089	0.1461202
235	0x3e3dd362	0.18537667
236	0x3d88e211	0.06683744
237	0xbd8c5528	-0.0685218
238	0xbda9a566	-0.082835004
239	0xbcc1e86a	-0.023670394
240	0xbd2dbaba	-0.042414404
241	0x3ded199d	0.11577151
242	0xbd8aefef	-0.06784045
243	0xbdc5e6c0	-0.09663153
244	0xbd830062	-0.063965574
245	0xbd63b512	-0.055592604
246	0x3e829ab3	0.2550865
247	0xbe85776f	-0.26067683
248	0xbe477f03	-0.19482045
249	0xbc993cef	-0.018705813
250	0xbcb2eeda	-0.021842409
251	0xbd7243e1	-0.059146766
252	0x3db3cec1	0.087796696
253	0x3e8afcde	0.27146047
254	0x3d2046ea	0.03913013
255	0x3d6229a3	0.05521549

net.4.bias f4 [3]
0	0x3c5ae283	0.013359669
1	0x3b80b2c9	0.003927563
2	0x3ccdaf96	0.02510814

net.0.weight f4 [128, 18]
0	0x3d874b61	0.06606174
1	0xbcf63507	-0.030054582
2	0x3d520f4a	0.051284112
3	0xbc682fc0	-0.014171541
4	0xbda980af	-0.082764976
5	0x3e70a573	0.23500614
6	0x3da203d6	0.07910888
7	0xbd92ec78	-0.07174009
8	0x3c182248	0.009285517
9	0xbc92d9ec	-0.017926179
10	0xbd75a0b5	-0.059967715
11	0x3e5c7524	0.2152906
12	0xbe9bb804	-0.3041383
13	0xbe140a4f	-0.14457057
14	0xbd5c7d77	-0.05383059
15	0xbe1551e4	-0.1458202
16	0xbbd05be5	-0.006358611
17	0xbd4a372b	-0.04936902
18	0xbd98650c	-0.07441148
19	0xbdc3a2da	-0.09552546
20	0xbc013fee	-0.007888777
21	0xbe0848f3	-0.13309078
22	0x388af24d	6.625485e-05
23	0xbe2ff33f	-0.17182635
24	0xbe21b10e	-0.15790197
25	0x3d43b961	0.047784213
26	0xbd1699b6	-0.036767684
27	0x3e046a5c	0.12931198
28	0xbe183783	-0.14864926
29	0xbe12a699	-0.14321364
30	0x3d496cae	0.04917591
31	0xbdd3f5a2	-0.10349585
32	0xbd94b411	-0.072609074
33	0x3e427873	0.1899126
34	0xbdc868d3	-0.09785619
35	0xbde8b975	-0.11363498
36	0xbe183da0	-0.14867258
37	0x3e4f59c8	0.20249093
38	0x3cb9b99f	0.022671519
39	0x3e33136d	0.17487879
40	0x3e1bc53e	0.1521196
41	0xbe232a27	-0.15934049
42	0x3dd69c14	0.10478988
43	0x3e1c995a	0.15292874
44	0xbc2fa457	-0.010720334
45	0x3d8b9542	0.06815578
46	0x3e632885	0.22183426
47	0xbbd0cfdc	-0.006372435
48	0xbe3293f4	-0.17439252
49	0xbcfe625e	-0.031052765
50	0xbb24d3bf	-0.0025150625
51	0x3e5f7837	0.21823202
52	0xbb7fe8f9	-0.0039048775
53	0x3d05125f	0.032488223
54	0xbe42933f	-0.19001482
55	0x3cf1ea0b	0.029530546
56	0xbd92ed36	-0.07174151
57	0x3de1e903	0.110307716
58	0x39976c89	0.0002888183
59	0xbdedde2e	-0.11614643
60	0x3db9da43	0.09074833
61	0xbe46ce1a	-0.19414559
62	0xbd8c5be6	-0.06853466
63	0xbe49168c	-0.19637507
64	0x3d89350f	0.06699573
65	0xbd8991b0	-0.06717241
66	0xbdf51fdb	-0.119689666
67	0xbe1a5cfe	-0.15074536
68	0x3cae5a8f	0.021283416
69	0xbd870bbf	-0.06594037
70	0xbdbd9994	-0.09257808
71	0x3d09d622	0.03365148
72	0xbe617e0d	-0.22020741
73	0xbdbff872	-0.09373559
74	0xbdc09d8a	-0.09405048
75	0x3dd981dc	0.10620472
76	0xbdccd2f2	-0.10001172
77	0xbe05e190	-0.13074327
78	0x3de1b785	0.11021332
79	0xbe4b97e4	-0.1988216
80	0x3b90306c	0.0044003036
81	0x3e2633d7	0.16230713
82	0x3dad28f4	0.08455077
83	0x3e57db12	0.21079662
84	0x3e0c349c	0.13691944
85	0xbe12282e	-0.1427314
86	0x3cbe934f	0.023263602
87	0x3e66897b	0.22513382
88	0xbe6b657d	-0.22987933
89	0x3d1667f0	0.036720216
90	0x3e6725ff	0.22573088
91	0xbe0eb7f0	-0.13937354
92	0x3d8808df	0.06642317
93	0x3b9f7236	0.00486591
94	0xbdcb21e3	-0.09918573
95	0xbe356ed9	-0.17718066
96	0xbd75ea04	-0.060037628
97	0x3dfb4967	0.1226986
98	0x3c115584	0.008870486
99	0xbdf9bad6	-0.12193839
100	0x3e2a9ab9	0.16660585
101	0x3dd28b33	0.102804564
102	0x3d344b32	0.044017024
103	0x3db76eb3	0.08956661
104	0xbda74f97	-0.081694774
105	0xbe3da56e	-0.18520138
106	0x3d720f8a	0.05909685
107	0x3e2d36c5	0.16915424
108	0x3e7f2ec5	0.24920185
109	0x3c783fbc	0.015151914
110	0x3bd35a41	0.006449968
111	0x3e044946	0.12918577
112	0x3e3c311f	0.18378113
113	0xbe3d066b	-0.1845948
114	0x3cda0e7a	0.026618231
115	0x3de17297	0.110081844
116	0xbd029dd8	-0.031888813
117	0x3dee4602	0.11634447
118	0xbe2dd4ed	-0.16975756
119	0x3dd7a0e5	0.10528735
120	0xbcc49084	-0.023994692
121	0xbe320f59	-0.17388667
122	0x3c0b325e	0.008495895
123	0x3d2c6e43	0.04209734
124	0x3e64a846	0.22329816
125	0xbd7537f0	-0.0598678
126	0xbcd59804	-0.026073463
127	0x3dd2ae9f	0.102872126
128	0x3d16ebf9	0.036846135
129	0xbe27dad6	-0.16392073
130	0xbe1147cc	-0.14187545
131	0xbe6f36eb	-0.23360793
132	0xbdb44b6b	-0.08803447
133	0xbdd06fa1	-0.101775415
134	0xbcccfc90	-0.025022775
135	0x3e3b7eac	0.1831004
136	0x3e5b714b	0.21429937
137	0xbdcccbb6	-0.09999792
138	0x3e30d19f	0.17267464
139	0x3e03e733	0.12881164
140	0x3d9fb97a	0.07799049
141	0x3da6a0ed	0.08136163
142	0x3e0a221f	0.13489579
143	0xbd8872de	-0.06662534
144	0x3e13fd45	0.14452083
145	0xbdfdcbfc	-0.123924226
146	0x3a329a44	0.00068131485
147	0x3dc114ae	0.094277725
148	0xbe3613a7	-0.17780934
149	0xbe101444	-0.1407023
150	0x3d38ed2f	0.04514807
151	0x3e4513d8	0.19245851
152	0xbd2ed955	-0.042687733
153	0xbe2decbd	-0.1698484
154	0x3cd452e3	0.02591843
155	0xbe5e7010	-0.21722436
156	0x3e02bc24	0.12767082
157	0x3e02d5c7	0.12776862
158	0x3cbbdc08	0.022932068
159	0xbdc5dddc	-0.09661457
160	0x3de2d249	0.11075265
161	0x3de8344d	0.113381006
162	0xbe0a9459	-0.13533153
163	0xbe50869a	-0.20363846
164	0x3d52b5c7	0.051442888
165	0xbb8fcffc	-0.0043888073
166	0x3dbe3210	0.092868924
167	0xbdbbe072	-0.09173669
168	0xbe8d3e45	-0.2758657
169	0x3d92db1a	0.071706966
170	0x3d07002b	0.032959145
171	0xbe6b6082	-0.22986034
172	0x3db5eeaa	0.08883412
173	0x3d9f811b	0.07788297
174	0xbdac2d03	-0.08407023
175	0xbe208265	-0.15674742
176	0xbd933199	-0.071871944
177	0xbe6ea325	-0.23304422
178	0x3e00bb9a	0.12571564
179	0xbe015924	-0.1263166
180	0xbdcac513	-0.0990087
181	0xbdcd9e93	-0.10040011
182	0x3b5bc4f5	0.0033534144
183	0xbcc1f3cd	-0.023675824
184	0x3e6e7c32	0.23289564
185	0xbe1c809d	-0.15283437
186	0x3c0975fe	0.008389948
187	0x3b9a80d3	0.004715064
188	0xbc284028	-0.010269202
189	0xbe3376db	-0.17525809
190	0x3d109d57	0.0353063
191	0x3bcbe937	0.0062228697
192	0xbc391071	-0.011295424
193	0x3cdfffd3	0.027343666
194	0x3d7e2ccc	0.06205444
195	0xbcf5d865	-0.030010412
196	0xbd9d5053	-0.07681336
197	0xbe6327ff	-0.22183226
198	0xbc1ee0cc	-0.00969715
199	0x3e0a8ab0	0.13529468
200	0xbd6bc5fc	-0.05756186
201	0x3e4baff8	0.19891346
202	0xbe6c73ea	-0.23091093
203	0xbe42b54c	-0.19014472
204	0xbe18131a	-0.14851037
205	0x3e44a1b6	0.19202313
206	0xbacc5ada	-0.0015591041
207	0xbdc7f3d4	-0.097633034
208	0xbe1a4625	-0.1506582
209	0xbd19f302	-0.037585266
210	0x3d826d47	0.06368499
211	0xbdf83a2b	-0.1212047
212	0xbd062a20	-0.032755017
213	0x3d02ca37	0.03193113
214	0xbe26858f	-0.16261886
215	0x3e50a582	0.20375636
216	0xbd5e7237	-0.054308143
217	0xbe3f88d7	-0.18704544
218	0x3bb97cd4	0.0056606326
219	0x3e238ae3	0.1597095
220	0xbe23ccdb	-0.15996115
221	0x3e6f30c6	0.2335845
222	0x3d2ffabd	0.042963732
223	0x3e1b59fc	0.15171045
224	0xbd006c36	-0.031353198
225	0x3de9b8cc	0.114122
226	0xbe2d55de	-0.16927287
227	0xbe6dee30	-0.23235393
228	0xbd47d8c7	-0.04879072
229	0xbe4de5d9	-0.20107211
230	0xbdac70a7	-0.08419924
231	0xbde78d21	-0.11306215
232	0x3e4347c4	0.19070345
233	0x3e0e8dee	0.1392133
234	0x3ddb3060	0.10702586
235	0x3e4db68f	0.20089172
236	0x3d8f3370	0.06992233
237	0x3d9b6fc9	0.07589681
238	0x3dcef318	0.1010496
239	0x3e1d65b5	0.1537083
240	0x3e07c9b8	0.13260543
241	0xbd56f71c	-0.052481756
242	0xbd6a9fd8	-0.057281345
243	0xbddc0450	-0.1074301
244	0xbdbe1baf	-0.09282624
245	0x3c7b1a5f	0.015326112
246	0xbe02c695	-0.12771066
247	0xbdc2d820	-0.09513879
248	0x3da88ea8	0.082303345
249	0x3e100b55	0.14066823
250	0xbddfdcd3	-0.10930791
251	0xbd5ddbbb	-0.05416463
252	0xbd1f2b10	-0.038859427
253	0xbdd4d0b8	-0.103913724
254	0x3cd6bc04	0.0262127
255	0x3de49d45	0.11162809

net.0.bias f4 [128]
0	0xbea97042	-0.33093458
1	0x3eba0824	0.36334336
2	0xbe80b632	-0.25139004
3	0xbe9fad8f	-0.31187102
4	0xbe83c869	-0.25738838
5	0x3eb06c4e	0.3445763
6	0x3ec15260	0.3775816
7	0x3ed0183f	0.40643498
8	0x3eafa777	0.34307453
9	0xbe708fa6	-0.23492298
10	0x3e9562aa	0.29176837
11	0x3e919ab4	0.28438342
12	0xbe7cb126	-0.24676952
13	0xbe8ea841	-0.27862743
14	0xbe8c097a	-0.2735098
15	0x3ecf1290	0.4044385
16	0x3eb51a3c	0.35371578
17	0x3ea1aa91	0.31575444
18	0xbed5e65d	-0.41777316
19	0xbeb1d1ac	-0.3473028
20	0x3ead424d	0.33839646
21	0xbebbdcf3	-0.36692008
22	0xbe90f3fe	-0.2831115
23	0xbecfd7d5	-0.40594354
24	0xbeb30ebd	-0.34972182
25	0xbec238a3	-0.37933835
26	0x3e9d0654	0.3066889
27	0x3ea72630	0.32646322
28	0x3eaee637	0.34160015
29	0xbeb97b34	-0.3622681
30	0x3ebc31ff	0.36756894
31	0x3e87af1e	0.2650079
32	0xbeb32e3d	-0.34996215
33	0xbecd4ad1	-0.40096143
34	0x3e8a7db6	0.27049035
35	0xbe979a0d	-0.2960972
36	0x3eaa208a	0.3322795
37	0x3ebbe3e1	0.36697295
38	0xbecad2fe	-0.396141
39	0xbea183fc	-0.3154601
40	0xbe8e1538	-0.27750564
41	0xbe7aecc7	-0.24504386
42	0x3ed0f19b	0.4080933
43	0x3eca0aef	0.39461467
44	0xbea40184	-0.32032406
45	0xbeb0faa4	-0.34566224
46	0xbe7b8ab6	-0.24564633
47	0x3ec89dfd	0.39183035
48	0x3eccedd4	0.40025198
49	0x3e8c3d6a	0.27390605
50	0x3eb41b21	0.35176948
51	0xbeabdc5c	-0.33566558
52	0xbe709252	-0.23493317
53	0xbea52a51	-0.32258847
54	0xbeb788ef	-0.3584666
55	0x3ed6c2a6	0.4194538
56	0xbed1d2ae	-0.40981048
57	0x3ea06ddb	0.31333813
58	0x3eba7721	0.36419013
59	0xbe9b1af5	-0.30294004
60	0xbe8e60da	-0.27808267
61	0xbeb7c463	-0.3589202
62	0x3ecbf076	0.39831895
63	0x3e8b10bd	0.27161208
64	0xbe9065b9	-0.28202608
65	0xbe842ba9	-0.2581456
66	0x3e9ad910	0.3024373
67	0xbe87336a	-0.26406413
68	0xbecd6365	-0.40114895
69	0x3ea326e3	0.31865606
70	0x3ed63e97	0.41844627
71	0xbeac3bb0	-0.33639288
72	0xbe8f8818	-0.2803352
73	0xbea98dc5	-0.33115974
74	0x3ecbadd9	0.39781073
75	0x3ec9cfaf	0.39416263
76	0xbea6cebf	-0.3257961
77	0x3e952296	0.2912795
78	0xbe87202e	-0.2639174
79	0xbe88d9e6	-0.26728743
80	0xbebd7d08	-0.37009454
81	0x3ec70d7f	0.38877484
82	0xbe942322	-0.28933054
83	0x3e911de7	0.28343126
84	0x3e97ef6e	0.29674858
85	0x3ec77978	0.3895986
86	0x3e8f561a	0.27995378
87	0xbe9e8369	-0.30959633
88	0xbed0d6fe	-0.40789026
89	0xbe91e8da	-0.28497964
90	0xbea153c9	-0.31509236
91	0xbe9f392f	-0.31098315
92	0x3ed8e75e	0.4236402
93	0xbec16f8b	-0.37780413
94	0x3e5ebc00	0.21751404
95	0xbe91e691	-0.2849622
96	0xbebb242e	-0.3655104
97	0x3e80aae2	0.25130373
98	0xbec9635c	-0.39333618
99	0x3ea1d96a	0.31611186
100	0x3e9ddbe0	0.30831814
101	0x3eb1db99	0.34737852
102	0xbeac7f22	-0.33690745
103	0xbe89a4e1	-0.26883605
104	0xbead3f3f	-0.33837315
105	0x3eac3521	0.33634284
106	0xbe97c544	-0.2964269
107	0xbe9102a0	-0.28322315
108	0xbec0ad32	-0.37632138
109	0x3e8d0281	0.27540973
110	0xbec314ce	-0.3810181
111	0xbebda09d	-0.370366
112	0xbead99bb	-0.3390635
113	0xbebb2c32	-0.36557156
114	0x3e94d674	0.29069865
115	0xbecbf3a4	-0.3983432
116	0x3ec495b3	0.3839546
117	0x3e73194f	0.23740123
118	0x3ecde55b	0.40214047
119	0x3ea1b004	0.31579602
120	0x3e9299de	0.28633016
121	0xbed76721	-0.4207087
122	0xbea639c4	-0.32465947
123	0x3ea656e7	0.32488176
124	0x3ebeae4d	0.37242356
125	0x3e93bf88	0.28857064
126	0xbec4a4ac	-0.38406885
127	0xbe973f72	-0.29540592

net.2.weight f4 [128, 128]
0	0x3d0d4cd2	0.03449709
1	0xbdf75748	-0.120771945
2	0x3e8c5680	0.27409744
3	0x3e112a79	0.14176358
4	0x3d9ae773	0.07563677
5	0xbc9acf25	-0.018897602
6	0xbdddc862	-0.108292356
7	0xbdee1b4b	-0.116262995
8	0xbd8f562b	-0.06998857
9	0x3e275958	0.16342676
10	0xbda4574a	-0.080244616
11	0xbe1e350e	-0.15449926
12	0x3d9d633b	0.07684942
13	0x3e070c75	0.13188346
14	0x3e01c483	0.1267262
15	0xbc50eb09	-0.012751349
16	0xbdd6323b	-0.104587995
17	0xbe35f872	-0.17770556
18	0x3db4644e	0.08808194
19	0x3cc10316	0.023561042
20	0xbdb16e74	-0.086636454
21	0x3e1a356d	0.15059443
22	0x3e54582a	0.20736757
23	0x3e262903	0.16226582
24	0x3d150d06	0.036389373
25	0x3d91e571	0.071238406
26	0xbe140bf3	-0.14457683
27	0xbd40b19f	-0.047044393
28	0xbe04a52a	-0.1295363
29	0x3d160e99	0.036635015
30	0xbca70c74	-0.02039168
31	0xbe4ef312	-0.20209911
32	0x3e33a1d2	0.17542198
33	0x3ca483ad	0.02008232
34	0xbe4b612b	-0.19861285
35	0x3dcb51e1	0.099277265
36	0xbda9a16f	-0.08282744
37	0xbe386151	-0.18005873
38	0x3c23048c	0.0099498145
39	0x3db940ff	0.090456
40	0x3e92645e	0.285922
41	0x3e1cb9f5	0.15305312
42	0xbc72cf06	-0.014819866
43	0xbe077c8b	-0.13231103
44	0x3e55b48c	0.20869654
45	0x3d958342	0.07300426
46	0x3e162a4f	0.14664577
47	0xbd0cb7ea	-0.03435508
48	0xbdc7e89b	-0.09761163
49	0xbda1ffba	-0.07910104
50	0xbbfa58a2	-0.0076399604
51	0x3e2b4e70	0.1672914
52	0x3e8d11a8	0.27552533
53	0x3df633b6	0.12021582
54	0x3e28f953	0.1650136
55	0xbe058887	-0.13040362
56	0x3ddb697f	0.10713481
57	0xbe05615b	-0.1302542
58	0xbda5f78e	-0.08103858
59	0x3e4262de	0.18983027
60	0x3e85f028	0.26159787
61	0x3e37cd34	0.17949373
62	0xbe045407	-0.12922679
63	0xbe687afd	-0.22703166
64	0x3e5d4193	0.21607046
65	0x3e475cac	0.19468945
66	0xbe148d51	-0.14507033
67	0x3e279dee	0.16368839
68	0x3e2c231d	0.1681027
69	0xbe1d44cf	-0.1535828
70	0xbd2899f5	-0.04116245
71	0x3e12b1d4	0.14325649
72	0x3e30a6d8	0.17251146
73	0x3e01cc97	0.12675701
74	0xbd2d6b86	-0.04233887
75	0xbda228a3	-0.07917907
76	0x3d777f9c	0.060424432
77	0xbe1f2f39	-0.15545358
78	0x3dc6b805	0.09703068
79	0x3e357dab	0.1772372
80	0x3e3a91ba	0.18219653
81	0xbd110e01	-0.035413746
82	0x3d8e0a77	0.0693559
83	0xbd877607	-0.06614309
84	0xbdeb5055	-0.114899315
85	0xbdb7d5b7	-0.0897631
86	0xbe313637	-0.17305838
87	0x3d3b841e	0.045780294
88	0x3d88566b	0.06657108
89	0x3e893665	0.26799312
90	0x3e142430	0.1446693
91	0x3e5fb440	0.21846104
92	0xbe1550aa	-0.14581552
93	0x3da5650f	0.08075916
94	0xbe875459	-0.2643154
95	0x3e5e415d	0.21704622
96	0x3d45c527	0.048283722
97	0xbe5920a7	-0.21203862
98	0x3e29fdf1	0.16600777
99	0xbde461dc	-0.11151478
100	0xbe054c50	-0.13017392
101	0xbe3a0686	-0.18166551
102	0x3e43d544	0.19124323
103	0x3e811e51	0.25218442
104	0x3e1fc2ee	0.15601704
105	0xbe30d785	-0.17269714
106	0x3e319221	0.173409
107	0x3d867c4d	0.06566677
108	0x3d040a95	0.032236654
109	0xbda7f5f1	-0.082012065
110	0x3c52c913	0.012865323
111	0x3df9d62f	0.121990554
112	0x3e04d4ad	0.12971754
113	0x3e205a34	0.1565941
114	0xbe4eba51	-0.20188262
115	0x3e0df37f	0.13862418
116	0xbe38e955	-0.18057759
117	0xbdc598f9	-0.09648318
118	0xbdd45f02	-0.10369684
119	0xbd5ba2e0	-0.053622127
120	0xbe28c65f	-0.16481923
121	0x3e2bf311	0.16791941
122	0x3e19a921	0.15005924
123	0xbd8a8c6c	-0.067650646
124	0xbdd8ae5a	-0.1058013
125	0xbe0e85d7	-0.13918243
126	0x3e1669e7	0.14688836
127	0x3d98e2dd	0.07465146
128	0xbe22c2e0	-0.15894651
129	0x3e4be703	0.19912343
130	0xbe92c5d8	-0.28666568
131	0xbe4e4a88	-0.20145619
132	0xbdd4f1d3	-0.10397687
133	0x3d648af7	0.05579659
134	0x3dfa7fec	0.122314304
135	0x3def4768	0.116835415
136	0x3e093d94	0.13402396
137	0xbe837a25	-0.25679126
138	0x3e631139	0.22174539
139	0x3df1ceba	0.11807008
140	0xbdfd5c50	-0.12371123
141	0xbe6ef6d9	-0.23336352
142	0xbe12aa5d	-0.14322801
143	0x3e37c62a	0.17946687
144	0x3e2d1cfe	0.16905591
145	0x3e5c2c72	0.2150133
146	0xbe0f74d1	-0.14009406
147	0xbe156dd5	-0.14592679
148	0x3e305e4e	0.17223474
149	0xbe1ddc47	-0.1541606
150	0xbe254edf	-0.16143368
151	0xbdbaca53	-0.091206215
152	0xbe2cbb68	-0.16868365
153	0xbd9ab034	-0.07553139
154	0x3e056c5b	0.13029616
155	0x3da13097	0.07870596
156	0x3dbd3722	0.092390314
157	0xbdf69150	-0.12039435
158	0x3d762156	0.060090385
159	0x3e8ca919	0.2747276
160	0xbe37f3df	-0.17964123
161	0xbe400582	-0.18752101
162	0x3e17de13	0.14830808
163	0xbe1f6eea	-0.15569654
164	0x3db42666	0.087963864
165	0x3de06c85	0.109581985
166	0xbe409b0b	-0.18809144
167	0xbe5a2f92	-0.21307209
168	0xbe714011	-0.23559596
169	0xbe832e48	-0.25621247
170	0x3e2240c4	0.15845019
171	0x3e50978f	0.20370315
172	0xbe225955	-0.1585439
173	0xbd4161bf	-0.04721236
174	0xbe014250	-0.12622952
175	0x3e186d28	0.1488539
176	0x3d2e7dca	0.04260043
177	0x3e31b330	0.17353511
178	0x3e015da7	0.12633382
179	0xbe3d6163	-0.18494181
180	0xbe276734	-0.16347963
181	0xbd4303bf	-0.047610994
182	0xbe083062	-0.13299707
183	0x3d63820f	0.055543955
184	0xbd9d264e	-0.07673322
185	0x3e2766cf	0.16347812
186	0x3d78989e	0.060692422
187	0xbe255115	-0.16144212
188	0xbe4c5562	-0.19954446
189	0xbd3d4b69	-0.046214495
190	0x3debbd67	0.11510735
191	0x3e8ed536	0.27897042
192	0xbe72f1d4	-0.23725063
193	0xbe0e5e4f	-0.13903163
194	0x3e5edc9e	0.21763846
195	0xbe26c217	-0.16284977
196	0xbd2274f5	-0.03966232
197	0x3e4e20ff	0.20129775
198	0x3d2edf9f	0.04269373
199	0xbdf97a42	-0.12181522
200	0xbe367dad	-0.17821379
201	0xbe0f4f33	-0.13995056
202	0x3da00109	0.078126974
203	0x3d427db4	0.04748316
204	0xbd54b55c	-0.05193077
205	0x3e4a87f7	0.19778429
206	0xbe409bb5	-0.18809398
207	0xbe4d9edf	-0.20080136
208	0xbe0366e8	-0.12832224
209	0x3d0fe831	0.035133544
210	0xbdfae97f	-0.12251567
211	0x3e15444a	0.14576831
212	0x3dcdbb57	0.10045498
213	0x3e597a96	0.21238169
214	0x3e145f28	0.14489424
215	0xbe2a1864	-0.16610867
216	0xbd91fb2e	-0.07127987
217	0xbe90e8a0	-0.2830248
218	0xbe292c99	-0.16520919
219	0xbe7acc9f	-0.24492119
220	0x3d8304ed	0.06397424
221	0xbd86c95a	-0.065813735
222	0x3e4201b5	0.18945964
223	0xbe3e7e89	-0.18602957
224	0xbd83874e	-0.06422292
225	0x3e17d086	0.14825639
226	0xbe225dd8	-0.15856111
227	0x3e39f464	0.18159634
228	0x3e22e6a5	0.15908296
229	0x3e43a2fb	0.19105141
230	0xbd88bedd	-0.06677029
231	0xbe380a7c	-0.1797275
232	0xbe39f6e9	-0.18160595
233	0x3e466853	0.19375734
234	0xbdd4d8f6	-0.103929445
235	0xbe459536	-0.192952
236	0xbd912e1e	-0.07088874
237	0x3e78bb47	0.2429019
238	0xbe382b10	-0.17985177
239	0xbe39cedf	-0.18145321
240	0xbe048097	-0.12939678
241	0xbdb2bbef	-0.08727252
242	0x3df82ab8	0.12117523
243	0xbde29100	-0.11062813
244	0x3dabfb15	0.083974995
245	0x3d9f6f2a	0.07784875
246	0x3dc270fb	0.094942056
247	0x3d7003a3	0.05859722
248	0x3e1404d8	0.14454973
249	0xbe4825b3	-0.19545631
250	0xbe26fd0e	-0.1630747
251	0x3e2754ab	0.16340892
252	0x3e1ca382	0.15296748
253	0x3de621aa	0.1123689
254	0xbe201714	-0.15633804
255	0xbe401e34	-0.18761522

net.2.bias f4 [128]
0	0xbd2b817b	-0.04187153
1	0x3d491fda	0.04910264
2	0x3c2d9b42	0.010596098
3	0x3e2d2718	0.16909444
4	0x3bedbc7e	0.007255136
5	0x3da5a44b	0.08087977
6	0xbded4f9d	-0.11587451
7	0x3e018a9a	0.12650529
8	0xbd00111b	-0.031266313
9	0xbe0865b1	-0.13320042
10	0x3d47866a	0.04871217
11	0xbdefba67	-0.11705475
12	0xbdf1c891	-0.11805833
13	0xbba7e642	-0.0051238844
14	0xbe0dfd7a	-0.13866225
15	0x3cc2fc56	0.023801964
16	0xbd16bf5d	-0.036803592
17	0x3e20c90f	0.15701698
18	0xbe22cfda	-0.15899602
19	0xbe1a8d98	-0.15093076
20	0xbd17ecb7	-0.037090983
21	0xbe1bae8d	-0.15203305
22	0xbe1e3eef	-0.15453695
23	0xbdfa6a49	-0.122273035
24	0xbb84e5e0	-0.0040557235
25	0x3deabd45	0.114618815
26	0xbe0d1de1	-0.13780929
27	0x3e07abd2	0.13249138
28	0xbb8eac75	-0.0043540546
29	0x3de1e73f	0.11030435
30	0x3d8e12ae	0.069371566
31	0x3df61b61	0.12016941
32	0xbcc8bcfd	-0.02450418
33	0xbe04ea93	-0.12980108
34	0xbe004e98	-0.12529981
35	0xbe17d503	-0.14827351
36	0xbdd75335	-0.10513917
37	0xbc48d975	-0.012258877
38	0xbd7d1117	-0.061783876
39	0x3bb4915b	0.005510492
40	0xbe140bb1	-0.14457585
41	0xbde85bfb	-0.11345669
42	0x3d4050c6	0.04695203
43	0x3e002081	0.125124
44	0xbe0006ce	-0.12502596
45	0xbdea7697	-0.114484005
46	0xbcbf089e	-0.023319539
47	0xbce53bb7	-0.027982576
48	0x3c84bd09	0.01620342
49	0xbdd1863c	-0.10230681
50	0x3db7069e	0.08936809
51	0xbe24be6d	-0.16088267
52	0xbe0cd060	-0.13751364
53	0xbd895041	-0.0670476
54	0xbe0674bd	-0.1313047
55	0x3d4c0c35	0.04981633
56	0x3dccc962	0.09999348
57	0x3dedf01b	0.11618062
58	0x3dd9992f	0.106249206
59	0x3e2bf9de	0.16794536
60	0x3d65bd22	0.056088574
61	0x3c57cb61	0.013171048
62	0xbad057c9	-0.0015895303
63	0x3d1ee6e4	0.038794413
64	0x3df5cd5c	0.1200206
65	0x3d27ca14	0.0409642
66	0xbd955f60	-0.07293582
67	0xbd4948b3	-0.049141597
68	0xbcb79d72	-0.022413943
69	0x3e18df11	0.14928843
70	0x3cdc4619	0.026888894
71	0x3c8a49d6	0.01688091
72	0x3de0a68f	0.109692685
73	0xbd7da03b	-0.061920386
74	0xbd427db7	-0.047483172
75	0x3b936c5d	0.004499002
76	0xbd2eac9e	-0.04264509
77	0x3dc53110	0.096284986
78	0xbdda5bb8	-0.10662025
79	0xbda642d7	-0.081182174
80	0x3d19978c	0.037498042
81	0x3d300fd1	0.042983834
82	0xbcb322e6	-0.021867227
83	0x3e008521	0.12550785
84	0xbdfeda97	-0.124440365
85	0x3e19da33	0.15024643
86	0xbdbd18e4	-0.09233263
87	0xbe0adb16	-0.13560137
88	0xbcdc19b1	-0.02686772
89	0x3c2eb7bf	0.010663926
90	0x3d15eaec	0.036600992
91	0xbe216a50	-0.15763211
92	0xbdd55377	-0.1041631
93	0x3dde65fe	0.10859297
94	0x3d4b4604	0.04962732
95	0x3bd85a2c	0.006602546
96	0x3ce4bc4f	0.027921824
97	0xbe1fed22	-0.15617803
98	0x3cfb2f18	0.030662104
99	0x3deb2664	0.11481932
100	0xbe28563a	-0.16439143
101	0xbc0139d2	-0.007887321
102	0xbdd5a292	-0.104313985
103	0x3e02760f	0.12740348
104	0x3df35822	0.118820444
105	0x3e0eb878	0.13937557
106	0x3dbd9965	0.09257773
107	0xbc7948e7	-0.015215135
108	0xbd9e9416	-0.07743089
109	0x3df461f8	0.119327486
110	0x3d7efc93	0.062252592
111	0x3dcc8341	0.09985972
112	0x3d695263	0.056963336
113	0x3c68b956	0.014204344
114	0xbd85560d	-0.065105535
115	0x3dc7cbdd	0.09755681
116	0x3e038d95	0.12846978
117	0xbe091c58	-0.13389719
118	0xbc6ad583	-0.014333132
119	0x3e32e915	0.17471726
120	0x3dbf66a5	0.0934575
121	0xbe1fcf13	-0.15606336
122	0xbd83684c	-0.064163774
123	0x3db0a66a	0.08625491
124	0x3dabb971	0.083849795
125	0xbd98b089	-0.074555464
126	0xbd86b525	-0.06577519
127	0xbd1f4fcf	-0.03889447
