runs/checkpoint_e040.pt (torch, 158519 bytes, 12 tensors)

net.0.weight f4 [128, 18]
0	0x3ed189c9	0.40925434
1	0xbcef8bc5	-0.029241452
2	0xbe1f3993	-0.15549307
3	0xbe5b42ef	-0.21412252
4	0xba60929c	-0.00085667684
5	0xbc875266	-0.016518783
6	0x3e38dcf7	0.18053041
7	0xbe1546e5	-0.14577825
8	0x3e0fd033	0.14044265
9	0x3e6b8222	0.2299886
10	0x3d8e9118	0.06961268
11	0xbd7efec6	-0.06225469
12	0x3eb6a510	0.35672808
13	0x3e58fedd	0.21190973
14	0x3e0bcee9	0.13653149
15	0xbd8cfc0e	-0.06884013
16	0xbe3fd66c	-0.18734139
17	0x3decd4cf	0.115640275
18	0x3e4f1c91	0.20225741
19	0x3ed7fc15	0.4218451
20	0x3e22dd7d	0.15904804
21	0x3d370675	0.044683892
22	0x3d1e5b67	0.038661387
23	0xbe368f28	-0.17828047
24	0x3ea46056	0.32104748
25	0x3e93431e	0.28762144
26	0xbe48bf69	-0.19604267
27	0xbdf06332	-0.1173767
28	0x3e6a30d2	0.22870186
29	0xbbf38301	-0.0074313884
30	0x3e725a5d	0.23667283
31	0x3e27b4b8	0.16377532
32	0xbe1269e0	-0.142982
33	0xbdc6fe91	-0.097165234
34	0x3e592e8c	0.21209162
35	0x3c87b2be	0.016564723
36	0xbe940008	-0.28906274
37	0xbeacbd89	-0.33738354
38	0xbe3025f6	-0.17201981
39	0xbd8320b7	-0.06402724
40	0xbdab4276	-0.08362286
41	0x3de906f6	0.11378281
42	0xbe2767b5	-0.16348155
43	0x3ed271fe	0.41102594
44	0x3d53a278	0.051668614
45	0x3d2d5edb	0.04232679
46	0xbdb2777b	-0.08714195
47	0x3e5b7616	0.21431765
48	0x3e07309c	0.13202137
49	0x3e9e247e	0.30887216
50	0x3d37cd95	0.044873793
51	0xbe20e053	-0.15710573
52	0xbc53fa52	-0.012938099
53	0x3c0e6a6d	0.008692366
54	0x3ecaef38	0.39635634
55	0x3eea9c0e	0.45822185
56	0xbdb8016b	-0.089846455
57	0x3e316bbd	0.17326255
58	0x3e010794	0.12600547
59	0xbd2351d7	-0.03987297
60	0x3e6ccd8f	0.2312529
61	0x3eef6e62	0.46763903
62	0x3e3dffd1	0.18554617
63	0x3d0a683d	0.033790816
64	0x3d371236	0.0446951
65	0xbd9a11b2	-0.07522906
66	0x3dddfcf8	0.108392656
67	0xbcae58b6	-0.021282535
68	0x3cfbe4a3	0.03074867
69	0xbe4f8ba6	-0.20268115
70	0xbe22842f	-0.15870737
71	0xbd01ab4e	-0.03165751
72	0xbda933ce	-0.08261834
73	0x3dd6669a	0.104687884
74	0xbda6358c	-0.08115682
75	0xbcae2724	-0.021258898
76	0x3e35a8fe	0.17740247
77	0xbe1bcd82	-0.15215114
78	0xbb9ea573	-0.0048415004
79	0x3d9de653	0.077099465
80	0x3da6deed	0.081479885
81	0xbe24ff2a	-0.16112962
82	0x3ca6af6b	0.020347318
83	0x3e6fdfd6	0.2342523
84	0x3c679dbd	0.014136729
85	0xbeb82a5c	-0.35969818
86	0xbe5c636e	-0.21522304
87	0x3e279b34	0.16367799
88	0x3e69cd48	0.22832215
89	0x3e70a580	0.23500633
90	0x3cfdb91f	0.030972062
91	0xbe0a6aac	-0.13517255
92	0xbe16b93f	-0.14719103
93	0xbe1a2cc3	-0.15056138
94	0xbd165888	-0.036705524
95	0x3dfce83b	0.12348982
96	0x3e6814b8	0.22664154
97	0x3eedb9da	0.46430856
98	0x3e5473a7	0.20747243
99	0xbd806bc8	-0.06270558
100	0x3e4de31d	0.20106168
101	0xbe1a2314	-0.15052444
102	0xbe6a498d	-0.2287962
103	0xbe7028ab	-0.23453014
104	0xbdf58734	-0.119886786
105	0x3e26057e	0.16213033
106	0xbd803edd	-0.0626199
107	0x3e2e7311	0.17036082
108	0xbee7ff4b	-0.4531196
109	0xbe5ba672	-0.21450213
110	0x3d995a1c	0.0748789
111	0x3ba32c19	0.004979622
112	0xbd0d31a6	-0.034471177
113	0x3e09dcc8	0.13463128
114	0xbe3658ee	-0.17807361
115	0x3d40c2fa	0.047060944
116	0x3df505bd	0.11963985
117	0x3e698835	0.22805865
118	0x3d1b58ce	0.037926488
119	0xbe4d94e2	-0.20076326
120	0xbd29bd0f	-0.041440066
121	0x3ede726b	0.4344667
122	0x3dc7db0c	0.09758577
123	0x3e183513	0.14863996
124	0x3e0cb8a7	0.13742314
125	0x3d68d85e	0.05684697
126	0x3df27be5	0.11840037
127	0xba48ede6	-0.0007664844
128	0x3e1c0888	0.1523763
129	0xbe495e2d	-0.19664831
130	0xbe341869	-0.17587437
131	0x3dfab04a	0.12240656
132	0xbd0cf52b	-0.034413498
133	0x3e22945f	0.15876912
134	0x3dd65388	0.10465151
135	0xbe35c9bd	-0.17752738
136	0xbdb67b24	-0.08910206
137	0x3e41560b	0.18880479
138	0x3e29ea7f	0.1659336
139	0xbe990df9	-0.29893473
140	0xbd936d8f	-0.07198631
141	0x3e379834	0.17929155
142	0x3e115d4b	0.14195745
143	0xbc715555	-0.014729817
144	0xbda658cf	-0.08122408
145	0xbd92363c	-0.07139251
146	0x3e33c225	0.17554529
147	0x3e3d1862	0.18466333
148	0x3e10db3a	0.14146128
149	0xbc8fe5ca	-0.017565627
150	0x3dd982cd	0.106206514
151	0xbe3e9847	-0.18612777
152	0xb9d56367	-0.00040700586
153	0xbe010fab	-0.12603633
154	0xbe4b2be9	-0.19840969
155	0x3e42ad1a	0.19011346
156	0x3e00610a	0.12537017
157	0x3e739cda	0.23790303
158	0xbd3e150e	-0.046406798
159	0xbe0671b0	-0.13129306
160	0xbe6a7b06	-0.22898492
161	0x3c4032f7	0.011730901
162	0xbd2e357f	-0.042531487
163	0xbdd48ba7	-0.10378199
164	0xbe28a6ec	-0.16469926
165	0x3ccf5a63	0.025311654
166	0x3e6f17c6	0.23348913
167	0xbbf9385c	-0.0076055955
168	0xbd837ec1	-0.06420661
169	0xbeffe712	-0.4998098
170	0x3e1e7281	0.15473367
171	0x3e183fb6	0.14868054
172	0x3decc30f	0.11560642
173	0x3e6e8bce	0.23295519
174	0x3e0a9120	0.13531923
175	0x3e9a4a1a	0.3013466
176	0xbe132c0b	-0.1437227
177	0xbe071c12	-0.13194302
178	0x3e2bf662	0.16793206
179	0x3d1cce65	0.03828277
180	0x3d0cb16f	0.0343489
181	0x3f02c0cf	0.5107545
182	0x3d1d15dc	0.038350925
183	0x3e57f342	0.21088889
184	0xbe08e723	-0.13369422
185	0xbe2ac371	-0.16676117
186	0x3eb6b9f4	0.35688746
187	0xbd6120b0	-0.054962814
188	0xbc344850	-0.011003569
189	0xbe0625ac	-0.13100308
190	0x3e1f1f4a	0.1553928
191	0xbe019e5d	-0.12658067
192	0x3cec5057	0.028846903
193	0x3d00c32d	0.031436134
194	0xbe370b41	-0.17875387
195	0xbe3e75bf	-0.18599604
196	0xbe651100	-0.22369766
197	0xbe03b4d7	-0.12861954
198	0xbd7bbab2	-0.061457343
199	0x39ba4cd5	0.0003553393
200	0x3e63652f	0.22206567
201	0x3e355334	0.1770752
202	0x3e475343	0.19465356
203	0x3d783e7c	0.060606465
204	0xbe6da248	-0.23206437
205	0xbef38f8f	-0.47570464
206	0xbd8658de	-0.06559919
207	0xbe24b074	-0.16082937
208	0xbd1d6e6f	-0.038435396
209	0x3e0ddb04	0.13853079
210	0x3da26507	0.07929426
211	0x3ea0fcc7	0.31442854
212	0xbd87eced	-0.06636987
213	0xbd2afc81	-0.041744713
214	0xbe269297	-0.16266857
215	0xbded81e7	-0.115970425
216	0x3ec4f8db	0.38471112
217	0x3ebc8c78	0.3682592
218	0x3d139451	0.036030117
219	0xbe44e38f	-0.19227432
220	0xbe3f2d5c	-0.18669647
221	0x3e4348c0	0.1907072
222	0x3e1d431a	0.15357628
223	0x3e1c1dd0	0.15245748
224	0xbd6cd595	-0.057820875
225	0x3e3c2ee0	0.18377256
226	0xbe202107	-0.15637599
227	0xbe274515	-0.16334946
228	0x3e08a317	0.13343464
229	0x3eb8fd96	0.3613097
230	0xbd88e978	-0.06685156
231	0x3da0e3f8	0.078559816
232	0x3cb6f9c2	0.02233589
233	0xbcca4e81	-0.024695637
234	0x3b8e7495	0.0043473938
235	0xbec05bdf	-0.37570092
236	0x3e5884f3	0.21144466
237	0x3e164742	0.1467562
238	0x3e0c5908	0.13705838
239	0x3e302b10	0.17203927
240	0x3e77fad1	0.24216773
241	0x3ee72f7b	0.45153412
242	0x3e4ac0a0	0.19800043
243	0xbe052378	-0.13001812
244	0x3c721733	0.014776039
245	0xbd5bcd8e	-0.05366283
246	0xbe315d44	-0.17320734
247	0x3ecfbe1f	0.40574738
248	0x3e504d90	0.20342088
249	0x3e6ed2d5	0.23322614
250	0x3e3e0b5d	0.18559022
251	0x3d9e932d	0.07742915
252	0x3de25cc1	0.11052848
253	0x3e537bd8	0.20652711
254	0xbd5a8a4d	-0.05335455
255	0x3cd2d81d	0.025737816

net.0.bias f4 [128]
0	0xbe654b58	-0.22392023
1	0x3dae59e5	0.0851324
2	0xbceb1d4a	-0.02870049
3	0xbd2d5a68	-0.042322546
4	0xbdbef5c7	-0.09324222
5	0x3d816e93	0.063199185
6	0x3cceabfb	0.025228491
7	0xbe2861d4	-0.16443568
8	0xbdba6227	-0.09100752
9	0xbc7758cf	-0.015096857
10	0x3e4ce791	0.2001021
11	0x3d98cc8b	0.074608885
12	0xbe225917	-0.15854298
13	0xbd7d9ccb	-0.061917108
14	0xbe3c2509	-0.18373503
15	0xbe36b9d8	-0.17844331
16	0x3e310b85	0.1728955
17	0xbc159a28	-0.009130992
18	0x3e38c55e	0.1804404
19	0xbd957db0	-0.072993636
20	0x3e223fbf	0.1584463
21	0x3e5606a9	0.20900978
22	0x3d87b992	0.066271916
23	0x3e0ebf59	0.13940181
24	0x3d88ea4f	0.06685316
25	0xbd2dfa51	-0.04247505
26	0xbb5ea534	-0.003397298
27	0xbe35d159	-0.17755641
28	0xbc5c07f1	-0.013429628
29	0x3d2e8246	0.042604707
30	0x3d8723ca	0.06598623
31	0xbe488746	-0.19582853
32	0x3e4d699d	0.2005982
33	0xbe128da1	-0.1431184
34	0x3e57a337	0.21058355
35	0xbded5683	-0.115887664
36	0x3d46a5b1	0.04849786
37	0xbda0071b	-0.07813855
38	0x3e453c8b	0.19261377
39	0x3d7f74d1	0.062367264
40	0xbd5052bd	-0.050860155
41	0xbe6506f4	-0.22365934
42	0xbccc61f8	-0.024949059
43	0x3dd89ed1	0.10577167
44	0x3de4657d	0.1115217
45	0x3e1ef462	0.15522912
46	0x3e494780	0.19656181
47	0xbd28d560	-0.041219115
48	0xbe3f4225	-0.18677576
49	0x3ce533e9	0.027978854
50	0xbdf3d465	-0.119057454
51	0x3e6d7069	0.23187412
52	0xbe377b39	-0.179181
53	0x3e584eb3	0.21123771
54	0x3e41afaa	0.18914667
55	0xbe3b1614	-0.18270141
56	0xbe2f90cb	-0.17145078
57	0x3e366138	0.17810524
58	0x3da5805b	0.080811225
59	0xbb94c1eb	-0.0045397184
60	0xbe0139d8	-0.12619722
61	0xbd20f575	-0.039296586
62	0x3e5de2aa	0.21668497
63	0xbe12feb7	-0.14354979
64	0x3e408731	0.18801571
65	0x3ddabc90	0.10680497
66	0xbdc3a029	-0.095520325
67	0xbe606dcc	-0.21916884
68	0xbe49538a	-0.19660774
69	0xbe5ca4fa	-0.21547309
70	0xbd929026	-0.071564004
71	0xbdb48dc1	-0.088161
72	0x3d09e528	0.033665806
73	0x3e48c075	0.19604667
74	0x3e2a9133	0.16656952
75	0xbd6b086d	-0.057381082
76	0x3df02fb2	0.11727847
77	0x3e045656	0.1292356
78	0xbe0107a5	-0.12600572
79	0xbd80fc13	-0.06298079
80	0xbe2170d3	-0.15765695
81	0xbe663354	-0.22480518
82	0xbd94cab6	-0.072652265
83	0x3e4be14f	0.19910167
84	0x3d8a6543	0.067575954
85	0xbe2f2ce5	-0.1710697
86	0x3d9deb79	0.077109285
87	0xbd620368	-0.05517903
88	0x3e321261	0.17389823
89	0x3e56e566	0.20985946
90	0x3da84907	0.08217054
91	0x3dcd43eb	0.1002272
92	0xbd401a38	-0.046900004
93	0x3d87c4f0	0.0662936
94	0xbe5a0476	-0.21290764
95	0x3cf336cf	0.02968922
96	0xbe214db5	-0.15752299
97	0x3d0511b4	0.032487586
98	0xbd3ccd89	-0.04609445
99	0x3d2c6ed5	0.042097885
100	0x3e5f67d0	0.21816945
101	0xbda08154	-0.078371674
102	0xbdfb09c0	-0.12257719
103	0xbe283575	-0.16426642
104	0xbe20ad40	-0.1569109
105	0x3e1075c4	0.14107424
106	0xbe5eab0e	-0.2174494
107	0xbd6c3d57	-0.057675686
108	0xbe388a43	-0.18021493
109	0x3e3d7a9e	0.18503806
110	0xbd9aa538	-0.07551044
111	0xbd92d468	-0.071694195
112	0x3dc218dd	0.094773985
113	0xbe61f36d	-0.22065516
114	0xbe3ca727	-0.18423139
115	0xbe16d576	-0.14729866
116	0xbd9e4471	-0.07727898
117	0xbe16a828	-0.14712584
118	0x3e604813	0.21902494
119	0xbe0e116b	-0.13873832
120	0x3bd168ff	0.0063906903
121	0xbd98ab38	-0.074545324
122	0xbd81f661	-0.06345821
123	0xbe288c93	-0.16459875
124	0xbd330ae1	-0.043711547
125	0xbd48b18f	-0.048997458
126	0xbd1b98b0	-0.03798741
127	0xbe4cad0d	-0.19987889

net.2.weight f4 [128, 128]
0	0x3c8e2940	0.017353654
1	0x3c01aee9	0.007915237
2	0xbdda3d68	-0.106562436
3	0xbd064b75	-0.032786805
4	0xbcf47ff7	-0.029846175
5	0xbd95cf6e	-0.07314955
6	0xbdb85d5f	-0.09002184
7	0x3cddf0b7	0.02709232
8	0x3d786818	0.060646147
9	0x3cb77fa4	0.022399731
10	0xbd4ec40a	-0.050479926
11	0x3c53e6ff	0.012933492
12	0x3c73a242	0.014870228
13	0xbdd28206	-0.10278706
14	0x3c647ae1	0.013945312
15	0xbcb22f40	-0.021751046
16	0x3d980b1e	0.074239954
17	0x3d3307d9	0.043708656
18	0x3ce6f654	0.02819363
19	0xbb3e0c0a	-0.0028998875
20	0x3de607ef	0.11231982
21	0x3d510fb2	0.05104036
22	0x3d07fdc6	0.033201
23	0x3b9dffc6	0.0048217503
24	0xbbba9dfa	-0.005695102
25	0x3d17a931	0.037026588
26	0x3e05f3bd	0.1308126
27	0xbd9f4389	-0.07776553
28	0xbd0e0b8e	-0.03467899
29	0x3d39a030	0.045318782
30	0x3d8ff178	0.070284784
31	0x3d52b59b	0.051442724
32	0x3dd721a2	0.10504462
33	0xbd1b6363	-0.03793658
34	0x39db51b4	0.0004183181
35	0xbd8a5acb	-0.06755599
36	0x3cad7edc	0.021178655
37	0xbdef21d5	-0.11676375
38	0x3d7c3fc2	0.06158424
39	0xbc9d0645	-0.019168029
40	0x3e05c3ff	0.13063048
41	0xbcf61943	-0.030041343
42	0xbd7545e1	-0.059881095
43	0xbc8829aa	-0.01662143
44	0xbd765d50	-0.060147583
45	0xbd7ecf3a	-0.062209345
46	0xba3edc31	-0.0007280736
47	0xbd971659	-0.07377309
48	0x3d9557b4	0.07292119
49	0xbe0a5676	-0.13509545
50	0x3d8c1136	0.0683922
51	0x3d8057f2	0.06266774
52	0x3d9b069e	0.075696215
53	0xbc66f39a	-0.014096165
54	0xbdb811ac	-0.08987746
55	0xbcb8c25b	-0.022553613
56	0x3d85b36e	0.06528364
57	0xbd8dd160	-0.06924701
58	0x3be7a6f5	0.0070694634
59	0xbdc0c2dd	-0.09412167
60	0x3dd624bd	0.10456226
61	0xbe0d53e7	-0.13801537
62	0x3dc1a87a	0.094559625
63	0x3a519dc8	0.00079962285
64	0xbdc6079e	-0.096694216
65	0xbdbc7bba	-0.092032865
66	0xbbe79c7c	-0.007068215
67	0x3d9250bb	0.07144304
68	0x3b8910b9	0.0041829017
69	0x3da2f6f8	0.07957262
70	0xbbfbe333	-0.0076869964
71	0x3b3843ae	0.0028116512
72	0xbd0cd8b3	-0.034386348
73	0xbc44cbeb	-0.012011508
74	0xbccaae41	-0.024741294
75	0x3d42a2d0	0.04751855
76	0x3c382df3	0.011241424
77	0xbd84ecb8	-0.06490463
78	0xbb69507c	-0.003560095
79	0xbc971297	-0.018441482
80	0x3cbd41fd	0.023102755
81	0xbd8727e4	-0.065994054
82	0xbdbe3757	-0.09287899
83	0xbd0fd727	-0.035117295
84	0xbcf5893e	-0.029972669
85	0xbdaf7ff7	-0.08569329
86	0xbb4c94cd	-0.0031216622
87	0x3d118caa	0.03553454
88	0x3a92d743	0.0011203069
89	0xbbee30b1	-0.007268988
90	0xbcd07a35	-0.025448898
91	0xbd252ad8	-0.040324062
92	0xbd16b029	-0.036789093
93	0x3dfa60a7	0.12225466
94	0xbaafafb6	-0.0013403806
95	0x3d88f3c8	0.066871226
96	0xbca8d59f	-0.020609675
97	0x3ccc953d	0.024973506
98	0x3cf99044	0.030464299
99	0xbc3f6839	-0.011682563
100	0x3975e920	0.00023451867
101	0xbc9f0721	-0.019412579
102	0x3deab107	0.114595465
103	0x3d715370	0.058917463
104	0x3df44b07	0.11928373
105	0x3d8dce1e	0.06924079
106	0x3d8029dd	0.06257985
107	0x3ca910a9	0.020637827
108	0xba1a7341	-0.0005891808
109	0x3d786d6a	0.06065122
110	0xbd86999d	-0.06572268
111	0x3d418890	0.047249377
112	0x3c0234e9	0.007947185
113	0xbdd367c3	-0.10322525
114	0x3c44acfb	0.012004132
115	0xb8d7c049	-0.00010287815
116	0xbc34a10e	-0.011024727
117	0x3dab891b	0.0837576
118	0x3da83bf2	0.08214559
119	0xbdaf8da1	-0.085719354
120	0xbd7998c9	-0.060936723
121	0xbc5a77f2	-0.013334261
122	0xbd3353e6	-0.043781184
123	0xbdc1182a	-0.09428437
124	0x3c4a6086	0.012352115
125	0xbc5ce836	-0.013483098
126	0x3d31a0df	0.04336631
127	0x3c74a88c	0.014932763
128	0xbc8e8c04	-0.017400749
129	0x3d5f8aeb	0.054575842
130	0xbd6642ef	-0.056216177
131	0x3e008a83	0.12552838
132	0x3d4f5c24	0.05062498
133	0xbc4b7efd	-0.012420413
134	0x3d358216	0.044313513
135	0xbdb29122	-0.08719088
136	0x3d04d6b7	0.03243133
137	0xbdc6826a	-0.09692843
138	0x3db16c38	0.08663219
139	0xbd62af2e	-0.055342846
140	0xbd0d1a31	-0.034448806
141	0xbd0b70ba	-0.03404305
142	0xbd231a93	-0.039820265
143	0x3dcdb657	0.10044544
144	0x3c655645	0.013997619
145	0x3d74cf0b	0.059767764
146	0xbdb9a252	-0.09064163
147	0xbd392d3c	-0.045209154
148	0x3bb72375	0.0055889436
149	0xbb826ad1	-0.0039800187
150	0x3ddbf65a	0.10740347
151	0x3d6a7534	0.05724068
152	0xbc02e895	-0.007990022
153	0x3d0f43e2	0.034976847
154	0x3de0d9d3	0.10979047
155	0x3cdb7556	0.026789349
156	0xbd1da3a2	-0.03848613
157	0x3d29728d	0.04136901
158	0x3c40eac2	0.011774721
159	0xbbec0a3e	-0.0072033694
160	0x3d6f8baa	0.058482803
161	0x3b085a48	0.0020805765
162	0x3c8c1389	0.017099159
163	0x3cecbe0f	0.02889922
164	0x3ca21075	0.019783238
165	0x3ce04818	0.027378127
166	0x3c62f3c4	0.013852064
167	0xbc7bc0b0	-0.0153657645
168	0xbd110c66	-0.035412215
169	0xbd226960	-0.039651275
170	0x3d9d7d2f	0.076898925
171	0x3c381819	0.011236214
172	0x3c8a01ad	0.016846502
173	0xbd139147	-0.03602722
174	0x3a938973	0.0011256173
175	0xbd5276aa	-0.051382698
176	0x3d8c939d	0.068640925
177	0x3c6adf62	0.014335485
178	0xbcd52571	-0.02601883
179	0xbd0c6f35	-0.034285743
180	0xbdc6075c	-0.096693724
181	0xbd4cab25	-0.049967904
182	0xbd17cb42	-0.037059076
183	0x3c94cb5c	0.018163376
184	0xbda599d0	-0.08085978
185	0xbc2fd249	-0.010731288
186	0x3ce89ae7	0.028394176
187	0x3c959e84	0.018264063
188	0x3d3c7768	0.046012312
189	0xbbf9545d	-0.007608934
190	0xbcf10ab2	-0.029424045
191	0x3cd9131b	0.026498368
192	0x3d9a9ff0	0.07550037
193	0xbd376c49	-0.044781003
194	0x3d26744a	0.040638246
195	0x3dbff464	0.09372786
196	0xbcb003af	-0.021486131
197	0x3b1f0427	0.002426395
198	0xbe03caa4	-0.1287027
199	0xbc192f9b	-0.009349729
200	0xbe004060	-0.12524557
201	0x3d604647	0.05475452
202	0xbd40c76a	-0.047065176
203	0x3de08034	0.10961953
204	0xbda1b159	-0.078951545
205	0xbdb91d67	-0.09038811
206	0xbdda9d1f	-0.106745
207	0xbc8281c1	-0.015931012
208	0xbdb84a77	-0.08998578
209	0xbd84731d	-0.064672686
210	0xbd76d705	-0.060263652
211	0x3d2a432c	0.041567966
212	0xbdbaf2aa	-0.09128316
213	0xbd0ca31a	-0.034335233
214	0x3dac4a8a	0.08412655
215	0xbbe7dbfc	-0.0070757847
216	0xbd95cd23	-0.07314517
217	0xbd8cafd5	-0.06869475
218	0xbc864627	-0.016390873
219	0xbdf48788	-0.11939913
220	0x3ccd42ff	0.02505636
221	0x3e0097b5	0.12557872
222	0xbcc49fb2	-0.02400193
223	0x3d29d1f9	0.04146001
224	0x3d1e3784	0.038627163
225	0xbcb7e0ea	-0.022446115
226	0xbe0f664b	-0.14003865
227	0x3d448feb	0.047988813
228	0xbc2ed5f5	-0.0106711285
229	0xbd95502f	-0.072906844
230	0x3d9a7a3f	0.07542848
231	0xbb80b353	-0.003927627
232	0x3dbec505	0.09314922
233	0xbd4403cd	-0.047855187
234	0x3d810848	0.06300408
235	0xbcc24351	-0.02371374
236	0x3d713d82	0.05889655
237	0xbd6175ab	-0.055043858
238	0xbdb28596	-0.08716886
239	0xbd11bce0	-0.035580516
240	0x3d863cfb	0.065546
241	0xbcedd721	-0.029033246
242	0x3ddb85f4	0.10718909
243	0xbd4e46c6	-0.050360464
244	0xbd3fdbd1	-0.046840493
245	0x3d287408	0.04112628
246	0xbda24d08	-0.07924849
247	0xbd6cd16b	-0.057816904
248	0xbcce02ee	-0.025147881
249	0x3d671efc	0.056426033
250	0x3da3f315	0.080053486
251	0xbd85dcb1	-0.06536234
252	0xbd8ea577	-0.06965154
253	0x3dea7b7f	0.11449336
254	0xbd378d37	-0.044812407
255	0x3d1a1649	0.03761891

net.2.bias f4 [128]
0	0xbce91b24	-0.028455324
1	0xbd7bc336	-0.061465465
2	0x3db87648	0.09006935
3	0xbc66a3f0	-0.014077172
4	0x3cfd303c	0.030906789
5	0x3d2ee0d6	0.04269489
6	0xbd7a2927	-0.061074402
7	0x3cbad1d4	0.022805132
8	0x3d414a54	0.047190025
9	0x3d5bc5aa	0.053655304
10	0xbd172abb	-0.036905985
11	0x3dabf0e3	0.08395555
12	0xbd8665c7	-0.06562381
13	0xbdb4e75b	-0.0883319
14	0xbb895f16	-0.0041922433
15	0x3d281ba6	0.041041993
16	0x3d9d41cc	0.076785654
17	0x3db49f20	0.08819413
18	0x3d8ab8f8	0.06773561
19	0x3d940e43	0.07229283
20	0x3d071971	0.032983247
21	0x3c95568d	0.018229747
22	0xbd0f9da5	-0.03506245
23	0xbcab9546	-0.020945203
24	0xbdbc18f1	-0.09184445
25	0x3cf0a18d	0.029373908
26	0xbd943c2e	-0.07238041
27	0x3d653ea3	0.05596794
28	0xbd59d21d	-0.053178895
29	0xb9a27572	-0.0003098655
30	0xbbcdedeb	-0.0062844655
31	0xbcb58a62	-0.022160713
32	0xbd9d2581	-0.07673169
33	0x3dab8fa5	0.083770074
34	0xbc62fe83	-0.013854626
35	0x3c485d60	0.012229294
36	0x3d3e1dab	0.046415012
37	0xbba0aa32	-0.0049031014
38	0x3d41f49c	0.04735242
39	0x3cbba797	0.022907062
40	0xbd48656d	-0.048924852
41	0x3d7a0432	0.061039157
42	0x3d8b5dc0	0.06804991
43	0x3d9e9aff	0.07744407
44	0x3d516468	0.051121145
45	0x3d6ad393	0.05733068
46	0x3d901fbe	0.07037304
47	0x3b56a598	0.003275251
48	0x3cda8f20	0.026679575
49	0xbb4c6a57	-0.0031191313
50	0x3d48d232	0.049028583
51	0xbc4d708a	-0.012539038
52	0x3cd7ede4	0.026358552
53	0xbd338741	-0.04383016
54	0xbd752ddd	-0.05985819
55	0x3b8db6e5	0.0043247812
56	0x3db145eb	0.08655914
57	0x3bda5c5d	0.0066638426
58	0x3d914b85	0.07094482
59	0x3da03bd6	0.07823913
60	0xbd920dec	-0.07131562
61	0x3d958b95	0.07302014
62	0xbda01344	-0.078161746
63	0x3b2b75b6	0.002616269
64	0xbd80468d	-0.062634565
65	0x3d94671d	0.0724623
66	0x3d7b72e1	0.061388854
67	0x3c129db1	0.008948729
68	0x3d9816e8	0.07426244
69	0x3d39b02f	0.045334037
70	0xbca50544	-0.020144112
71	0xbd98f876	-0.07469265
72	0x3d7d541d	0.061847795
73	0xbd2c41c1	-0.042054895
74	0xbd78622e	-0.060640506
75	0x3d8ae566	0.067820355
76	0x3d96006c	0.07324299
77	0xbdb7662a	-0.08955033
78	0xbd813c67	-0.06310349
79	0xbba59353	-0.005052963
80	0x3c992b15	0.0186973
81	0x3da2d4c2	0.079507366
82	0x3cee852b	0.029116234
83	0xbd0922c7	-0.033480432
84	0x3d6521f1	0.055940572
85	0x3d004f3e	0.03132557
86	0xbdb061be	-0.08612393
87	0xbc465126	-0.012104308
88	0x3d4c31ce	0.049852185
89	0xbcfb69df	-0.030690132
90	0xbd908170	-0.07055938
91	0xbda8a5e7	-0.08234768
92	0xba9c87d2	-0.0011942333
93	0xbc43f3c6	-0.011959976
94	0xbd809c1f	-0.06279778
95	0xbd88ded6	-0.066831276
96	0x3db5134f	0.088415734
97	0x3d6d8065	0.057983775
98	0x3d21b249	0.039476667
99	0x3dba8998	0.09108275
100	0xbbc06ca8	-0.005872328
101	0x3d6de225	0.058076996
102	0x3d809b3d	0.06279609
103	0xbab6b7d6	-0.0013940285
104	0xbd2b2cc6	-0.041790746
105	0xbc7adb7e	-0.01531112
106	0x3d4e95a0	0.050435662
107	0x3c095e7d	0.008384344
108	0xbd9ed50e	-0.07755481
109	0xbd814ff1	-0.06314076
110	0x3d5afcff	0.053463932
111	0x3d126f1f	0.035750505
112	0xbd31af6b	-0.043380182
113	0x3d427b2f	0.04748076
114	0x3d300794	0.042975977
115	0x3cca86aa	0.024722416
116	0xbdb15b71	-0.08660019
117	0xbbaad948	-0.00521389
118	0xbc42df02	-0.0118939895
119	0xbd6fdc58	-0.058559746
120	0x3d1e271b	0.038611513
121	0xbd5be4c4	-0.053684965
122	0xbd93484b	-0.07191523
123	0xbca4ddf1	-0.020125361
124	0xbda36aed	-0.07979379
125	0x3d92036e	0.071295604
126	0x3d9e01fd	0.07715223
127	0xbd0d5026	-0.034500264

net.4.weight f4 [3, 128]
0	0xbe32a5bb	-0.17446034
1	0xbdf39985	-0.11894516
2	0x3e7fd6d5	0.24984296
3	0xbdadd4a0	-0.084878206
4	0xbcb7fac5	-0.022458443
5	0xbdeb22ec	-0.1148127
6	0x3d3ae248	0.045625955
7	0xbdeabb4e	-0.11461507
8	0x3d9a9b89	0.07549197
9	0x3c0d878d	0.008638275
10	0xbe168ad0	-0.1470139
11	0x3dedab5c	0.1160495
12	0x3df2264e	0.11823712
13	0xbe190441	-0.14943029
14	0x3c3b2d80	0.011424422
15	0xbe0f7cfc	-0.14012522
16	0x3d96ae54	0.07357469
17	0xbc1dd285	-0.009632711
18	0xbdbfc119	-0.09363002
19	0x3dc6b12a	0.0970176
20	0x3dabea20	0.08394265
21	0x3d36bc86	0.044613384
22	0xbe121de6	-0.14269218
23	0xbdb691d6	-0.08914535
24	0xbe27b601	-0.16378023
25	0x3e15d5a5	0.1463228
26	0x3e811f63	0.2521926
27	0xbde3ccbd	-0.11123035
28	0x3e57d7be	0.21078393
29	0x3de198f4	0.110155016
30	0x3e3c8883	0.1841145
31	0xbe126a84	-0.14298445
32	0xbdfe8ee9	-0.12429602
33	0x3dea4183	0.114382766
34	0xbd3ac358	-0.04559645
35	0xbdcc0a22	-0.0996287
36	0xbe0e5d53	-0.13902788
37	0xbd727cac	-0.059200928
38	0x3dd7426e	0.10510717
39	0x3d7ac0c1	0.06121898
40	0xbc1d51bd	-0.009602007
41	0x3dabda1c	0.083912104
42	0xbdfcf3be	-0.12351178
43	0x3dfe4f8c	0.12417516
44	0x3de066d8	0.10957116
45	0xbe36bc16	-0.17845187
46	0xbdfc5075	-0.123200335
47	0xbdb8b547	-0.09018951
48	0x3e4bfcbe	0.19920632
49	0xbe7579f9	-0.2397231
50	0xbc670af1	-0.01410173
51	0xbe12524a	-0.14289203
52	0xbe1854b1	-0.14876057
53	0x3e673e94	0.22582465
54	0x3de763b8	0.11298317
55	0x3dc2dee5	0.0951517
56	0x3e404a75	0.18778403
57	0xbc302ae3	-0.0107524125
58	0x3d8121ed	0.06305299
59	0x3d2d4919	0.04230604
60	0x3df0fc25	0.11766843
61	0x3dd750d0	0.10513461
62	0xbde661ce	-0.112491235
63	0xbdaf0466	-0.08545761
64	0x3d55668b	0.052099746
65	0xbd33f0bf	-0.043930765
66	0x3da6c9c3	0.08143952
67	0xbdae6f3e	-0.085173115
68	0x3de39e1e	0.11114143
69	0xbe0cc030	-0.13745189
70	0xbdf3dfb9	-0.11907906
71	0x3d287a6b	0.041132372
72	0xbc6decd1	-0.014521793
73	0x3d65e8ac	0.056130096
74	0x3e0e0dcc	0.1387245
75	0xbe4dcf02	-0.20098498
76	0x3cb80638	0.022463903
77	0x3df5688b	0.119828306
78	0x3d2a8dc9	0.041639123
79	0x3d90b6b5	0.070660986
80	0xbc8d75f9	-0.017268168
81	0xbdd83b9e	-0.10558246
82	0x3da43d44	0.08019498
83	0xbe31986b	-0.17343299
84	0x3d55daf1	0.052210752
85	0x3e465eaa	0.19372049
86	0xbe4294ce	-0.19002077
87	0x3d9fe95e	0.07808183
88	0x3da21193	0.07913508
89	0xbe163633	-0.14669113
90	0x3debd9b1	0.11516131
91	0xbddbd67f	-0.10734271
92	0x3e16d512	0.14729717
93	0x3e11fd5a	0.14256802
94	0x3dd63fac	0.10461363
95	0x3c9cc788	0.019138113
96	0x3e1b630b	0.151745
97	0x3d8ba35e	0.06818269
98	0xbd42bb08	-0.04754165
99	0x3cdc403f	0.026886104
100	0x3dfacad7	0.1224572
101	0xbd47179e	-0.048606507
102	0xbe2d106d	-0.16900797
103	0xbe1c7178	-0.1527766
104	0xbe6ec99b	-0.23319094
105	0xbde5a343	-0.1121278
106	0xbdc4df34	-0.09612885
107	0x3d9e6524	0.07734135
108	0x3dac09a4	0.08400276
109	0x3cc5a4ca	0.02412643
110	0x3de1dcfe	0.11028479
111	0x3dca854a	0.09888704
112	0x3dca576c	0.09879956
113	0x3d67759d	0.05650865
114	0x3e4a2df5	0.19744094
115	0xbda16bf3	-0.07881918
116	0xbe244835	-0.1604317
117	0x3db6cb65	0.08925513
118	0xbba21f9a	-0.004947615
119	0xbe3e0537	-0.18556677
120	0xbd714bd8	-0.05891022
121	0x3ca8f967	0.020626737
122	0xbe4ee474	-0.20204335
123	0xbafe3ade	-0.0019396206
124	0xbe06a7a7	-0.13149892
125	0x3d28c1aa	0.041200317
126	0x3deb8712	0.11500372
127	0xbe00e715	-0.12588151
128	0x3e11efeb	0.14251678
129	0xbd1457ba	-0.036216475
130	0x3d83567a	0.064129785
131	0xbdcae9d4	-0.099078804
132	0x3d8180e2	0.063234106
133	0xbe44b0a9	-0.19208016
134	0xbd8e9dad	-0.06963668
135	0xbdd5da07	-0.10441976
136	0xbdd40fc3	-0.10354569
137	0x3d8d7fad	0.06909118
138	0xbd4e0e8f	-0.050306853
139	0xbd786d34	-0.06065102
140	0xbc614d33	-0.013751316
141	0x3dc58c29	0.09645874
142	0x3dc99ce2	0.09844376
143	0x3dadf37d	0.08493707
144	0xbd802118	-0.06256312
145	0x3e1ec365	0.15504225
146	0xbae5291e	-0.0017483567
147	0x3db0d686	0.08634667
148	0x3da7eb39	0.08199162
149	0x3d4c92ef	0.049944814
150	0x3d362991	0.044473235
151	0x3dd6934b	0.10477313
152	0xbe2b8d0a	-0.16753021
153	0xbd0fd7d4	-0.03511794
154	0xbc79b9e1	-0.015242071
155	0xbded6f9e	-0.11593555
156	0x3d938afd	0.07204244
157	0xbd81661d	-0.06318305
158	0x3de8bd5c	0.113642424
159	0x3ce5a167	0.028031064
160	0xbc92b28e	-0.017907407
161	0xbd4e8fde	-0.05043017
162	0xbe2409e8	-0.16019404
163	0xbdffc7f8	-0.12489313
164	0x3dfa340a	0.12216957
165	0x3df2d470	0.118569255
166	0x3d76cc15	0.06025322
167	0xbc9d37c4	-0.01919163
168	0xbd836312	-0.064153805
169	0xbdb321a7	-0.08746653
170	0xbdd3f863	-0.103501104
171	0x3e650f57	0.22369133
172	0xbe1fb81e	-0.15597579
173	0xbd0da210	-0.034578383
174	0xbc86856b	-0.01642104
175	0xbce6e095	-0.028183261
176	0xbc898f60	-0.016792
177	0xbdceab1f	-0.100912325
178	0x3e0a7b0e	0.13523504
179	0xbdc0a778	-0.09406942
180	0xbd698b3c	-0.05701755
181	0x3e1d596e	0.15366146
182	0x3d3f84a8	0.04675737
183	0xbdf0f698	-0.11765784
184	0xbd090416	-0.033451162
185	0x3e06b8b5	0.13156398
186	0x3dfa4a74	0.12221232
187	0xbd299697	-0.04140338
188	0xbc950f31	-0.01819572
189	0x3da7ba5c	0.08189842
190	0x3db40602	0.087902084
191	0x3cd23a62	0.025662605
192	0x3e8201a5	0.2539188
193	0xbc952c4b	-0.018209597
194	0xbd483aad	-0.048884083
195	0x3e3ac52b	0.18239276
196	0xbdc9ca58	-0.09853047
197	0xbe153a92	-0.14573124
198	0x3dbc3e74	0.091915995
199	0x3e01c1b2	0.12671545
200	0xbdcffae3	-0.10155275
201	0x3e1cb036	0.15301594
202	0xbdaca0f3	-0.08429136
203	0xbd1d5d12	-0.038418837
204	0xbd03532d	-0.032061744
205	0x3d695605	0.0569668
206	0xbd43d8cd	-0.04781418
207	0xbe1850db	-0.14874594
208	0x3dab3233	0.08359184
209	0x3e18107a	0.14850035
210	0xbdeb3c2e	-0.11486088
211	0xbac70a94	-0.0015185648
212	0x3e052ac0	0.13004589
213	0x3da01eb5	0.07818357
214	0xbda9a8e8	-0.082841694
215	0x3cf65202	0.030068401
216	0xbcd21d34	-0.02564869
217	0x3e0e69ed	0.13907595
218	0x3e28cfcd	0.1648552
219	0x3c84951b	0.01618438
220	0xbc8d6159	-0.017258333
221	0x3c4af051	0.012386397
222	0x3db78985	0.08961777
223	0x3d433986	0.04766228
224	0xbdc2285b	-0.094803534
225	0xbcd30232	-0.025757883
226	0xbdde8712	-0.10865606
227	0xbc46f0db	-0.012142385
228	0x3e07e213	0.13269834
229	0xbdb45339	-0.08804936
230	0xbe0b1810	-0.13583398
231	0x3da85814	0.082199246
232	0x3dd79b27	0.1052764
233	0xbd4670eb	-0.04844753
234	0x3defa24f	0.1170088
235	0x3e23520b	0.15949266
236	0x3d694695	0.056952078
237	0xbd29cf6f	-0.04145759
238	0xbdb689a4	-0.089129716
239	0xbd0ad39b	-0.03389321
240	0xbd2136b4	-0.03935881
241	0x3dd55398	0.10416335
242	0xbd8d2929	-0.06892616
243	0xbda69278	-0.081334054
244	0xbd293830	-0.04131335
245	0xbd14c961	-0.036324862
246	0x3e5d138b	0.21589486
247	0xbe54938d	-0.20759411
248	0xbe1fae10	-0.15593743
249	0xbcbb3ee1	-0.022857131
250	0xbb8ae5e9	-0.004238833
251	0xbd5b1f20	-0.05349648
252	0x3da7374e	0.081648454
253	0x3e4fa307	0.20277034
254	0x3c3aa8fb	0.011392827
255	0x3d7e9fc1	0.062164072

net.4.bias f4 [3]
0	0x3c5718f6	0.01312851
1	0x3b815439	0.0039468077
2	0x3cc82aca	0.024434466

net.0.weight f4 [128, 18]
0	0x3d801f5b	0.062559806
1	0xbcf80d9c	-0.030279927
2	0x3d7156a9	0.058920536
3	0xbc682fc0	-0.014171541
4	0xbda980af	-0.082764976
5	0x3e70a573	0.23500614
6	0x3d928f1c	0.07156202
7	0xbd94b416	-0.07260911
8	0x3c387a5c	0.0112596415
9	0xbc92d9ec	-0.017926179
10	0xbd75a0b5	-0.059967715
11	0x3e5c7524	0.2152906
12	0xbe9ca63d	-0.3059558
13	0xbe146b96	-0.14494166
14	0xbd796d83	-0.060895454
15	0xbe1551e4	-0.1458202
16	0xbbd05be5	-0.006358611
17	0xbd4a372b	-0.04936902
18	0xbd907bd2	-0.07054867
19	0xbdc3317f	-0.09530925
20	0xbc299d42	-0.010352435
21	0xbe0848f3	-0.13309078
22	0x388af24d	6.625485e-05
23	0xbe2ff33f	-0.17182635
24	0xbe188d04	-0.14897543
25	0x3d47c58c	0.04877238
26	0xbd3286d4	-0.043585613
27	0x3e046a5c	0.12931198
28	0xbe183783	-0.14864926
29	0xbe12a699	-0.14321364
30	0x3d553c39	0.052059386
31	0xbdd41873	-0.10356226
32	0xbda3d9e3	-0.08000543
33	0x3e427873	0.1899126
34	0xbdc868d3	-0.09785619
35	0xbde8b975	-0.11363498
36	0xbe1e3b6f	-0.1545236
37	0x3e4f1918	0.20224416
38	0x3cef72fa	0.02922963
39	0x3e33136d	0.17487879
40	0x3e1bc53e	0.1521196
41	0xbe232a27	-0.15934049
42	0x3dbf379e	0.0933678
43	0x3e1b78bb	0.15182774
44	0xbc807c5e	-0.015684303
45	0x3d8b9542	0.06815578
46	0x3e632885	0.22183426
47	0xbbd0cfdc	-0.006372435
48	0xbe37ecdf	-0.17961453
49	0xbd00c6e9	-0.031439696
50	0x3a65d143	0.0008766839
51	0x3e5f7837	0.21823202
52	0xbb7fe8f9	-0.0039048775
53	0x3d05125f	0.032488223
54	0xbe45765c	-0.19283432
55	0x3cf00151	0.029297503
56	0xbda9b6e8	-0.0828684
57	0x3de1e903	0.110307716
58	0x39976c89	0.0002888183
59	0xbdedde2e	-0.11614643
60	0x3daeb156	0.08529918
61	0xbe48528b	-0.19562738
62	0xbda1945a	-0.07889624
63	0xbe49168c	-0.19637507
64	0x3d89350f	0.06699573
65	0xbd8991b0	-0.06717241
66	0xbdfce378	-0.12348074
67	0xbe1af736	-0.15133366
68	0x3cd2c0a9	0.025726633
69	0xbd870bbf	-0.06594037
70	0xbdbd9994	-0.09257808
71	0x3d09d622	0.03365148
72	0xbe652652	-0.223779
73	0xbdc0d9a5	-0.094165124
74	0xbde1f953	-0.11033883
75	0x3dd981dc	0.10620472
76	0xbdccd2f2	-0.10001172
77	0xbe05e190	-0.13074327
78	0x3dce0d35	0.10061113
79	0xbe4d518a	-0.20050636
80	0x3b9d2217	0.0047953236
81	0x3e2633d7	0.16230713
82	0x3dad28f4	0.08455077
83	0x3e57db12	0.21079662
84	0x3e07adfc	0.13249964
85	0xbe12c6a1	-0.14333583
86	0x3cedd3ff	0.029031752
87	0x3e66897b	0.22513382
88	0xbe6b657d	-0.22987933
89	0x3d1667f0	0.036720216
90	0x3e69d6b4	0.22835809
91	0xbe0e8a3c	-0.1391992
92	0x3d9d1c41	0.07671405
93	0x3b9f7236	0.00486591
94	0xbdcb21e3	-0.09918573
95	0xbe356ed9	-0.17718066
96	0xbd58b05c	-0.052902564
97	0x3dfdf957	0.124010734
98	0x3c439927	0.01193837
99	0xbdf9bad6	-0.12193839
100	0x3e2a9ab9	0.16660585
101	0x3dd28b33	0.102804564
102	0x3d440fa7	0.04786649
103	0x3db8513a	0.08999868
104	0xbdb90551	-0.09034217
105	0xbe3da56e	-0.18520138
106	0x3d720f8a	0.05909685
107	0x3e2d36c5	0.16915424
108	0x3e810ac8	0.25203538
109	0x3c7bf31a	0.015377784
110	0x3c1c7966	0.009550428
111	0x3e044946	0.12918577
112	0x3e3c311f	0.18378113
113	0xbe3d066b	-0.1845948
114	0x3d0ad433	0.033893775
115	0x3de3663c	0.11103484
116	0xbd183b0a	-0.03716568
117	0x3dee4602	0.11634447
118	0xbe2dd4ed	-0.16975756
119	0x3dd7a0e5	0.10528735
120	0xbcae710f	-0.021294145
121	0xbe322f00	-0.17400742
122	0x3c1f8684	0.009736661
123	0x3d2c6e43	0.04209734
124	0x3e64a846	0.22329816
125	0xbd7537f0	-0.0598678
126	0xbcc36733	-0.02385292
127	0x3dd342a6	0.103154466
128	0x3d30f015	0.04319771
129	0xbe27dad6	-0.16392073
130	0xbe1147cc	-0.14187545
131	0xbe6f36eb	-0.23360793
132	0xbda639c1	-0.081164844
133	0xbdcf3a6b	-0.10118564
134	0xbcf8471b	-0.030307343
135	0x3e3b7eac	0.1831004
136	0x3e5b714b	0.21429937
137	0xbdcccbb6	-0.09999792
138	0x3e31d5ba	0.17366686
139	0x3e045a06	0.12924966
140	0x3daedae1	0.085378416
141	0x3da6a0ed	0.08136163
142	0x3e0a221f	0.13489579
143	0xbd8872de	-0.06662534
144	0x3e1869d6	0.14884123
145	0xbdfd59fb	-0.12370678
146	0x3b34cfe7	0.002758974
147	0x3dc114ae	0.094277725
148	0xbe3613a7	-0.17780934
149	0xbe101444	-0.1407023
150	0x3d6ab83e	0.057304613
151	0x3e46b3cc	0.19404525
152	0xbd551261	-0.05201948
153	0xbe2decbd	-0.1698484
154	0x3cd452e3	0.02591843
155	0xbe5e7010	-0.21722436
156	0x3e050206	0.12989053
157	0x3e035f7b	0.12829392
158	0x3cf0701d	0.029350335
159	0xbdc5dddc	-0.09661457
160	0x3de2d249	0.11075265
161	0x3de8344d	0.113381006
162	0xbe0fbe07	-0.14037333
163	0xbe510717	-0.20412861
164	0x3d7de873	0.06198926
165	0xbb8fcffc	-0.0043888073
166	0x3dbe3210	0.092868924
167	0xbdbbe072	-0.09173669
168	0xbe93767c	-0.28801334
169	0x3d90a74e	0.07063161
170	0x3d2a0af1	0.04151434
171	0xbe6b6082	-0.22986034
172	0x3db5eeaa	0.08883412
173	0x3d9f811b	0.07788297
174	0xbdb2b93a	-0.087267354
175	0xbe21070d	-0.15725346
176	0xbdb1bcbd	-0.08678577
177	0xbe6ea325	-0.23304422
178	0x3e00bb9a	0.12571564
179	0xbe015924	-0.1263166
180	0xbdc33f6c	-0.09533581
181	0xbdcd36fe	-0.100202546
182	0x3bbf9f91	0.005847879
183	0xbcc1f3cd	-0.023675824
184	0x3e6e7c32	0.23289564
185	0xbe1c809d	-0.15283437
186	0x3c8d5b55	0.017255465
187	0x3bc0be4d	0.0058820606
188	0xbc3c95fb	-0.0115103675
189	0xbe3376db	-0.17525809
190	0x3d109d57	0.0353063
191	0x3bcbe937	0.0062228697
192	0xbc178da0	-0.009250075
193	0x3ce2bc89	0.027677791
194	0x3d93c6e5	0.072156705
195	0xbcf5d865	-0.030010412
196	0xbd9d5053	-0.07681336
197	0xbe6327ff	-0.22183226
198	0xbb9f3f77	-0.0048598605
199	0x3e0b06af	0.13576768
200	0xbd8e5c79	-0.069512315
201	0x3e4baff8	0.19891346
202	0xbe6c73ea	-0.23091093
203	0xbe42b54c	-0.19014472
204	0xbe0d3cec	-0.13792771
205	0x3e46235d	0.19349428
206	0xbb1aa647	-0.0023597644
207	0xbdc7f3d4	-0.097633034
208	0xbe1a4625	-0.1506582
209	0xbd19f302	-0.037585266
210	0x3d8baf7a	0.06820579
211	0xbdf846ea	-0.12122901
212	0xbd212508	-0.039341956
213	0x3d02ca37	0.03193113
214	0xbe26858f	-0.16261886
215	0x3e50a582	0.20375636
216	0xbd6f7f11	-0.05847079
217	0xbe3ff68b	-0.18746392
218	0x3b7c4470	0.003849294
219	0x3e238ae3	0.1597095
220	0xbe23ccdb	-0.15996115
221	0x3e6f30c6	0.2335845
222	0x3d0ebcc5	0.034847993
223	0x3e1a60cc	0.15075988
224	0xbd1f1a5a	-0.03884349
225	0x3de9b8cc	0.114122
226	0xbe2d55de	-0.16927287
227	0xbe6dee30	-0.23235393
228	0xbd51bcf5	-0.051205594
229	0xbe4e89cc	-0.20169753
230	0xbdcc55eb	-0.09977325
231	0xbde78d21	-0.11306215
232	0x3e4347c4	0.19070345
233	0x3e0e8dee	0.1392133
234	0x3dd1f400	0.102516174
235	0x3e4d8d4b	0.2007343
236	0x3dab8aed	0.08376107
237	0x3d9b6fc9	0.07589681
238	0x3dcef318	0.1010496
239	0x3e1d65b5	0.1537083
240	0x3dff7c2d	0.124748565
241	0xbd5b8914	-0.053597525
242	0xbd8d3b66	-0.06896095
243	0xbddc0450	-0.1074301
244	0xbdbe1baf	-0.09282624
245	0x3c7b1a5f	0.015326112
246	0xbe07f1f9	-0.13275899
247	0xbdc39b59	-0.095511146
248	0x3dbf92fd	0.09354208
249	0x3e100b55	0.14066823
250	0xbddfdcd3	-0.10930791
251	0xbd5ddbbb	-0.05416463
252	0xbd354923	-0.0442592
253	0xbdd5e609	-0.10444266
254	0x3cf66a36	0.030079942
255	0x3de49d45	0.11162809

net.0.bias f4 [128]
0	0xbe9ac05b	-0.3022488
1	0x3ea8e9de	0.32990927
2	0xbe4d290a	-0.20035186
3	0xbe8dacae	-0.27670807
4	0xbe5cf2d5	-0.21577008
5	0x3e9f7021	0.31140235
6	0x3eb3338b	0.35000262
7	0x3ec1b6e5	0.3783485
8	0x3e9af31d	0.30263606
9	0xbe443f16	-0.1916469
10	0x3e81fcd4	0.25388205
11	0x3e7a1b47	0.24424468
12	0xbe52fc7e	-0.2060413
13	0xbe768820	-0.24075365
14	0xbe650401	-0.22364809
15	0x3ebebbc8	0.3725264
16	0x3ea28ba5	0.31747165
17	0x3e930a43	0.28718767
18	0xbec06792	-0.37579018
19	0xbe9bf69e	-0.3046159
20	0x3e9dee64	0.3084594
21	0xbea94f64	-0.33068383
22	0xbe676522	-0.22597173
23	0xbec1a817	-0.37823555
24	0xbe9fc4de	-0.31204885
25	0xbeb264bd	-0.34842482
26	0x3e80704f	0.25085685
27	0x3e8e2d5b	0.27768978
28	0x3e9a6831	0.30157617
29	0xbea87ab0	-0.32906103
30	0x3ea8dd55	0.32981363
31	0x3e553c3f	0.20823763
32	0xbea13b96	-0.31490773
33	0xbebf01fb	-0.37306198
34	0x3e6cfa7a	0.23142424
35	0xbe812cd0	-0.25229502
36	0x3e987481	0.29776385
37	0x3ea30c36	0.31845254
38	0xbebae04e	-0.36499256
39	0xbe8cf59f	-0.27531144
40	0xbe6483c9	-0.22315897
41	0xbe4d248f	-0.20033477
42	0x3ebf9ded	0.37425175
43	0x3eb888fc	0.3604201
44	0xbe79f204	-0.24408728
45	0xbe9dcd91	-0.30820897
46	0xbe4acb23	-0.19804053
47	0x3eb61890	0.35565615
48	0x3eba1634	0.36345065
49	0x3e7968df	0.24356411
50	0x3ea8185f	0.32831094
51	0xbe9b7b75	-0.30367628
52	0xbe3b74e5	-0.1830631
53	0xbe92518c	-0.2857784
54	0xbea7530d	-0.3268055
55	0x3ec60365	0.38674465
56	0xbec0978b	-0.37615618
57	0x3e8f0d7a	0.2793997
58	0x3ea8b9cd	0.32954255
59	0xbe88e59c	-0.26737678
60	0xbe61b07c	-0.2203998
61	0xbeaa2bf7	-0.33236668
62	0x3eba5c99	0.3639877
63	0x3e629a59	0.22129191
64	0xbe7312b9	-0.23737611
65	0xbe5e981a	-0.2173771
66	0x3e88f2bc	0.26747692
67	0xbe6a69a6	-0.22891864
68	0xbebe94db	-0.37222943
69	0x3e957e6f	0.29198024
70	0x3ec509fa	0.38484174
71	0xbe9f2d89	-0.31089428
72	0xbe72a616	-0.2369617
73	0xbe9b2628	-0.30302548
74	0x3ebc69bc	0.3679942
75	0x3eb9f1fd	0.36317435
76	0xbe9121f2	-0.2834621
77	0x3e8798d0	0.26483774
78	0xbe66b953	-0.22531633
79	0xbe5e257c	-0.21693987
80	0xbead723b	-0.33876213
81	0x3eb843d0	0.35989237
82	0xbe7a40cb	-0.24438779
83	0x3e749321	0.2388425
84	0x3e7fb114	0.24969894
85	0x3eb70a6f	0.35750148
86	0x3e755946	0.23959836
87	0xbe88e2da	-0.26735574
88	0xbebf48bf	-0.37360188
89	0xbe5ec689	-0.21755423
90	0xbe8e50e3	-0.27796087
91	0xbe787906	-0.24264917
92	0x3ec86753	0.3914133
93	0xbeb0cd44	-0.34531605
94	0x3e3563ba	0.17713824
95	0xbe6d3daa	-0.23168054
96	0xbea87aa4	-0.32906067
97	0x3e574645	0.210229
98	0xbeb9853d	-0.36234465
99	0x3e93dfd7	0.28881714
100	0x3e8d313c	0.27576625
101	0x3ea0e368	0.31423497
102	0xbe98e25c	-0.29860198
103	0xbe5cff48	-0.21581757
104	0xbe99e17c	-0.30054843
105	0x3e97fb8d	0.29684106
106	0xbe7d9802	-0.24765018
107	0xbe7bf3f7	-0.24604784
108	0xbead806a	-0.33887035
109	0x3e67fc58	0.22654855
110	0xbeb2b25e	-0.34901708
111	0xbeacb33d	-0.33730498
112	0xbe99824b	-0.29982218
113	0xbead7a1c	-0.33882225
114	0x3e819f71	0.25316957
115	0xbebbffaa	-0.36718494
116	0x3eb3fa2d	0.35151806
117	0x3e4a3373	0.19746189
118	0x3ebdc9e4	0.37068093
119	0x3e8e02fa	0.27736646
120	0x3e6a394b	0.22873418
121	0xbec6e19e	-0.38844007
122	0xbe9614d3	-0.29312763
123	0x3e9470fe	0.28992456
124	0x3eb057da	0.34442025
125	0x3e7b9965	0.24570234
126	0xbeb45076	-0.35217637
127	0xbe749c8d	-0.23887844

net.2.weight f4 [128, 128]
0	0x3ca8d850	0.020610958
1	0xbdda4868	-0.10658342
2	0x3e64a797	0.22329555
3	0x3e0173ad	0.12641783
4	0x3d591b3f	0.0530045
5	0xbba34d02	-0.0049835453
6	0xbdc5a6ec	-0.096509784
7	0xbdd66b93	-0.10469737
8	0xbd583156	-0.052781425
9	0x3def5b58	0.11687344
10	0xbd7adcb7	-0.061245646
11	0xbe058115	-0.13037522
12	0x3d4b7cd4	0.049679592
13	0x3de22aac	0.11043295
14	0x3dbe97c2	0.09306289
15	0xb9d25a58	-0.00040121633
16	0xbdb7b371	-0.089697726
17	0xbe283972	-0.16428164
18	0x3d9758d7	0.07389992
19	0x3bea6416	0.0071530445
20	0xbd96d5c7	-0.073649935
21	0x3e0ae932	0.1356552
22	0x3e205b76	0.1565989
23	0x3e1a6e0d	0.15081044
24	0x3cb03c71	0.021513196
25	0x3d70beea	0.05877582
26	0xbddd14f0	-0.10795009
27	0xbce242db	-0.02761977
28	0xbde67d66	-0.112543866
29	0x3cbfa77c	0.023395292
30	0xbbb83f91	-0.005622812
31	0xbe1f8ae0	-0.1558032
32	0x3e23f6b4	0.16012079
33	0x3c08c91a	0.008348728
34	0xbe32e6d1	-0.17470862
35	0x3d952d72	0.07284059
36	0xbd8b5091	-0.06802476
37	0xbe246078	-0.16052425
38	0xbb3c7e4b	-0.00287618
39	0x3d94bafb	0.07262226
40	0x3e6f94e6	0.23396644
41	0x3df9cb69	0.121970005
42	0xbacb82c9	-0.0015526648
43	0xbdf4549e	-0.11930202
44	0x3e1b6c00	0.15177917
45	0x3d6d4639	0.057928298
46	0x3ddd4343	0.10803845
47	0xbca7391a	-0.02041297
48	0xbdac06ac	-0.0839971
49	0xbd830019	-0.06396503
50	0x3b7c3a7b	0.0038487006
51	0x3e1d31aa	0.15350977
52	0x3e542fc9	0.20721354
53	0x3dd52ed5	0.10409323
54	0x3e1b5d83	0.1517239
55	0xbdf20f65	-0.118193425
56	0x3dc16f21	0.09445024
57	0xbde8746f	-0.11350333
58	0xbd8a2621	-0.06745554
59	0x3e2f77fd	0.17135616
60	0x3e5374f3	0.20650081
61	0x3e2b7972	0.16745546
62	0xbded30a1	-0.11581541
63	0xbe38ce01	-0.18047334
64	0x3e464323	0.19361548
65	0x3e2c75d6	0.16841826
66	0xbe01bab4	-0.12668878
67	0x3e125f55	0.14294179
68	0x3e20275f	0.15640019
69	0xbe0f63c1	-0.14002897
70	0xbcec9aaa	-0.028882343
71	0x3e068bab	0.13139217
72	0x3e184767	0.14870988
73	0x3dea1313	0.11429419
74	0xbcf9a005	-0.030471811
75	0xbd88c5bd	-0.066783406
76	0x3d2edc7a	0.04269073
77	0xbe10c25c	-0.14136642
78	0x3d8c3e67	0.0684784
79	0x3e1533d5	0.14570554
80	0x3e2bd495	0.16780312
81	0xbcbec41b	-0.02328687
82	0x3d34fd69	0.044186983
83	0xbd29ff82	-0.041503437
84	0xbdbfa721	-0.09358049
85	0xbd9ebc73	-0.077507876
86	0xbe1c3ffb	-0.15258782
87	0x3cd53909	0.026028173
88	0x3d581ce2	0.05276192
89	0x3e575bae	0.21031067
90	0x3e024672	0.12722185
91	0x3e28a6df	0.16469906
92	0xbe092bb6	-0.1339558
93	0x3d8ba802	0.06819154
94	0xbe65bf28	-0.22436202
95	0x3e3c4ea6	0.18389377
96	0x3d0d1345	0.034442205
97	0xbe3ff852	-0.1874707
98	0x3e1dc49d	0.15407033
99	0xbdc7c0a3	-0.097535394
100	0xbde90452	-0.11377777
101	0xbe2ba4ff	-0.1676216
102	0x3e3262e6	0.1742054
103	0x3e43ac15	0.19108613
104	0x3e0e64b0	0.13905597
105	0xbe201c2a	-0.15635744
106	0x3e17a129	0.14807571
107	0x3d438745	0.047736425
108	0x3c96e1b9	0.01841818
109	0xbd5a4076	-0.05328413
110	0xb9a7298c	-0.00031883677
111	0x3dddcc54	0.10829988
112	0x3de8dd7b	0.11370369
113	0x3e13aef0	0.14422202
114	0xbe385927	-0.18002759
115	0x3e0104e2	0.12599519
116	0xbe2afadc	-0.16697258
117	0xbd94cd6a	-0.07265742
118	0xbdbb1d42	-0.0913644
119	0xbd18426d	-0.037172724
120	0xbe05abc6	-0.13053808
121	0x3e1ff946	0.15622434
122	0x3e0b35fb	0.1359481
123	0xbd5415f8	-0.051778764
124	0xbdbf0bf9	-0.093284555
125	0xbdec12c4	-0.11527017
126	0x3e09f029	0.1347052
127	0x3d381a20	0.04494679
128	0xbe146e28	-0.14495146
129	0x3e3d52da	0.18488637
130	0xbe806905	-0.25080124
131	0xbe3f8509	-0.18703093
132	0xbdad7b61	-0.08470798
133	0x3d2c9b3a	0.042140223
134	0x3de16e60	0.110073805
135	0x3dd68661	0.104748495
136	0x3defc08a	0.11706646
137	0xbe6530f3	-0.22381954
138	0x3e509285	0.20368393
139	0x3dc8ab11	0.09798253
140	0xbdcf2420	-0.10114312
141	0xbe5b6475	-0.2142504
142	0xbdf08a42	-0.117451206
143	0x3e2adb8e	0.16685316
144	0x3e1de941	0.1542101
145	0x3e4e60aa	0.20154062
146	0xbdff1a8e	-0.12456237
147	0xbe0418f0	-0.12900138
148	0x3e230597	0.15920101
149	0xbe0ed4ca	-0.1394836
150	0xbdff7e84	-0.12475303
151	0xbda26587	-0.07929521
152	0xbe1da99d	-0.15396734
153	0xbd8075bf	-0.06272458
154	0x3dc64d59	0.09682722
155	0x3d6f8782	0.05847884
156	0x3d9bd1f4	0.07608405
157	0xbddb2b62	-0.10701634
158	0x3d3b381e	0.045707814
159	0x3e74590d	0.23862095
160	0xbe28d0b6	-0.16485867
161	0xbe338ce0	-0.17534208
162	0x3e021094	0.12701637
163	0xbe079f27	-0.13244306
164	0x3d967986	0.073473975
165	0x3db89d6b	0.090144
166	0xbe336f8e	-0.17523023
167	0xbe48a66e	-0.19594738
168	0xbe4a087f	-0.19729804
169	0xbe6bf645	-0.23043163
170	0x3e144fff	0.14483641
171	0x3e4310a4	0.19049317
172	0xbdeed945	-0.116625346
173	0xbd037bbf	-0.032100435
174	0xbdc45f3b	-0.09588476
175	0x3e09fcff	0.13475417
176	0x3cee89ea	0.029118497
177	0x3e231305	0.15925224
178	0x3deac615	0.114635624
179	0xbe2f6c03	-0.17131047
180	0xbdf41672	-0.119183436
181	0xbd03b77e	-0.032157414
182	0xbdf53400	-0.11972809
183	0x3d3087e5	0.04309835
184	0xbd834fb4	-0.064116865
185	0x3e1729e3	0.14762072
186	0x3d419cee	0.0472688
187	0xbe145b1a	-0.14487877
188	0xbe286cfa	-0.16447821
189	0xbd0add85	-0.033902664
190	0x3dcfcf1f	0.10146927
191	0x3e78af60	0.2428565
192	0xbe5f2265	-0.21790464
193	0xbdf1e688	-0.118115485
194	0x3e4cf06b	0.20013587
195	0xbe13d72c	-0.1443755
196	0xbce1a9cd	-0.027546788
197	0x3e40470a	0.18777099
198	0x3cf7a306	0.030229103
199	0xbde08e35	-0.10964624
200	0xbe21c14a	-0.1579639
201	0xbe022288	-0.12708485
202	0x3d86f8d8	0.06590432
203	0x3d0fa418	0.0350686
204	0xbd11e344	-0.035617128
205	0x3e3c14e6	0.18367347
206	0xbe269d4f	-0.16270946
207	0xbe334e87	-0.17510425
208	0xbde85bde	-0.11345647
209	0x3cbb491d	0.022862012
210	0xbdd04a69	-0.101704426
211	0x3dff9143	0.12478878
212	0x3da67896	0.08128469
213	0x3e4ce2b3	0.20008354
214	0x3e01e4be	0.12684914
215	0xbe175cb5	-0.14781459
216	0xbd6b20f2	-0.057404466
217	0xbe7084db	-0.2348818
218	0xbe181c1c	-0.14854473
219	0xbe50f36e	-0.20405361
220	0x3d54e884	0.051979557
221	0xbd59529d	-0.0530573
222	0x3e1fbddd	0.15599771
223	0xbe22650c	-0.15858859
224	0xbd4f8958	-0.05066809
225	0x3e022cba	0.12712374
226	0xbe15b6b2	-0.14620474
227	0x3e2b48da	0.1672701
228	0x3e12d3fb	0.14338677
229	0x3e357a35	0.177224
230	0xbd4c978a	-0.049949206
231	0xbe0ec804	-0.13943487
232	0xbe2983fa	-0.16554251
233	0x3e36132d	0.17780752
234	0xbda6af8d	-0.081389524
235	0xbe3496a6	-0.17635593
236	0xbd6991c9	-0.057023797
237	0x3e607bde	0.21922252
238	0xbe2a498a	-0.16629615
239	0xbe2b7b03	-0.16746144
240	0xbde9d6bc	-0.114179105
241	0xbd982cc1	-0.07430411
242	0x3dd0750e	0.101785764
243	0xbdc89102	-0.09793283
244	0x3d8faf30	0.07015836
245	0x3d6a97d1	0.05727369
246	0x3da8badf	0.08238768
247	0x3d2f43f1	0.042789403
248	0x3dee8688	0.116467535
249	0xbe3ba9cd	-0.18326493
250	0xbe192522	-0.14955571
251	0x3e17c44d	0.14820977
252	0x3e0fcadf	0.14042233
253	0x3dbbabb8	0.09163612
254	0xbe134558	-0.14381921
255	0xbe280164	-0.1640678

net.2.bias f4 [128]
0	0xbd0d06ee	-0.034430437
1	0x3d266f4f	0.040633496
2	0x3b41128c	0.0029460518
3	0x3e250c25	0.16117914
4	0xb9151453	-0.00014217319
5	0x3d965018	0.073394954
6	0xbddcb1e7	-0.1077612
7	0x3df3c0b2	0.11901988
8	0xbcbefe71	-0.023314686
9	0xbe00ec6f	-0.12590192
10	0x3d29906e	0.041397505
11	0xbde0ba47	-0.109730296
12	0xbde25853	-0.11052003
13	0xbc4c8a47	-0.01248414
14	0xbe05e887	-0.13076983
15	0x3c8148f1	0.015781851
16	0xbcefd5c1	-0.02927673
17	0x3e18c352	0.14918259
18	0xbe1a7fa7	-0.15087758
19	0xbe129477	-0.14314447
20	0xbcf3cd30	-0.029760927
21	0xbe141601	-0.14461519
22	0xbe166246	-0.14685926
23	0xbdeaf3c2	-0.11472274
24	0x3b6ada8c	0.003583583
25	0x3ddb774c	0.107161134
26	0xbe04becd	-0.1296341
27	0x3e002111	0.12512614
28	0xbc525459	-0.012837493
29	0x3dd2c618	0.1029169
30	0x3d7d23f2	0.06180186
31	0x3de70b40	0.11281443
32	0xbc857a07	-0.016293539
33	0xbdfad909	-0.122484274
34	0xbdef0b85	-0.11672119
35	0xbe0fba5a	-0.14035931
36	0xbdc881bf	-0.09790372
37	0xbb987522	-0.004652635
38	0xbd56cdb3	-0.052442264
39	0x3c55e967	0.013056136
40	0xbe0c2913	-0.13687544
41	0xbdd82188	-0.105532706
42	0x3d1f0561	0.03882349
43	0x3def97df	0.11698889
44	0xbdefd329	-0.117101975
45	0xbdda4be3	-0.106590055
46	0xbc7ea26d	-0.015541655
47	0xbcaa0c5d	-0.020757848
48	0x3c08148d	0.008305681
49	0xbdc262db	-0.094915114
50	0x3da72909	0.08162124
51	0xbe1cf5ae	-0.15328094
52	0xbe04a7a0	-0.12954569
53	0xbd747464	-0.05968131
54	0xbdfd26b8	-0.12360901
55	0x3d29a976	0.041421376
56	0x3dbc90cc	0.09207305
57	0x3dde911e	0.10867523
58	0x3dc9e490	0.09858048
59	0x3e23fb22	0.16013768
60	0x3d47020b	0.048585933
61	0x3ca9cd5c	0.020727806
62	0x3bcbc20f	0.006218202
63	0x3cfec265	0.031098554
64	0x3de66712	0.11250128
65	0x3d0506dd	0.03247725
66	0xbd85a013	-0.06524672
67	0xbd2a0f05	-0.04151823
68	0xbc7326ea	-0.014840821
69	0x3e111444	0.14167887
70	0x3c9e20ec	0.019302808
71	0x3c11d672	0.008901225
72	0x3dd08eac	0.101834625
73	0xbd5eb7c3	-0.054374468
74	0xbd24a565	-0.040196795
75	0x3c415e22	0.011802228
76	0xbd101e7f	-0.035185333
77	0x3db677ea	0.089095905
78	0xbdca0966	-0.09865074
79	0xbd956d07	-0.07296186
80	0x3cf2d230	0.02964124
81	0x3d108c90	0.0352903
82	0xbc6a975e	-0.014318315
83	0x3df0eed0	0.117643
84	0xbdeef010	-0.11666882
85	0x3e1192ce	0.14216158
86	0xbdad6d54	-0.08468118
87	0xbe03241e	-0.12806746
88	0xbc980a78	-0.01855968
89	0x3b31467b	0.0027050066
90	0x3ced69b7	0.028981073
91	0xbe174c05	-0.14775093
92	0xbdc5de04	-0.09661487
93	0x3dd00130	0.101564765
94	0x3d2cffa0	0.04223597
95	0x3c658c61	0.01401052
96	0x3ca6d026	0.020362925
97	0xbe185824	-0.14877373
98	0x3cba1823	0.022716587
99	0x3dda4e80	0.10659504
100	0xbe1ff949	-0.15622438
101	0xb952f16e	-0.000201171
102	0xbdc66097	-0.09686392
103	0x3df42119	0.119203754
104	0x3de39239	0.11111874
105	0x3e074ff6	0.13214096
106	0x3dae1aad	0.08501182
107	0xbbd6fb49	-0.0065607172
108	0xbd8d7d85	-0.069087066
109	0x3de44cd0	0.11147463
110	0x3d60ee5b	0.054914813
111	0x3dbd7bb5	0.09252111
112	0x3d4884a4	0.04895462
113	0x3bdc6014	0.0067253206
114	0xbd6d9067	-0.05799904
115	0x3db852b1	0.09000147
116	0x3df7c6ca	0.12098463
117	0xbe01c688	-0.1267339
118	0xbbcb1d77	-0.006198581
119	0x3e2aa5f4	0.16664869
120	0x3dada317	0.084783725
121	0xbe178b0e	-0.14799139
122	0xbd67953a	-0.056538798
123	0x3da0e06f	0.07855307
124	0x3d9c0154	0.07617441
125	0xbd88c6e3	-0.0667856
126	0xbd6dfa1b	-0.058099847
127	0xbd0181b0	-0.03161782
