runs/checkpoint_e010.pt (torch, 158519 bytes, 12 tensors)

net.0.weight f4 [128, 18]
0.23755917 -0.14592096 -0.1596107 -0.21412252 -0.00085667684 -0.016518783 0.0736616 -0.09445227
0.13981387 0.2299886 0.06961268 -0.06225469 0.22923484 0.04432539 0.13331209 -0.06884013
-0.18734139 0.115640275 -0.054108966 0.23863755 0.16179651 0.044683892 0.038661387 -0.17828047
0.11628323 0.08984299 -0.21230684 -0.1173767 0.22870186 -0.0074313884 0.08890239 0.1217645
-0.14887558 -0.097165234 0.21209162 0.016564723 -0.10337601 -0.13623007 -0.16684397 -0.06402724
-0.08362286 0.11378281 -0.2035886 0.17090413 0.05833683 0.04232679 -0.08714195 0.21431765
0.1746801 0.18179332 0.057443492 -0.15710573 -0.012938099 0.008692366 0.10697767 0.24559252
-0.09722144 0.17326255 0.12600547 -0.03987297 0.004673802 0.25763687 0.18472905 0.033790816
0.0446951 -0.07522906 -0.04913624 -0.004718252 0.028339673 -0.20268115 -0.15870737 -0.03165751
-0.09584829 0.05035819 -0.0952271 -0.021258898 0.17740247 -0.15215114 0.044952545 0.13889055
0.08295148 -0.16112962 0.020347318 0.2342523 0.07440784 -0.12336548 -0.23398072 0.16367799
0.22832215 0.23500633 0.034297932 -0.067809746 -0.15625232 -0.15056138 -0.036705524 0.12348982
0.11013422 0.16208883 0.21538173 -0.06270558 0.20106168 -0.15052444 -0.2172819 -0.08250747
-0.12528269 0.16213033 -0.0626199 0.17036082 -0.22770688 -0.01199803 0.09020744 0.004979622
-0.034471177 0.13463128 -0.123132296 -0.01362129 0.13567328 0.22805865 0.037926488 -0.20076326
0.009333069 0.1868889 0.111385904 0.14863996 0.13742314 0.05684697 0.076641314 -0.027486878
0.14880241 -0.19664831 -0.17587437 0.12240656 -0.040492848 0.08666839 0.10568851 -0.17752738
-0.08910206 0.18880479 0.21524264 -0.044293374 -0.08105344 0.17929155 0.14195745 -0.014729817
0.03442154 0.0066506923 0.19618283 0.18466333 0.14146128 -0.017565627 0.20498534 -0.024766736
0.0087697925 -0.12603633 -0.19840969 0.19011346 0.14030036 0.032195214 -0.045421124 -0.13129306
-0.22898492 0.011730901 0.07332312 -0.08837024 -0.17288461 0.025311654 0.23348913 -0.0076055955
0.10089074 -0.2125734 0.16458783 0.14868054 0.11560642 0.23295519 0.16988185 0.1800428
-0.15242441 -0.13194302 0.16793206 0.03828277 -0.22019856 0.2747044 0.026386 0.21088889
-0.13369422 -0.16676117 0.23312366 -0.0013134342 -0.026735647 -0.13100308 0.1553928 -0.12658067
-0.11250174 0.07276384 -0.18781447 -0.18599604 -0.22369766 -0.12861954 -0.08260405 -0.07782424
0.22942722 0.1770752 0.19465356 0.060606465 -0.12952812 -0.22987925 -0.07131779 -0.16082937
-0.038435396 0.13853079 0.057378404 0.20535398 -0.07124683 -0.041744713 -0.16266857 -0.115970425
0.12649754 0.18931213 0.03825295 -0.19227432 -0.18669647 0.1907072 -0.042666283 0.057949763
-0.059981484 0.18377256 -0.15637599 -0.16334946 -0.048203733 0.18669336 -0.06927708 0.078559816
0.02233589 -0.024695637 0.10199795 -0.2205063 0.22752237 0.1467562 0.13705838 0.17203927
0.1380012 0.22452115 0.21091707 -0.13001812 0.014776039 -0.05366283 -0.18448225 0.22889481
0.21632402 0.23322614 0.18559022 0.07742915 -0.06701109 0.1362803 -0.0491906 0.025737816
00000000: b642 733e 4e6c 15be fd70 23be ef42 5bbe
00000010: 9c92 60ba 6652 87bc e5db 963d 3170 c1bd
00000020: 5e2b 0f3e 2282 6b3e 1891 8e3d c6fe 7ebd
00000030: 8abc 6a3e 8a8e 353d f782 083e 0efc 8cbd
00000040: 6cd6 3fbe cfd4 ec3d 5da1 5dbd 675d 743e
00000050: fcad 253e 7506 373d 675b 1e3d 288f 36be
00000060: e725 ee3d 9aff b73d f766 59be 3263 f0bd
00000070: d230 6a3e 0183 f3bb 7512 b63d ab5f f93d
00000080: d772 18be 91fe c6bd 8c2e 593e beb2 873c
00000090: cdb6 d3bd e57f 0bbe 25d9 2abe b720 83bd
000000a0: 7642 abbd f606 e93d 8879 50be 7e01 2f3e
000000b0: 9af2 6e3d db5e 2d3d 7b77 b2bd 1676 5b3e
000000c0: 57df 323e 0728 3a3e de49 6b3d 53e0 20be
000000d0: 52fa 53bc 6d6a 0e3c 1c17 db3d 9b7c 7b3e
000000e0: 091c c7bd bd6b 313e 9407 013e d751 23bd
000000f0: b126 993b fbe8 833e 9d29 3d3e 3d68 0a3d
00000100: 3612 373d b211 9abd 1543 49bd 919b 9abb
00000110: 9a28 e83c a68b 4fbe 2f84 22be 4eab 01bd
00000120: 1c4c c4bd 6444 4e3d 6d06 c3bd 2427 aebc
00000130: fea8 353e 82cd 1bbe 2920 383d 5339 0e3e
00000140: 77e2 a93d 2aff 24be 6baf a63c d6df 6f3e
00000150: 2363 983d 0aa7 fcbd a498 6fbe 349b 273e
00000160: 48cd 693e 80a5 703e fd7b 0c3d d6df 8abd
00000170: 9c00 20be c32c 1abe 8858 16bd 3be8 fc3d
00000180: 0d8e e13d 9dfa 253e 078d 5c3e c86b 80bd
00000190: 1de3 4d3e 1423 1abe 257f 5ebe adf9 a8bd
000001a0: 1b4a 00be 7e05 263e dd3e 80bd 1173 2e3e
000001b0: fe2b 69be 6393 44bc aebe b83d 192c a33b
000001c0: a631 0dbd c8dc 093e c92c fcbd d52b 5fbc
000001d0: f0ed 0a3e 3588 693e ce58 1b3d e294 4dbe
000001e0: bbe9 183c ce5f 3f3e 4b1e e43d 1335 183e
000001f0: a7b8 0c3e 5ed8 683d 1ff6 9c3d 292c e1bc
00000200: a95f 183e 2d5e 49be 6918 34be 4ab0 fa3d
00000210: d4db 25bd 327f b13d 3873 d83d bdc9 35be
00000220: 247b b6bd 0b56 413e 9168 5c3e f86c 35bd
00000230: 59ff a5bd 3498 373e 4b5d 113e 5555 71bc
00000240: 9afd 0c3d 0dee d93b 27e4 483e 6218 3d3e
00000250: 3adb 103e cae5 8fbc ade7 513e 9ce3 cabc
00000260: 2daf 0f3c ab0f 01be e92b 4bbe 1aad 423e
00000270: e6aa 0f3e 21df 033d 800b 3abd b071 06be
00000280: 067b 6abe f732 403c 6f2a 963d 75fb b4bd
00000290: aa08 31be 635a cf3c c617 6f3e 5c38 f9bb
000002a0: ce9f ce3d d7ac 59be b689 283e b63f 183e
000002b0: 0fc3 ec3d ce8b 6e3e 82f5 2d3e 245d 383e
000002c0: 2515 1cbe 121c 07be 62f6 2b3e 65ce 1c3d
000002d0: bb7b 61be 0ea6 8c3e 7427 d83c 42f3 573e
000002e0: 23e7 08be 71c3 2abe f8b7 6e3e 8a27 acba
000002f0: b704 dbbc ac25 06be 4a1f 1f3e 5d9e 01be
00000300: 5067 e6bd 3505 953d 7052 40be bf75 3ebe
00000310: 0011 65be d7b4 03be 502c a9bd 5162 9fbd
00000320: f8ee 6a3e 3453 353e 4353 473e 7c3e 783d
00000330: 05a3 04be 7765 6bbe 100f 92bd 74b0 24be
00000340: 6f6e 1dbd 04db 0d3e 9e05 6b3d 5048 523e
00000350: dce9 91bd 81fc 2abd 9792 26be e781 edbd
00000360: 9288 013e 0adb 413e 20af 1c3d 8fe3 44be
00000370: 5c2d 3fbe c048 433e d7c2 2ebd bb5c 6d3d
00000380: 25af 75bd e02e 3c3e 0721 20be 1545 27be
00000390: 4771 45bd 8b2c 3f3e 24e1 8dbd f8e3 a03d
000003a0: c2f9 b63c 814e cabc 4de4 d03d 67cc 61be
000003b0: a0fb 683e 4247 163e 0859 0c3e 102b 303e
000003c0: 3050 0d3e dfe8 653e a5fa 573e 7823 05be
000003d0: 3317 723c 8ecd 5bbd eae8 3cbe 6763 6a3e
000003e0: 0b84 5d3e d5d2 6e3e 5d0b 3e3e 2d93 9e3d
000003f0: 1c3d 89bd 108d 0b3e 157c 49bd 1dd8 d23c

net.0.bias f4 [128]
-0.22848007 0.09299139 -0.030418327 -0.048539914 -0.10448225 0.063669786 0.026058929 -0.17719905
-0.094838105 -0.011513154 0.20771535 0.08213704 -0.16645758 -0.068537615 -0.18685108 -0.1878806
0.17780648 -0.01330355 0.18374783 -0.075040534 0.164381 0.2216276 0.06949541 0.14611922
0.06945386 -0.048172988 -0.00502396 -0.18578835 -0.016337555 0.044670872 0.07287661 -0.20320885
0.20831227 -0.14809717 0.21747738 -0.122256696 0.044043053 -0.07902818 0.19618252 0.071608566
-0.050629593 -0.23735583 -0.0316601 0.10774512 0.11667287 0.16243316 0.19942045 -0.04294733
-0.19652846 0.030835561 -0.12881312 0.23486179 -0.19125953 0.2173354 0.19489698 -0.18751828
-0.17987029 0.18481322 0.081590615 -0.004988183 -0.12971935 -0.04650045 0.22802514 -0.15012455
0.20347843 0.11751074 -0.10185836 -0.22566974 -0.20224684 -0.22938432 -0.07190383 -0.09995825
0.03804062 0.20713551 0.17052592 -0.06510425 0.11758397 0.14096445 -0.12935105 -0.06801993
-0.16924216 -0.22959183 -0.078981124 0.20753093 0.076530695 -0.18271706 0.07755214 -0.055217557
0.18222527 0.21990734 0.085918404 0.1075505 -0.05538449 0.072111525 -0.22380705 0.035035945
-0.16344851 0.034979142 -0.047872458 0.048667174 0.23037688 -0.083228275 -0.13264155 -0.17034277
-0.16163275 0.15086912 -0.22131316 -0.06245385 -0.1904412 0.19299297 -0.078001864 -0.07969065
0.09702732 -0.23258193 -0.19457468 -0.1513767 -0.079473086 -0.15028276 0.224385 -0.14352754
0.005886713 -0.07422678 -0.0694625 -0.17852175 -0.049686592 -0.04994439 -0.035721183 -0.19860955
00000000: aef6 69be 4572 be3d db2f f9bc cad1 46bd
00000010: cafa d5bd 4e65 823d 8979 d53c ab73 35be
00000020: 7b3a c2bd aba1 3cbc 55b3 543e 7737 a83d
00000030: db73 2abe 735d 8cbd e455 3fbe c663 40be
00000040: e712 363e 22f7 59bc 6428 3c3e daae 99bd
00000050: 7e53 283e 58f2 623e 9c53 8e3d 47a0 153e
00000060: d33d 8e3d 0a51 45bd 08a0 a4bb 4d3f 3ebe
00000070: 56d6 85bc cef8 363d 5540 953d fb15 50be
00000080: d04f 553e c9a6 17be 64b2 5e3e b861 fabd
00000090: 7d66 343d 87d9 a1bd 12e4 483e 83a7 923d
000000a0: fa60 4fbd 680d 73be 05ae 01bd 79a9 dc3d
000000b0: 30f2 ee3d e154 263e e034 4c3e 8ae9 2fbd
000000c0: c23e 49be dc9a fc3c 96e7 03be 9c7f 703e
000000d0: 8ad9 43be 2c8d 5e3e 1393 473e cb04 40be
000000e0: eb2f 38be ad3f 3d3e fb18 a73d e973 a3bb
000000f0: 26d5 04be 4177 3ebd 6c7f 693e 40ba 19be
00000100: a65c 503e 79a9 f03d 1e9b d0bd f815 67be
00000110: cc19 4fbe b9e3 6abe 5142 93bd e9b6 ccbd
00000120: 7bd0 1b3d 551b 543e 599e 2e3e 6155 85bd
00000130: ddcf f03d fc58 103e 9a74 04be 084e 8bbd
00000140: d14d 2dbe 1f1a 6bbe dbc0 a1bd fd82 543e
00000150: 20bc 9c3d 2e1a 3bbe a8d3 9e3d ce2b 62bd
00000160: 4399 3a3e 642f 613e fdf5 af3d 7043 dc3d
00000170: d9da 62bd 35af 933d ad2d 65be da81 0f3d
00000180: 0c5f 27be 4a46 0f3d e915 44bd 3b57 473d
00000190: ebe7 6b3e 9673 aabd 30d3 07be 566e 2ebe
000001a0: 0e83 25be 6f7d 1a3e eb9f 62be 9ccf 7fbd
000001b0: 0503 43be f39f 453e 71bf 9fbd da34 a3bd
000001c0: 42b6 c63d f529 6ebe 963e 47be 7e02 1bbe
000001d0: c9c2 a2bd b9e3 19be 2ec5 653e e2f8 12be
000001e0: 54e5 c03b 3604 98bd 5b42 8ebd 68ce 36be
000001f0: 2b84 4bbd 7d92 4cbd 6050 12bd 4d60 4bbe

net.2.weight f4 [128, 128]
0.00510513 0.0026243194 -0.049613096 -0.0362496 -0.018286975 -0.040572416 -0.07848283 0.033091325
0.05076665 0.00063377805 -0.06856845 -0.01136434 -0.008561007 -0.07801404 0.018781638 -0.024739355
0.046065766 0.055415828 0.059555974 0.00094026775 0.09608298 0.079126626 0.037593998 -0.021930048
-0.021955367 0.042856947 0.0126067875 -0.05981114 -0.016768372 0.047814243 0.056383334 0.052363236
0.08454724 -0.041442428 -0.008626625 -0.01939666 0.025305038 -0.08818035 0.08245115 -0.07053808
0.09325378 -0.037601057 -0.03559107 -0.013927038 -0.027219312 -0.046763804 -0.0058041327 -0.08323691
0.07280838 -0.09330848 0.07328128 0.07682903 0.07355509 -0.0068204887 -0.08670665 -0.0089816125
0.04464238 -0.03212444 -0.000550954 -0.079334855 0.085272074 -0.08121994 0.064157166 0.023351548
-0.08238593 -0.06677251 0.029700832 0.07466756 -0.02068556 0.08830374 -0.00461978 0.032570783
-0.009306662 -0.017547395 -0.051644627 0.01927697 0.03059435 -0.06842054 0.014455109 -0.043635696
0.021237176 -0.08087022 -0.07716915 -0.03937855 -0.040047463 -0.06801531 -0.022049056 0.053724125
-0.0072973548 0.01950785 -0.028806778 -0.030697504 -0.036718857 0.07796901 -0.0071372795 0.0012198092
-0.026363092 0.016688852 0.055557184 -0.054767244 0.011780616 0.031363063 0.07511524 0.07266858
0.08000654 0.04711736 0.057323694 0.032967616 0.013144799 0.042976335 -0.05277776 0.03696516
0.019314958 -0.07339508 -0.019107034 -0.025674978 -0.029453263 0.07615522 0.06853172 -0.08889026
-0.06828123 -0.056420505 -0.017926307 -0.08397197 0.054193787 -0.03973833 0.03689287 0.011224954
-0.021315306 0.026028007 -0.023317948 0.07190313 0.05455109 -0.0064981407 0.06396201 -0.08972793
0.029915372 -0.08608664 0.061352246 -0.049025185 -0.07394647 -0.029997645 -0.048958123 0.08501345
-0.02424438 0.019536896 -0.066721246 -0.005415105 -0.028473405 0.0023763378 0.06424803 0.025520792
-0.029358825 0.026195979 -0.031623214 0.023334432 -0.06833212 0.043325655 0.02988417 -0.0034713568
0.030667562 -0.022433415 0.016183404 0.06455473 0.011781017 0.048986893 0.025702788 -0.01696967
-0.06646947 -0.057661403 0.07365311 0.0027089987 0.025645962 -0.047985803 -0.016707543 -0.025817387
0.07807352 0.061798356 -0.0065204934 -0.036964335 -0.086158626 -0.062732436 -0.06356523 0.056137197
-0.08024794 0.011814898 -0.018500298 0.021840572 0.046519965 0.0009514794 -0.060812995 0.042094573
0.08252564 -0.026206953 0.051417522 0.08737103 -0.036096606 -0.011008818 -0.08919653 0.0001658781
-0.06900929 0.071189664 -0.07588163 0.08099577 -0.061648954 -0.08571347 -0.050261557 0.0014368275
-0.08136418 -0.07190716 -0.04004451 0.012793571 -0.0705902 -0.03908855 0.06087669 0.011573788
-0.06772451 -0.05845383 -0.016844068 -0.08598575 0.016005674 0.08845067 -0.005817664 0.009771947
0.023228282 0.013663063 -0.09088321 0.043564 0.021997305 -0.036327977 0.05153005 0.008545341
0.07638273 -0.063877665 0.047011547 -0.030319706 0.04315962 -0.05641159 -0.048178744 -0.06872308
0.030169202 0.01330398 0.08748107 -0.073645785 -0.05367194 0.065127574 -0.07671835 -0.04964437
-0.02778165 0.025364956 0.08651941 -0.061577134 -0.04691328 0.07214487 -0.03870242 0.031539924
00000000: ef48 a73b c6fc 2b3b 1a37 4bbd 767a 14bd
00000010: 91ce 95bc 432f 26bd 9bbb a0bd c58a 073d
00000020: b1f0 4f3d 2024 263a 9e6d 8cbd 7f31 3abc
00000030: 7743 0cbc d3c5 9fbd f3db 993c 30aa cabc
00000040: 75af 3c3d b5fb 623d f7f0 733d 4d7c 763a
00000050: 27c7 c43d 240d a23d 2afc 193d a5a6 b3bc
00000060: bedb b3bc c48a 2f3d b38c 4e3c 87fc 74bd
00000070: d35d 89bc ded8 433d 36f2 663d d57a 563d
00000080: 1a27 ad3d 89bf 29bd b056 0dbc bfe5 9ebc
00000090: 834c cf3c e697 b4bd 26dc a83d 4576 90bd
000000a0: d6fb be3d 9103 1abd f1c7 11bd 3b2e 64bc
000000b0: 09fb debc 678b 3fbd 9830 bebb 1d78 aabd
000000c0: 8f1c 953d 8418 bfbd 7f14 963d 8a58 9d3d
000000d0: 0da4 963d 687e dfbb 4293 b1bd 9d27 13bc
000000e0: eeda 363d eb94 03bd e66d 10ba 507a a2bd
000000f0: 20a3 ae3d a456 a6bd d564 833d bf4b bf3c
00000100: f4b9 a8bd 07c0 88bd 294f f33c 4eeb 983d
00000110: c374 a9bc 97d8 b43d 8661 97bb f168 053d
00000120: f87a 18bc 8ebf 8fbc 5189 53bd bcea 9d3c
00000130: 01a1 fa3c 1120 8cbd 1fd5 6c3c 58bb 32bd
00000140: 96f9 ad3c 499f a5bd dc0a 9ebd 674b 21bd
00000150: cf08 24bd 9c4b 8bbd 39a0 b4bc d40d 5c3d
00000160: a61e efbb edce 9f3c 31fc ebbc 5579 fbbc
00000170: 8366 16bd 37ae 9f3d d7df e9bb 01e2 9f3a
00000180: 69f7 d7bc 0fb7 883c ee8f 633d 9e53 60bd
00000190: 7c03 413c 8e76 003d 05d6 993d 44d3 943d
000001a0: 78da a33d 22fe 403d 40cc 6a3d 0d09 073d
000001b0: 485d 573c f407 303d 7e2d 58bd c868 173d
000001c0: 673a 9e3c 2950 96bd 5b86 9cbc 5554 d2bc
000001d0: f847 f1bc 45f7 9b3d 5c5a 8c3d 190c b6bd
000001e0: 08d7 8bbd 3019 67bd 31da 92bc 7ff9 abbd
000001f0: 4efa 5d3d a9c4 22bd fa1c 173d dfe8 373c
00000200: 709d aebc b038 d53c 4805 bfbc f341 933d
00000210: f770 5f3d 5bee d4bb 84fe 823d 47c3 b7bd
00000220: 1511 f53c 314e b0bd 7e4c 7b3d a2ce 48bd
00000230: 3f71 97bd 9fbd f5bc 5088 48bd 881b ae3d
00000240: 269c c6bc d70b a03c 26a5 88bd 3171 b1bb
00000250: 0f41 e9bc 55bc 1b3b 7994 833d fb10 d13c
00000260: eb81 f0bc f398 d63c 5887 01bd da27 bf3c
00000270: b6f1 8bbd 3e76 313d a6cf f43c b47f 63bb
00000280: 8a3a fb3c 48c6 b7bc 0f93 843c 4535 843d
00000290: 2b05 413c 7ba6 483d a78e d23c fa03 8bbc
000002a0: 2521 88bd 5d2e 6cbd 71d7 963d 7589 313b
000002b0: 7b17 d23c c38c 44bd 42de 88bc fc7e d3bc
000002c0: 02e5 9f3d 4620 7d3d dda9 d5bb ea67 17bd
000002d0: ef73 b0bd dd79 80bd 7d2e 82bd 1ef0 653d
000002e0: 0859 a4bd 4693 413c f08d 97bc 00eb b23c
000002f0: b88b 3e3d b46c 793a 0c17 79bd 5c6b 2c3d
00000300: 3403 a93d f7af d6bc 2e9b 523d 95ef b23d
00000310: 09da 13bd 545e 34bc acac b6bd 90ef 2d39
00000320: be54 8dbd e3cb 913d d467 9bbd 1ce1 a53d
00000330: 9d83 7cbd 8b8a afbd 10df 4dbd ee53 bc3a
00000340: 43a2 a6bd 1044 93bd b605 24bd 209c 513c
00000350: 9891 90bd 511b 20bd d659 793d fc9f 3d3c
00000360: 26b3 8abd 496d 6fbd 92fc 89bc 4c19 b0bd
00000370: 551e 833c a025 b53d 1aa2 bebb 841a 203c
00000380: 3d49 be3c 0adb 5f3c fa20 babd 2a70 323d
00000390: b133 b43c a5cc 14bd 2c11 533d c201 0c3c
000003a0: 8c6e 9c3d 4bd2 82bd 2e8f 403d 0861 f8bc
000003b0: 24c8 303d d70f 67bd 1357 45bd b0be 8cbd
000003c0: 6725 f73c f0f8 593c 4629 b33d 9ad3 96bd
000003d0: 1cd7 5bbd 9b61 853d 831e 9dbd e557 4bbd
000003e0: 5896 e3bc 2bca cf3c 1731 b13d 4e38 7cbd
000003f0: 2428 40bd b1c0 933d 6e86 1ebd 0230 013d

net.2.bias f4 [128]
-0.026891133 -0.06511231 0.091392405 -0.019122496 0.031226777 0.037859835 -0.0664273 0.017832594
0.047496174 0.055397525 -0.041616328 0.08282492 -0.069414124 -0.08472376 0.00023346036 0.040609047
0.07639049 0.09258001 0.071677685 0.07546411 0.031198414 0.023628782 -0.033269003 -0.015050687
-0.09436311 0.030763602 -0.074366175 0.057224285 -0.050908487 0.0010122018 -0.00452978 -0.02013174
-0.077499226 0.08619406 -0.020449076 0.009815669 0.04733304 -0.0020352746 0.05569364 0.022195688
-0.055738356 0.057665408 0.066019185 0.08278135 0.049453467 0.059129596 0.069732726 0.002681039
0.025156481 -0.0053879474 0.05695686 -0.015834592 0.02874716 -0.04330303 -0.06447086 -0.00023666256
0.08753749 0.010649742 0.0790686 0.077127986 -0.073170565 0.07326783 -0.07453965 0.0020719706
-0.061918337 0.075951345 0.058738228 0.015474994 0.07334448 0.043190252 -0.021041181 -0.07290396
0.062992655 -0.0389996 -0.06297548 0.064799264 0.07338386 -0.08570263 -0.06690046 -0.008310071
0.021379784 0.0886922 0.027923213 -0.03517616 0.061208993 0.0317 -0.09011247 -0.006676866
0.048293073 -0.029845582 -0.070130564 -0.08600323 0.0021333038 -0.013156688 -0.06770618 -0.06873036
0.08456734 0.057981543 0.037448887 0.08969019 -0.002026056 0.05368027 0.062171616 -0.0031950853
-0.040430155 -0.018292809 0.051177375 0.0095702065 -0.07733345 -0.06466358 0.050641757 0.035706926
-0.0493938 0.053081196 0.039188053 0.021299815 -0.09007477 -0.004222025 -0.00695313 -0.06279045
0.036323376 -0.06126249 -0.07607628 -0.027638994 -0.0782952 0.07673354 0.07855671 -0.031610742
00000000: cb4a dcbc 9a59 85bd f12b bb3d c8a6 9cbc
00000010: 4ccf ff3c ea12 1b3d 090b 88bd a915 923c
00000020: 598b 423d 84e8 623d e275 2abd 1da0 a93d
00000030: fe28 8ebd a783 adbd 0acd 7439 ac55 263d
00000040: 9e72 9c3d 979a bd3d c0cb 923d ed8c 9a3d
00000050: d193 ff3c 2691 c13c 1445 08bd 2897 76bc
00000060: 7241 c1bd f303 fc3c 4b4d 98bd 0364 6a3d
00000070: 6b85 50bd dbab 843a 8c6e 94bb 52eb a4bc
00000080: eab7 9ebd 8386 b03d d284 a7bc e6d1 203c
00000090: 4ae0 413d 3e62 05bb 041f 643d bbd3 b53c
000000a0: e74d 64bd 9032 6c3d 1135 873d 4589 a93d
000000b0: b88f 4a3d e031 723d 08d0 8e3d 5fb4 2f3b
000000c0: f714 ce3c 618d b0bb 994b 693d 8cb7 81bc
000000d0: 2a7f eb3c 855e 31bd 4c09 84bd 9f28 78b9
000000e0: db46 b33d 417c 2e3c b8ee a13d 47f5 9d3d
000000f0: 73da 95bd 720d 963d 3ea8 98bd e6c9 073b
00000100: 159e 7dbd 618c 9b3d 7f97 703d d48a 7d3c
00000110: a135 963d 43e8 303d 8e5e acbc ac4e 95bd
00000120: 4b02 813d 0bbe 1fbd 4af9 80bd 7ab5 843d
00000130: 474a 963d dc84 afbd 1c03 89bd f726 08bc
00000140: a824 af3c 42a4 b53d 39bf e43c e114 10bd
00000150: 48b6 7a3d dcd7 013d e38c b8bd 9dc9 dabb
00000160: f5ce 453d b97e f4bc 9da0 8fbd 7622 b0bd
00000170: e6ce 0b3b 268f 57bc 8aa9 8abd 81c2 8cbd
00000180: a431 ad3d 0e7e 6d3d 0164 193d 7eaf b73d
00000190: 94c7 04bb d8df 5b3d aaa7 7e3d a364 51bb
000001a0: 179a 25bd cdda 95bc 5e9f 513d 5bcc 1c3c
000001b0: 0061 9ebd 576e 84bd bb6d 4f3d 6d41 123d
000001c0: 2751 4abd ab6b 593d a783 203d f37c ae3c
000001d0: 1f79 b8bd ea58 8abb 15d7 e3bb 4898 80bd
000001e0: d2c7 143d 60ee 7abd e1cd 9bbd 2c6b e2bc
000001f0: 3c59 a0bd 7926 9d3d 57e2 a03d 447a 01bd

net.4.weight f4 [3, 128]
-0.0872011 -0.06673672 0.093528606 -0.048286635 -0.018093951 -0.071978346 0.0035926704 -0.045314286
0.037391588 0.0028759826 -0.07876393 0.021890096 0.07351581 -0.052689053 0.019721102 -0.08511679
0.022038845 -0.03483754 -0.05298943 0.070849374 0.016722191 0.031126875 -0.08657648 -0.029134111
-0.08905131 0.09525257 0.0710499 -0.073225334 0.09058327 0.06789235 0.08030223 -0.061749395
-0.05895323 0.010652828 -0.0006207094 -0.05682129 -0.04885795 -0.05228755 0.057512145 0.03515448
-0.008976662 0.029474348 -0.05273962 0.06218693 0.058539778 -0.090196535 -0.04609793 -0.049104426
0.06501581 -0.0978955 -0.008611392 -0.04224493 -0.082269154 0.06473426 0.020773167 0.04605824
0.09396478 -0.025921358 0.020151725 0.04099534 0.07729239 0.05359332 -0.06675346 -0.05659616
0.027678953 -0.020415388 0.048547458 -0.06728768 0.08496327 -0.025228426 -0.05296596 0.003124629
-0.006496884 0.01434358 0.07004774 -0.090933084 0.009720608 0.028058084 0.0054971473 0.037503738
-0.0018271789 -0.07168131 0.026744505 -0.06853678 0.023438826 0.088787556 -0.090991706 0.048978116
0.035596717 -0.090232946 0.06585944 -0.05966329 0.058481917 0.056574155 0.07211518 0.0077373395
0.086576656 0.03200659 -0.03711153 0.0013462064 0.040236745 -0.0005780488 -0.049965445 -0.084447525
-0.095775165 -0.047280844 -0.059102044 0.02773467 0.053900547 0.009517475 0.07071637 0.061777268
0.06229244 0.024809606 0.092998214 -0.05058463 -0.084525384 0.044943023 -0.003048505 -0.089374706
-0.0034250931 0.009355035 -0.03934708 0.01657041 -0.047927547 0.007754009 0.039915867 -0.061394148
0.07433789 0.0013272557 0.009816606 -0.046009086 0.023807244 -0.08419006 -0.074117355 -0.0686312
-0.056186557 0.04638901 -0.034278773 -0.024868958 -0.008055 0.06544469 0.05263729 0.04887252
-0.027932236 0.09169196 -0.008805623 0.04566688 0.0059900605 0.01614636 0.047908418 0.0823517
-0.07498158 -0.029517667 -0.021439623 -0.054445677 0.029439235 -0.024952712 0.0655091 0.024071014
-0.0012506371 0.0014804136 -0.050438557 -0.058807764 0.04234125 0.07512556 0.043652754 -0.007854778
-0.03574018 -0.068127275 -0.04481874 0.08546541 -0.08102938 -0.0169518 -0.0062747593 -0.007780394
-0.032967605 -0.07074536 0.05630379 -0.04056117 -0.027382737 0.023825113 0.011575435 -0.07137171
-0.013580608 0.042950623 0.08425904 -0.031087141 -0.002615726 0.020200852 0.061424885 0.022134984
0.09063599 -0.0057387436 -0.052271217 0.09238075 -0.060999524 -0.031303305 0.041506264 0.040796276
-0.04585863 0.06315541 -0.064937204 -0.0093120225 -0.027296467 0.024319487 -0.025115848 -0.08127786
0.041276168 0.08432748 -0.08024492 0.028977754 0.07857554 0.01929644 -0.055299625 0.03164804
-0.011438151 0.05467836 0.08812566 0.020564985 -0.015803583 -0.0076569663 0.053182453 0.01790605
-0.07176237 0.0011357168 -0.06458217 -0.0051374957 0.068857834 -0.056891154 -0.029534936 0.039173014
0.056775764 -0.011611438 0.064441495 0.07334815 0.01728858 -0.014253282 -0.05985765 -0.025763744
-0.031971164 0.06946967 -0.063244194 -0.049718954 -0.014223925 -0.02490714 0.061819915 -0.06805658
-0.0626952 -0.014971015 -0.010460428 -0.014166332 0.055616315 0.06953878 0.025373187 0.037090994
00000000: 7e96 b2bd 43ad 88bd ed8b bf3d 35c8 45bd
00000010: c439 94bc 6269 93bd 0273 6b3b 799b 39bd
00000020: ec27 193d fb7a 3c3b fc4e a1bd dc52 b33c
00000030: 758f 963d 7ad0 57bd 268e a13c b651 aebd
00000040: cf8a b43c cfb1 0ebd 720b 59bd 7a19 913d
00000050: fafc 883c cafd fe3c 024f b1bd a9aa eebc
00000060: 8960 b6bd c813 c33d 9c82 913d 2af7 95bd
00000070: b983 b93d 250b 8b3d 7f75 a43d efec 7cbd
00000080: f178 71bd 3389 2e3c 1ab7 22ba 71bd 68bd
00000090: 461f 48bd 782b 56bd db91 6b3d 25fe 0f3d
000000a0: d912 13bc 3074 f13c 8005 58bd b9b7 7e3d
000000b0: 68c7 6f3d f6b8 b8bd 2fd1 3cbd b921 49bd
000000c0: 0227 853d 707d c8bd cc16 0dbc 0509 2dbd
000000d0: bb7c a8bd 6593 843d 7d2c aa3c 91a7 3c3d
000000e0: 9b70 c03d 0759 d4bc 3b15 a53c bbea 273d
000000f0: 794b 9e3d ab84 5b3d 0ab6 88bd 60d1 67bd
00000100: f9be e23c 2c3e a7bc b3d9 463d 20ce 89bd
00000110: 3901 ae3d d8ab cebc d6f2 58bd 93c6 4c3b
00000120: d0e3 d4bb 5601 6b3c 3175 8f3d 203b babd
00000130: 2f43 1f3c 11da e53c 6a21 b43b 859d 193d
00000140: f37d efba a7cd 92bd 4b17 db3c 035d 8cbd
00000150: c802 c03c 40d6 b53d dc59 babd 479d 483d
00000160: ddcd 113d 0dcc b8bd 50e1 863d 7e61 74bd
00000170: bc8a 6f3d 4dba 673d 20b1 933d 8289 fd3b
00000180: 1a4f b13d 5819 033d 4202 18bd 3173 b03a
00000190: 49cf 243d 3388 17ba 91a8 4cbd d3f2 acbd
000001a0: c525 c4bd 8fa9 41bd fc14 72bd d233 e33c
000001b0: d2c6 5c3d 2fef 1b3c bfd3 903d 290a 7d3d
000001c0: 5c26 7f3d 843d cb3c d975 be3d d431 4fbd
000001d0: a51b adbd 2d16 383d 6dc9 47bb 160a b7bd
000001e0: 8777 60bb dc45 193c 672a 21bd abbe 873c
000001f0: ad4f 44bd 5815 fe3b d27e 233d 6e78 7bbd
00000200: 773e 983d 50f7 ad3a d4d5 203c 0674 3cbd
00000210: 6907 c33c d76b acbd d7ca 97bd 848e 8cbd
00000220: e023 66bd 6702 3e3d e667 0cbd fcb9 cbbc
00000230: 1ef9 03bc de07 863d 339a 573d 8d2e 483d
00000240: 25d2 e4bc ffc8 bb3d 7645 10bc 320d 3b3d
00000250: 4548 c43b 5f45 843c 9e3b 443d 02a8 a83d
00000260: f18f 99bd 09cf f1bc 26a2 afbc 6e02 5fbd
00000270: 8d2a f13c a169 ccbc a329 863d 9330 c53c
00000280: 6bec a3ba 700a c23a a998 4ebd 69e0 70bd
00000290: 056e 2d3d 6edb 993d 3bcd 323d 54b1 00bc
000002a0: 4c64 12bd 5086 8bbd db93 37bd 7d08 af3d
000002b0: bbf2 a5bd 80de 8abc 7f9c cdbb adf2 febb
000002c0: 0a09 07bd f1e2 90bd ce9e 663d 7823 26bd
000002d0: c351 e0bc e22c c33c e5a6 3d3c 552b 92bd
000002e0: 3381 5ebc feec 2f3d 0190 ac3d 76aa febc
000002f0: 9a6c 2bbb 427c a53c a998 7b3d 6d54 b53c
00000300: 5d9f b93d 120c bcbb 581a 56bd 1e32 bd3d
00000310: a3da 79bd e537 00bd 7902 2a3d ff19 273d
00000320: 42d6 3bbd a057 813d ccfd 84bd 7491 18bc
00000330: d79c dfbc a939 c73c c0bf cdbc 0275 a6bd
00000340: 3311 293d e3b3 ac3d 7357 a4bd c162 ed3c
00000350: 36ec a03d 9113 9e3c dc81 62bd 60a1 013d
00000360: 1567 3bbc 6af6 5f3d 3a7b b43d e677 a83c
00000370: 8476 81bc 4ae7 fabb d8d5 593d b5af 923c
00000380: 26f8 92bd 55dc 943a a843 84bd 7058 a8bb
00000390: 5605 8d3d b306 69bd 40f3 f1bc e273 203d
000003a0: b48d 683d e73d 3ebc e7f9 833d 8e37 963d
000003b0: c8a0 8d3c 9986 69bc 4c2d 75bd 7d0e d3bc
000003c0: 32f4 02bd 1d46 8e3d 2c86 81bd 1aa6 4bbd
000003d0: 770b 69bc 0f0a ccbc e136 7d3d 4061 8bbd
000003e0: 5766 80bd fd48 75bc 3762 2bbc e719 68bc
000003f0: efcd 633d 596a 8e3d 6edb cf3c baec 173d

net.4.bias f4 [3]
0.01348514 0.008147351 0.023185115
00000000: c7f0 5c3c 787c 053c b6ee bd3c

net.0.weight f4 [128, 18]
0.05344173 -0.036721807 0.084904954 -0.014171541 -0.082764976 0.23500614 0.10928991 -0.07764394
0.019118298 -0.017926179 -0.059967715 0.2152906 -0.2720396 -0.16074704 -0.09227051 -0.1458202
-0.006358611 -0.04936902 -0.06418314 -0.09747005 -0.021332629 -0.13309078 6.625485e-05 -0.17182635
-0.17671221 0.035335135 -0.07198822 0.12931198 -0.14864926 -0.14321364 0.060759567 -0.1041993
-0.113033645 0.1899126 -0.09785619 -0.11363498 -0.16189839 0.20195282 0.045746617 0.17487879
0.1521196 -0.15934049 0.14996743 0.17286907 -0.03251527 0.06815578 0.22183426 -0.006372435
-0.14473218 -0.038365483 0.019808535 0.21823202 -0.0039048775 0.032488223 -0.19077776 0.024337362
-0.11431717 0.110307716 0.0002888183 -0.11614643 0.12880574 -0.19544461 -0.11672934 -0.19637507
0.06699573 -0.06717241 -0.095778674 -0.16368473 0.044561073 -0.06594037 -0.09257808 0.03365148
-0.22237879 -0.1007775 -0.14900705 0.10620472 -0.10001172 -0.13074327 0.14973414 -0.19953358
0.0019399719 0.16230713 0.08455077 0.21079662 0.1624166 -0.15613063 0.050197873 0.22513382
-0.22987933 0.036720216 0.22643536 -0.14038703 0.10695295 0.00486591 -0.09918573 -0.17718066
-0.09502775 0.11336518 0.025832439 -0.12193839 0.16660585 0.102804564 0.05226903 0.100513294
-0.12751755 -0.18520138 0.05909685 0.16915424 0.2562978 0.019307297 0.017429512 0.12918577
0.18378113 -0.1845948 0.0050311782 0.110562384 -0.05889394 0.11634447 -0.16975756 0.10528735
-0.053885546 -0.1810082 0.015677147 0.04209734 0.22329816 -0.0598678 -0.024819208 0.1099892
0.06329475 -0.16392073 -0.14187545 -0.23360793 -0.11988504 -0.11087449 -0.045055866 0.1831004
0.21429937 -0.09999792 0.14350061 0.1406457 0.117972896 0.08136163 0.13489579 -0.06662534
0.1561677 -0.12150842 0.0020822554 0.094277725 -0.17780934 -0.1407023 0.018037312 0.20521274
-0.08844579 -0.1698484 0.02591843 -0.21722436 0.09454881 0.15109411 0.05967825 -0.09661457
0.11075265 0.113381006 -0.14986545 -0.21320891 0.088250294 -0.0043888073 0.092868924 -0.09173669
-0.24170713 0.07558525 0.06585317 -0.22986034 0.08883412 0.07788297 -0.040811297 -0.17150442
-0.12949798 -0.23304422 0.12571564 -0.1263166 -0.09313645 -0.09716524 0.01370228 -0.023675824
0.23289564 -0.15283437 -0.03065548 0.0016807817 -0.0100857 -0.17525809 0.0353063 0.0062228697
-0.049859345 0.03532881 0.1141835 -0.030010412 -0.07681336 -0.22183226 0.006448069 0.1469326
-0.10366721 0.19891346 -0.23091093 -0.19014472 -0.18846408 0.19826733 -0.0048122024 -0.097633034
-0.1506582 -0.037585266 0.037799176 -0.121340536 -0.062383167 0.03193113 -0.16261886 0.20375636
-0.061232343 -0.1967722 -0.003318306 0.1597095 -0.15996115 0.2335845 0.08512763 0.16148666
-0.067658976 0.114122 -0.16927287 -0.23235393 -0.005000576 -0.21168746 -0.15283084 -0.11306215
0.19070345 0.1392133 0.09427536 0.20061018 0.11852613 0.07589681 0.1010496 0.1537083
0.1729982 -0.043795075 -0.10438968 -0.1074301 -0.09282624 0.015326112 -0.1258595 -0.10791005
0.13476734 0.14066823 -0.10930791 -0.05416463 -0.050533548 -0.11687027 0.036206417 0.11162809
00000000: b7e5 5a3d 9b69 16bd a6e2 ad3d c02f 68bc
00000010: af80 a9bd 73a5 703e 63d3 df3d c903 9fbd
00000020: fa9d 9c3c ecd9 92bc b5a0 75bd 2475 5c3e
00000030: c648 8bbe df9a 24be 52f8 bcbd e451 15be
00000040: e55b d0bb 2b37 4abd 7372 83bd 619e c7bd
00000050: c4c1 aebc f348 08be 4df2 8a38 3ff3 2fbe
00000060: 0cf4 34be 93bb 103d 8f6e 93bd 5c6a 043e
00000070: 8337 18be 99a6 12be 06df 783d 7166 d5bd
00000080: 2f7e e7bd 7378 423e d368 c8bd 75b9 e8bd
00000090: b1c8 25be b8cc 4e3e ce60 3b3d 6d13 333e
000000a0: 3ec5 1b3e 272a 23be 1091 193e 9704 313e
000000b0: bb2e 05bd 4295 8b3d 8528 633e dccf d0bb
000000c0: ac34 14be 2025 1dbd 8245 a23c 3778 5f3e
000000d0: f9e8 7fbb 5f12 053d 3f5b 43be 265f c73c
000000e0: 1f1f eabd 03e9 e13d 896c 9739 2ede edbd
000000f0: a7e5 033e a222 48be cb0f efbd 8c16 49be
00000100: 0f35 893d b091 89bd 9c27 c4bd f89c 27be
00000110: ac85 363d bf0b 87bd 9499 bdbd 22d6 093d
00000120: 44b7 63be 6f64 cebd 4e95 18be dc81 d93d
00000130: f2d2 ccbd 90e1 05be e853 193e 8852 4cbe
00000140: a846 fe3a d733 263e f428 ad3d 12db 573e
00000150: 8a50 263e b5e0 1fbe 499c 4d3d 7b89 663e
00000160: 7d65 6bbe f067 163d acde 673e 9ec1 0fbe
00000170: 260a db3d 3672 9f3b e321 cbbd d96e 35be
00000180: e99d c2bd 012c e83d 8d9e d33c d6ba f9bd
00000190: b99a 2a3e 338b d23d 0d18 563d ead9 cd3d
000001a0: f693 02be 6ea5 3dbe 8a0f 723d c536 2d3e
000001b0: 7739 833e 562a 9e3c 56c8 8e3c 4649 043e
000001c0: 1f31 3c3e 6b06 3dbe 95dc a43b 886e e23d
000001d0: c63a 71bd 0246 ee3d edd4 2dbe e5a0 d73d
000001e0: 17b7 5cbd 375a 39be 5c6d 803c 436e 2c3d
000001f0: 46a8 643e f037 75bd a751 cbbc 0542 e13d
00000200: aea0 813d d6da 27be cc47 11be eb36 6fbe
00000210: 4a86 f5bd 2a12 e3bd 808c 38bd ac7e 3b3e
00000220: 4b71 5b3e b6cb ccbd d3f1 123e 6d05 103e
00000230: c69b f13d eda0 a63d 1f22 0a3e de72 88bd
00000240: 6dea 1f3e 68d9 f8bd 7376 083b ae14 c13d
00000250: a713 36be 4414 10be fcc2 933c 4a23 523e
00000260: 1123 b5bd bdec 2dbe e352 d43c 1070 5ebe
00000270: cea2 c13d 6ab8 1a3e 2e71 743d dcdd c5bd
00000280: 49d2 e23d 4d34 e83d 5476 19be 7053 5abe
00000290: 92bc b43d fccf 8fbb 1032 be3d 72e0 bbbd
000002a0: 1382 77be 71cc 9a3d 07de 863d 8260 6bbe
000002b0: aaee b53d 1b81 9f3d bf29 27bd db9e 2fbe
000002c0: 1e9b 04be 25a3 6ebe 9abb 003e 2459 01be
000002d0: 53be bebd 92fe c6bd 877f 603c cdf3 c1bc
000002e0: 327c 6e3e 9d80 1cbe 3421 fbbc ad4d dc3a
000002f0: 7e3e 25bc db76 33be 579d 103d 37e9 cb3b
00000300: 5039 4cbd f1b4 103d 0ad9 e93d 65d8 f5bc
00000310: 5350 9dbd ff27 63be 534a d33b 8075 163e
00000320: 794f d4bd f8af 4b3e ea73 6cbe 4cb5 42be
00000330: bafc 40be 9706 4b3e aeaf 9dbb d4f3 c7bd
00000340: 2546 1abe 02f3 19bd 4fd3 1a3d 6381 f8bd
00000350: 7e85 7fbd 37ca 023d 8f85 26be 82a5 503e
00000360: c4ce 7abd a77e 49be f077 59bb e38a 233e
00000370: dbcc 23be c630 6f3e 6557 ae3d c25c 253e
00000380: ca90 8abd ccb8 e93d de55 2dbe 30ee 6dbe
00000390: dfdb a3bb 99c4 58be b07f 1cbe 218d e7bd
000003a0: c447 433e ee8d 0e3e 7113 c13d c16c 4d3e
000003b0: d4bd f23d c96f 9b3d 18f3 ce3d b565 1d3e
000003c0: 7126 313e 7762 33bd 42ca d5bd 5004 dcbd
000003d0: af1b bebd 5f1a 7b3c 50e1 00be f2ff dcbd
000003e0: 7300 0a3e 550b 103e d3dc dfbd bbdb 5dbd
000003f0: 44fc 4ebd ae59 efbd 2e4d 143d 459d e43d

net.0.bias f4 [128]
-0.24322827 0.26250306 -0.10850637 -0.20740516 -0.13809411 0.24442196 0.29206988 0.3198368
0.22267596 -0.11309782 0.18029298 0.16703588 -0.13056052 -0.16819541 -0.1328773 0.30729756
0.24554364 0.22852626 -0.2936989 -0.22167584 0.246489 -0.25839305 -0.12483259 -0.31971252
-0.23719016 -0.2847229 0.15116405 0.18740633 0.22295693 -0.26118496 0.25457925 0.110047214
-0.24509925 -0.31441006 0.1565771 -0.16985592 0.22857967 0.2264641 -0.30082595 -0.19708024
-0.12637782 -0.1193394 0.3054968 0.290505 -0.11881015 -0.23411007 -0.11346085 0.28162596
0.2888722 0.18327759 0.27845842 -0.23872274 -0.094049044 -0.213369 -0.26191086 0.31914496
-0.30731457 0.21194832 0.25934526 -0.19662619 -0.1191769 -0.27698115 0.29408303 0.13088275
-0.15444148 -0.14004105 0.19868642 -0.16137417 -0.31188285 0.2366068 0.31602675 -0.25714993
-0.15561613 -0.24493913 0.30610612 0.29992154 -0.20153683 0.21032877 -0.1524263 -0.12617254
-0.27461556 0.2999382 -0.1595993 0.15468372 0.16243938 0.29149097 0.16217013 -0.18570073
-0.30411792 -0.105295084 -0.20482592 -0.1255859 0.32424378 -0.2782838 0.10358022 -0.13526028
-0.25577438 0.13386819 -0.29813433 0.2321906 0.21014546 0.24720939 -0.22329164 -0.12041461
-0.22526875 0.21929511 -0.1575901 -0.17425886 -0.26312715 0.13693891 -0.28358516 -0.26993698
-0.22260754 -0.28309795 0.17975762 -0.30282745 0.28518495 0.123477206 0.3061566 0.20230946
0.12686408 -0.32197505 -0.2300166 0.21973002 0.28622162 0.16367723 -0.28707555 -0.13798249
00000000: d510 79be cd66 863e 9638 debd 0562 54be
00000010: 8b68 0dbe c049 7a3e 2f8a 953e a6c1 a33e
00000020: 2b05 643e d49f e7bd b99e 383e 740b 2b3e
00000030: a8b1 05be 6b3b 2cbe fd10 08be 1b56 9d3e
00000040: cb6f 7b3e ca02 6a3e b45f 96be fefe 62be
00000050: 9d67 7c3e 184c 84be 3ba8 ffbd 5cb1 a3be
00000060: fae1 72be 33c7 91be c0ca 1a3e 72e7 3f3e
00000070: d24e 643e 09ba 85be 3658 823e 6f60 e13d
00000080: 4cfb 7abe 5bfa a0be bf55 203e b6ee 2dbe
00000090: ca10 6a3e 34e6 673e dc05 9abe 67cf 49be
000000a0: 3069 01be 3768 f4bd 146a 9c3e 12bd 943e
000000b0: bc52 f3bd 8dba 6fbe 2a5e e8bd 4731 903e
000000c0: 0fe7 933e 1fad 3b3e 1a92 8e3e bc73 74be
000000d0: c99c c0bd 677d 5abe 2e19 86be f866 a33e
000000e0: 5658 9dbe fb08 593e e7c8 843e 6058 49be
000000f0: 0513 f4bd 79d0 8dbe 0d92 963e 2106 063e
00000100: e825 1ebe ec66 0fbe 7474 4b3e 453f 25be
00000110: 1caf 9fbe 0e49 723e 42ce a13e 28a9 83be
00000120: d659 1fbe 53d1 7abe f1b9 9c3e 518f 993e
00000130: ac5f 4ebe 6d60 573e a415 1cbe 6033 01be
00000140: 699a 8cbe 8091 993e 006e 23be 6965 1e3e
00000150: 8256 263e 4e3e 953e ed0f 263e 5528 3ebe
00000160: 58b5 9bbe f3a4 d7bd e3bd 51be 9799 00be
00000170: 4803 a63e 377b 8ebe de21 d43d ac81 0abe
00000180: dcf4 82be be14 093e 10a5 98be 5fc3 6d3e
00000190: 5f30 573e 7524 7d3e 90a6 64be ef9b f6bd
000001a0: daac 66be e68e 603e 4d5f 21be ea70 32be
000001b0: 9ab8 86be b739 0c3e 1332 91be 2e35 8abe
000001c0: 3bf3 63be 37f2 90be 6212 383e 330c 9bbe
000001d0: c303 923e 9ee1 fc3d 8fc0 9c3e 362a 4f3e
000001e0: a8e8 013e ead9 a4be 7989 6bbe e800 613e
000001f0: a48b 923e 019b 273e 91fb 92be 484b 0dbe

net.2.weight f4 [128, 128]
-0.009303396 -0.07557951 0.13300842 0.09317829 0.00797273 0.0258673 -0.06977566 -0.07837319
-0.017312396 0.036929782 -0.02300562 -0.08320378 -0.0006033736 0.06794035 0.03178094 0.02754518
-0.05796069 -0.13472424 0.04439194 -0.02668382 -0.044750854 0.10348726 0.06949768 0.12448106
-0.010571302 0.030814067 -0.045337077 0.009722894 -0.07699161 -0.005662695 0.026585866 -0.07605836
0.12720037 -0.018274525 -0.12907675 0.02269759 -0.035970215 -0.121799044 -0.03154648 0.035887767
0.14445363 0.06411314 0.027830895 -0.09028891 0.05842212 0.025558501 0.039931595 0.00991322
-0.053985294 -0.030740412 0.030204821 0.12318247 0.096426085 0.06973752 0.12218656 -0.09062241
0.06586385 -0.07891503 -0.037351802 0.13361122 0.11146844 0.14017262 -0.08636194 -0.09918495
0.1490267 0.117287844 -0.089453615 0.10098786 0.12989645 -0.11022318 -0.0009949513 0.1043448
0.10209773 0.086128645 -0.00339445 -0.038415775 0.005751718 -0.110983975 0.016946988 0.08712544
0.13724644 0.0041233622 -0.004195809 0.0065514436 -0.050984826 -0.04956553 -0.11082498 -0.014244058
0.022898901 0.11450501 0.09120603 0.072056375 -0.10669128 0.039849605 -0.15367253 0.12300835
0.0037515953 -0.13908777 0.12678966 -0.06735963 -0.07961074 -0.13727888 0.13916633 0.08466817
0.10380522 -0.12192573 0.10079007 0.010966949 -0.011902714 0.0011328659 -0.02963935 0.07847272
0.0796565 0.11644709 -0.13688987 0.097743936 -0.13744418 -0.026196104 -0.06354515 -0.0024533158
-0.06731396 0.12946115 0.10472194 -0.01789782 -0.06538377 -0.06831166 0.107020624 -0.010420646
-0.11317822 0.15251093 -0.18604435 -0.15473777 -0.045569476 0.010866902 0.08108797 0.07602084
0.080584444 -0.16446777 0.16578677 0.0568296 -0.057430737 -0.17464481 -0.06857785 0.13719939
0.12120132 0.17059067 -0.09054069 -0.09268755 0.12896472 -0.106487684 -0.059376806 -0.05070603
-0.12102734 -0.032813307 0.03630907 0.017740006 0.04056899 -0.07630501 0.013290865 0.17547713
-0.13167211 -0.14634223 0.08429786 -0.08636628 0.04097426 0.04992422 -0.1450642 -0.159365
-0.12896581 -0.18170981 0.113436475 0.15981886 -0.04632161 0.00147271 -0.04084979 0.102606446
-0.0019469026 0.12709564 0.08652939 -0.14008906 -0.045691848 0.0018979588 -0.08912056 0.01369925
-0.034487687 0.1130278 0.016347216 -0.10916988 -0.102178335 -0.004714747 0.070014365 0.17744686
-0.17840834 -0.07587246 0.16288961 -0.10581466 0.0012164048 0.15656857 0.0007838887 -0.08073488
-0.116839185 -0.09699577 0.036946062 0.0056997477 -0.00044743792 0.15176381 -0.114047006 -0.12664595
-0.08018663 -0.0061946227 -0.059833337 0.08245561 0.042036355 0.1709805 0.08902024 -0.10938479
-0.025758645 -0.15437105 -0.1126617 -0.13302322 0.023312101 -0.023176597 0.09490859 -0.10659908
-0.019599231 0.08465404 -0.11689126 0.13481669 0.108959764 0.14594798 -0.013685351 -0.0676478
-0.1304234 0.14299959 -0.037189532 -0.14102994 -0.025476435 0.17305396 -0.13494685 -0.13557605
-0.08057122 -0.043972906 0.06158091 -0.06811317 0.038705643 0.016291331 0.05281379 0.008208485
0.06425875 -0.15426047 -0.11862955 0.11439892 0.11095759 0.04925609 -0.11432461 -0.11897831
00000000: 456d 18bc 6ec9 9abd 5c33 083e 42d4 be3d
00000010: 0ea0 023c a9e7 d33c 8be6 8ebd 1f82 a0bd
00000020: bad2 8dbc af43 173d 4876 bcbc be66 aabd
00000030: b82b 1eba 4f24 8b3d bb2c 023d 6ea6 e13c
00000040: 3068 6dbd 27f5 09be 53d4 353d 0798 dabc
00000050: ac4c 37bd 21f1 d33d cd54 8e3d edef fe3d
00000060: 4133 2dbc c86d fc3c 5fb3 39bd c64c 1f3c
00000070: c7ad 9dbd 218e b9bb 9aca d93c 7cc4 9bbd
00000080: d040 023e 75b4 95bc b22c 04be 4cf0 b93c
00000090: 8155 13bd c771 f9bd e236 01bd 0dff 123d
000000a0: a7eb 133e c04d 833d 9efd e33c 64e9 b8bd
000000b0: 084c 6f3d 1060 d13c 508f 233d 0f6b 223c
000000c0: af1f 5dbd 51d3 fbbc 1a70 f73c 1747 fc3d
000000d0: 0a7b c53d 8bd2 8e3d f23c fa3d 3e98 b9bd
000000e0: a0e3 863d 349e a1bd 34fe 18bd 61d1 083e
000000f0: 9149 e43d 6989 0f3e 87de b0bd 7b21 cbbd
00000100: 759a 183e 9c34 f03d 7533 b7bd b9d2 ce3d
00000110: 9303 053e b1bc e1bd 0769 82ba bab2 d53d
00000120: 9d18 d13d 3764 b03d 6c75 5ebb dc59 1dbd
00000130: e878 bc3b 914b e3bd 69d4 8a3c d36e b23d
00000140: 558a 0c3e 451d 873b ff7c 89bb 7ead d63b
00000150: 77d5 50bd 3a05 4bbd 35f8 e2bd e95f 69bc
00000160: 7a96 bb3c 9a81 ea3d 3aca ba3d 4b92 933d
00000170: f580 dabd 5739 233d 555c 1dbe cdeb fb3d
00000180: 53dd 753b 066d 0ebe 26d5 013e d8f3 89bd
00000190: f50a a3bd d692 0cbe 9e81 0e3e 8166 ad3d
000001a0: d597 d43d 32b4 f9bd 066b ce3d b8ae 333c
000001b0: 9a03 43bc ac7c 943a 39ce f2bc 4eb6 a03d
000001c0: f222 a33d d07b ee3d dc2c 0cbe f92d c83d
000001d0: 2bbe 0cbe 3699 d6bc f623 82bd cfc7 20bb
000001e0: e7db 89bd 7791 043e 7578 d63d 739e 92bc
000001f0: ede7 85bd fce6 8bbd a12d db3d 5bbb 2abc
00000200: fcc9 e7bd d32b 1c3e 6982 3ebe 9473 1ebe
00000210: 0fa7 3abd 170b 323c 7311 a63d d0b0 9b3d
00000220: 7509 a53d 3d6a 28be 02c4 293e 28c6 683d
00000230: 7e3c 6bbd 17d6 32be 8b72 8cbd ff7d 0c3e
00000240: 6638 f83d 52af 2e3e 666d b9bd f8d2 bdbd
00000250: 540f 043e 3716 dabd 1835 73bd 20b1 4fbd
00000260: 2fdd f7bd 3f67 06bd d2b8 143d 7d53 913c
00000270: ab2b 263d cd45 9cbd eec1 593c 47b0 333e
00000280: 0ed5 06be bdda 15be 5ba4 ac3d cee0 b0bd
00000290: a0d4 273d 577d 4c3d b68b 14be 9430 23be
000002a0: 9d0f 04be 2312 3abe 6251 e83d 8ea7 233e
000002b0: bbbb 3dbd f307 c13a 1c52 27bd 5423 d23d
000002c0: 362f ffba 5c25 023e 5236 b13d 8273 0fbe
000002d0: 6027 3bbd eec4 f83a d784 b6bd d272 603c
000002e0: f642 0dbd 1f7b e73d 99ea 853c 7594 dfbd
000002f0: e042 d1bd 2a7e 9abb b163 8f3d a1b4 353e
00000300: adb0 36be 0563 9bbd 89cc 263e 5bb5 d8bd
00000310: c66f 9f3a 8353 203e e17d 4d3a 5458 a5bd
00000320: 6249 efbd b8a5 c6bd c154 173d f3c4 ba3b
00000330: 1a96 eab9 f967 1b3e 7a91 e9bd 7aaf 01be
00000340: e338 a4bd 43fc cabb cd13 75bd 7dde a83d
00000350: 502e 2c3d 8315 2f3e 3e50 b63d 2205 e0bd
00000360: cb03 d3bc 7213 1ebe 2dbb e6bd 3d37 08be
00000370: 05f9 be3c d9dc bdbc 6f5f c23d 9e50 dabd
00000380: 918e a0bc 195f ad3d af64 efbd 630d 0a3e
00000390: 4c26 df3d 6373 153e 8638 60bc ee8a 8abd
000003a0: b68d 05be 7c6e 123e 0d54 18bd 276a 10be
000003b0: f5b3 d0bc 0f35 313e 822f 0abe 73d4 0abe
000003c0: 8602 a5bd ef1c 34bd 443c 7c3d eb7e 8bbd
000003d0: cf89 1e3d 6675 853c 4653 583d e27c 063c
000003e0: 179a 833d 75f6 1dbe 0df4 f2bd fb49 ea3d
000003f0: bc3d e33d c1c0 493d 0523 eabd e6aa f3bd

net.2.bias f4 [128]
-0.015341878 0.017859692 -0.017101709 0.13892244 -0.018358918 0.054711744 -0.08671511 0.10027587
-0.0018654127 -0.108208194 0.02278882 -0.09142677 -0.091317825 -0.030742185 -0.11093165 -0.008249496
-0.010491139 0.12905312 -0.13005479 -0.12305893 -0.0119111985 -0.12674628 -0.12733442 -0.095894866
0.022674749 0.08894277 -0.10837708 0.1073676 -0.03922576 0.08592865 0.042730942 0.09516614
0.0067690276 -0.10454239 -0.09383614 -0.120809294 -0.08025754 0.014813399 -0.02521645 0.032301884
-0.11732261 -0.08512064 0.018097905 0.09609777 -0.09686963 -0.08607592 0.0045734365 -0.0035327005
-0.013610117 -0.07758462 0.061750792 -0.13378285 -0.108481005 -0.041607972 -0.104186885 0.017933384
0.07220247 0.090298 0.07912565 0.1409228 0.028406356 0.039995763 0.027557772 0.011673384
0.093772165 0.009586636 -0.045698866 -0.022361604 0.0046178587 0.12165138 3.6303234e-05 -0.012665371
0.082152225 -0.035610754 -0.021568451 0.029972555 -0.01557635 0.07217701 -0.07679996 -0.05188453
0.009436097 0.016145729 0.005002287 0.097167544 -0.096927784 0.12060919 -0.06432673 -0.109591104
0.007762175 -0.017544629 0.009354882 -0.10599271 -0.0773131 0.083436325 0.023173083 0.03398189
0.000851092 -0.13063395 0.0008282646 0.08522801 -0.13352025 0.019942993 -0.07783923 0.09790565
0.090737246 0.11529056 0.065917075 0.02400867 -0.045873612 0.09100518 0.036956064 0.07483595
0.027515408 -0.012573704 -0.040893108 0.071275495 0.10288141 -0.109030664 0.017560719 0.14549492
0.061555594 -0.1272479 -0.037073854 0.059382074 0.055729806 -0.045708586 -0.038614564 -0.013646559
00000000: 805c 7bbc 7d4e 923c e218 8cbc af41 0e3e
00000010: 7165 96bc 6c19 603d b197 b1bd 6f5d cd3d
00000020: dd80 f4ba 429c ddbd 9faf ba3c f53d bbbd
00000030: d704 bbbd 09d7 fbbc 2230 e3bd e528 07bc
00000040: 07e3 2bbc 8026 043e 152d 05be 5206 fcbd
00000050: 3027 43bc c7c9 01be f463 02be 8764 c4bd
00000060: 65c0 b93c a127 b63d cdf4 ddbd 8be3 db3d
00000070: 31ab 20bd 5cfb af3d a406 2f3d 77e6 c23d
00000080: b8ce dd3b 521a d6bd 2a2d c0bd dd6a f7bd
00000090: 115e a4bd e6b3 723c bb92 cebc fb4e 043d
000000a0: d646 f0bd bb53 aebd 0f42 943c e8ce c43d
000000b0: 9663 c6bd 9248 b0bd c4dc 953b e184 67bb
000000c0: f8fc 5ebc afe4 9ebd 66ee 7c3d 5ffe 08be
000000d0: 4a2b debd 1f6d 2abd ef5f d5bd 08e9 923c
000000e0: e3de 933d 28ee b83d a10c a23d 114e 103e
000000f0: 72b4 e83c 99d2 233d d6c0 e13c b941 3f3c
00000100: 9f0b c03d 4411 1d3c bc2e 3bbd af2f b7bc
00000110: 6851 973b 5c24 f93d 4d44 1838 6b82 4fbc
00000120: 6d3f a83d 95dc 11bd 52b0 b0bc 0189 f53c
00000130: f233 7fbc 8ad1 933d 4c49 9dbd df84 54bd
00000140: dc99 1a3c 0c44 843c 3aea a33b c7ff c63d
00000150: 1382 c6bd f301 f73d bcbd 83bd 4d71 e0bd
00000160: d859 fe3b c1b9 8fbc 3845 193c b512 d9bd
00000170: 5556 9ebd aae0 aa3d 7ad5 bd3c 9830 0b3d
00000180: d11b 5f3a e8c4 05be e51f 593a 068c ae3d
00000190: 88b9 08be 7d5f a33c 2d6a 9fbd c282 c83d
000001a0: 73d4 b93d 751d ec3d 88ff 863d d5ad c43c
000001b0: f8e5 3bbd ec60 ba3d 3e5f 173d 9743 993d
000001c0: fe67 e13c f001 4ebc 887f 27bd e3f8 913d
000001d0: 7db3 d23d 784b dfbd 7fdb 8f3c 9ffc 143e
000001e0: b821 7c3d 464d 02be c1da 17bd 9e3a 733d
000001f0: f044 643d ed38 3bbd 4e2a 1ebd d195 5fbc

net.4.weight f4 [1, 128]
0.15437 -0.11434935 -0.17310934 -0.15228945 -0.12543583 -0.1818703 0.11051952 -0.15304665
0.13446233 0.18101922 -0.18895678 0.17316148 0.14762981 -0.17700008 0.11392859 -0.12632148
0.18083842 -0.12124746 0.12244343 0.13803354 0.17684963 0.13835023 0.11903698 0.12070003
0.14760114 -0.11095829 0.11953191 -0.15206686 -0.12025774 -0.13238823 -0.13864954 -0.14882684
0.13210331 0.17539087 0.11828906 0.11028234 0.15213771 0.16351494 0.11064799 0.15432487
0.13838826 0.11373252 -0.101360194 -0.121190645 0.108036876 0.10602902 0.15674287 0.15725023
-0.14368805 0.15435281 -0.14825729 0.18087873 0.13093548 0.16742854 0.1487861 -0.13523608
-0.10174564 -0.12671089 -0.11786047 -0.08990734 -0.15816568 0.19464071 0.17733473 -0.124455914
-0.1569312 -0.1200621 0.14127685 0.16139571 0.1892204 -0.17653097 -0.16652489 -0.15813363
-0.13934977 0.14876233 0.18350549 0.1413475 0.16589816 -0.17107902 0.15897182 0.13047136
-0.126657 -0.1259371 0.16540505 -0.13135186 0.108882695 -0.12586847 0.14729217 0.13500185
0.107626215 -0.11621922 -0.121995576 0.064131245 0.15651365 -0.15632595 -0.16608834 0.18339127
-0.15787093 0.17377499 -0.130305 -0.112536564 0.14204943 0.15282327 0.16297126 -0.12640843
-0.18021962 -0.17052412 -0.16252653 0.08133647 0.13265818 -0.13081087 -0.19568732 -0.16380014
-0.13439563 -0.14504427 0.15336268 -0.15287068 -0.14091845 0.1728701 0.123236224 -0.120102674
-0.11544946 0.11798212 0.17778926 -0.13476104 -0.15221903 0.18091238 0.17651533 0.19135576
00000000: 2b13 1e3e fe2f eabd 9343 31be c4f1 1bbe
00000010: 4072 00be 353c 3abe 0f58 e23d 43b8 1cbe
00000020: 7eb0 093e 1a5d 393e e37d 41be 3e51 313e
00000030: 452c 173e 823f 35be 6553 e93d 6b5a 01be
00000040: b52d 393e 9750 f8bd 9fc3 fa3d aa58 0d3e
00000050: 1218 353e afab 0d3e a9c9 f33d 9431 f73d
00000060: c124 173e 1a3e e3bd 25cd f43d 6ab7 1bbe
00000070: b149 f6bd c890 07be 25fa 0dbe 1066 18be
00000080: 1746 073e aa99 333e 8941 f23d b5db e13d
00000090: fdc9 1b3e 7670 273e 6a9b e23d 5707 1e3e
000000a0: a7b5 0d3e 98ec e83d ef95 cfbd cd32 f8bd
000000b0: 7042 dd3d be25 d93d 3481 203e 3406 213e
000000c0: f622 13be aa0e 1e3e c2d0 17be 4638 393e
000000d0: f313 063e 6372 2b3e 625b 183e 547b 0abe
000000e0: 0560 d0bd 80c0 01be d560 f1bd 5721 b8bd
000000f0: 2ff6 21be e54f 473e 3c97 353e bee2 febd
00000100: 93b2 20be 1ee3 f5bd e1aa 103e eb44 253e
00000110: fec2 413e 89c4 34be 8085 2abe c8ed 21be
00000120: b5b1 0ebe 2755 183e dde8 3b3e 66bd 103e
00000130: 35e1 293e 572f 2fbe 82c9 223e 499a 053e
00000140: 5fb2 01be a8f5 00be f15f 293e 1a81 06be
00000150: e4fd de3d aae3 00be c2d3 163e ed3d 0a3e
00000160: 226b dc3d 5804 eebd d1d8 f9bd 3e57 833d
00000170: 1d45 203e e913 20be 1013 2abe ecca 3b3e
00000180: eba8 21be 12f2 313e ad6e 05be 9279 e6bd
00000190: 6875 113e b47d 1c3e f0e1 263e 3671 01be
000001a0: 7e8b 38be e09d 2ebe 5b6d 26be bc93 a63d
000001b0: 8cd7 073e 49f3 05be 4262 48be 39bb 27be
000001c0: 029f 09be 7c86 14be 1b0b 1d3e 228a 1cbe
000001d0: ed4c 10be dc04 313e 4663 fc3d 64f8 f5bd
000001e0: c470 ecbd 9ca0 f13d 630e 363e ccfe 09be
000001f0: 4edf 1bbe 1841 393e 6fc0 343e c4f2 433e

log_std f4 [3]
0.016416565 0.025009116 0.016381243
00000000: 087c 863c ebdf cc3c f531 863c
