runs/checkpoint_e050.pt (torch, 158519 bytes, 12 tensors)

net.0.weight f4 [128, 18]
00000000: 1242 f13e 0402 0fbc 4832 1fbe ef42 5bbe
00000010: 9c92 60ba 6652 87bc e2bd 543e ed0b 23be
00000020: 30cd 0d3e 2282 6b3e 1891 8e3d c6fe 7ebd
00000030: b5a4 cc3e f8d5 6f3e aa2b 073e 0efc 8cbd
00000040: 6cd6 3fbe cfd4 ec3d 58af 863e 4776 dd3e
00000050: 5fb3 203e 7506 373d 675b 1e3d 288f 36be
00000060: 360b c63e 15f9 a03e ca5b 48be 3263 f0bd
00000070: d230 6a3e 0183 f3bb bffc 913e d453 2c3e
00000080: 87cd 14be 91fe c6bd 8c2e 593e beb2 873c
00000090: c824 a8be 96ac c4be d39e 2fbe b720 83bd
000000a0: 7642 abbd f606 e93d e0c5 e7bd 0e25 e93e
000000b0: 62c1 4c3d db5e 2d3d 7b77 b2bd 1676 5b3e
000000c0: eca8 263e 7bc9 bc3e 8d10 363d 53e0 20be
000000d0: 52fa 53bc 6d6a 0e3c 3576 e73e 37d3 f13e
000000e0: 34aa b9bd bd6b 313e 9407 013e d751 23bd
000000f0: 375e 953e a21d fe3e 8930 3e3e 3d68 0a3d
00000100: 3612 373d b211 9abd f1b7 133e d169 18bd
00000110: 6480 f53c a68b 4fbe 2f84 22be 4eab 01bd
00000120: f172 dcbd 31fd f53d b87e a5bd 2427 aebc
00000130: fea8 353e 82cd 1bbe f989 0cbd 1e2d 9a3d
00000140: da5b ac3d 2aff 24be 6baf a63c d6df 6f3e
00000150: a81b 26bd 5f2d d9be 932d 58be 349b 273e
00000160: 48cd 693e 80a5 703e 9936 493c 5c14 23be
00000170: 4024 17be c32c 1abe 8858 16bd 3be8 fc3d
00000180: 386f 8d3e c05d 053f 6b06 543e c86b 80bd
00000190: 1de3 4d3e 1423 1abe 76cf 6dbe cc99 7dbe
000001a0: 73fd edbd 7e05 263e dd3e 80bd 1173 2e3e
000001b0: 56d9 fdbe f2e8 82be 32b7 9a3d 192c a33b
000001c0: a631 0dbd c8dc 093e a7b5 24be 9b27 743d
000001d0: 8c15 ef3d 3588 693e ce58 1b3d e294 4dbe
000001e0: 8dc6 7dbb 6ddb 013f a5d6 c53d 1335 183e
000001f0: a7b8 0c3e 5ed8 683d b7bb de3d 9e9a 183c
00000200: 8d3d 1a3e 2d5e 49be 6918 34be 4ab0 fa3d
00000210: 3f5d 0cbd 0d38 373e 9247 dc3d bdc9 35be
00000220: 247b b6bd 0b56 413e 0b6e fe3d 3732 b6be
00000230: 4c05 92bd 3498 373e 4b5d 113e 5555 71bc
00000240: ac38 93bd b6d3 9cbd 3a6b 323e 6218 3d3e
00000250: 3adb 103e cae5 8fbc a998 be3d b3e5 5dbe
00000260: 45dd 69bb ab0f 01be e92b 4bbe 1aad 423e
00000270: 107f 243e 0ca6 953e 5450 42bd b071 06be
00000280: 067b 6abe f732 403c 4aec 55bd e5f6 c8bd
00000290: 1823 27be 635a cf3c c617 6f3e 5c38 f9bb
000002a0: 2eb7 e3bd 432d 0cbf 7e7e 1c3e b63f 183e
000002b0: 0fc3 ec3d ce8b 6e3e a112 0f3e f5e6 aa3e
000002c0: 30e7 12be 121c 07be 62f6 2b3e 65ce 1c3d
000002d0: f93b c73d 07f5 0b3f 9494 193d 42f3 573e
000002e0: 23e7 08be 71c3 2abe 785f c13e 9aeb 81bd
000002f0: e70e 27bc ac25 06be 4a1f 1f3e 5d9e 01be
00000300: 7378 553d 8cb1 2d3b c239 3bbe bf75 3ebe
00000310: 0011 65be d7b4 03be b3f7 3ebd b0a7 9d3c
00000320: 81ce 633e 3453 353e 4353 473e 7c3e 783d
00000330: 1664 8ebe 688c 07bf 0d2a 89bd 74b0 24be
00000340: 6f6e 1dbd 04db 0d3e 77de af3d b429 ac3e
00000350: 8418 89bd 81fc 2abd 9792 26be e781 edbd
00000360: d0ba e63e 361e c33e bc87 103d 8fe3 44be
00000370: 5c2d 3fbe c048 433e ff0b 553e 3c2d 273e
00000380: bf33 6fbd e02e 3c3e 0721 20be 1545 27be
00000390: 4827 403e a495 c53e 82e0 89bd f8e3 a03d
000003a0: c2f9 b63c 814e cabc 4792 1ebb 83f3 d4be
000003b0: d6b6 593e 4247 163e 0859 0c3e 102b 303e
000003c0: a381 9d3e d5b3 013f bf2b 4b3e 7823 05be
000003d0: 3317 723c 8ecd 5bbd 6adc 02be b742 ee3e
000003e0: b84a 4f3e d5d2 6e3e 5d0b 3e3e 2d93 9e3d
000003f0: 08f6 273e 92d2 493e b2aa 61bd 1dd8 d23c
0.4712072 -0.008728508 -0.15546525 -0.21412252 -0.00085667684 -0.016518783 0.2077556 -0.15922518
0.13847804 0.2299886 0.06961268 -0.06225469 0.39969411 0.23421466 0.1320025 -0.06884013
-0.18734139 0.115640275 0.26305652 0.432543 0.15693425 0.044683892 0.038661387 -0.17828047
0.38680428 0.31440035 -0.19566265 -0.1173767 0.22870186 -0.0074313884 0.28513142 0.16828853
-0.14531527 -0.097165234 0.21209162 0.016564723 -0.32840562 -0.38412923 -0.1715043 -0.06402724
-0.08362286 0.11378281 -0.113170385 0.45536083 0.04998911 0.04232679 -0.08714195 0.21431765
0.16275376 0.36872467 0.044449378 -0.15710573 -0.012938099 0.008692366 0.45207372 0.47231457
-0.09065667 0.17326255 0.12600547 -0.03987297 0.29173443 0.49631983 0.18573202 0.033790816
0.0446951 -0.07522906 0.14425637 -0.03721029 0.029968448 -0.20268115 -0.15870737 -0.03165751
-0.10764111 0.12011183 -0.0808081 -0.021258898 0.17740247 -0.15215114 -0.03431127 0.07528137
0.08415957 -0.16112962 0.020347318 0.2342523 -0.04055372 -0.42417428 -0.21111135 0.16367799
0.22832215 0.23500633 0.0122810835 -0.15925735 -0.14759922 -0.15056138 -0.036705524 0.12348982
0.27623916 0.52096176 0.20705573 -0.06270558 0.20106168 -0.15052444 -0.23223671 -0.247657
-0.11620607 0.16213033 -0.0626199 0.17036082 -0.49579877 -0.25568348 0.07554473 0.004979622
-0.034471177 0.13463128 -0.1608492 0.059608083 0.116740316 0.22805865 0.037926488 -0.20076326
-0.0038723082 0.5072544 0.09660081 0.14863996 0.13742314 0.05684697 0.108756475 0.009314207
0.15062542 -0.19664831 -0.17587437 0.12240656 -0.034268614 0.17892475 0.107558385 -0.17752738
-0.08910206 0.18880479 0.12423333 -0.35585186 -0.071299165 0.17929155 0.14195745 -0.014729817
-0.07188544 -0.07657568 0.17423716 0.18466333 0.14146128 -0.017565627 0.09306461 -0.21669655
-0.0035684865 -0.12603633 -0.19840969 0.19011346 0.16064095 0.29228246 -0.047439888 -0.13129306
-0.22898492 0.011730901 -0.052227296 -0.098127164 -0.16321981 0.025311654 0.23348913 -0.0076055955
-0.11118923 -0.54756564 0.15282628 0.14868054 0.11560642 0.23295519 0.1397195 0.3337933
-0.14346004 -0.13194302 0.16793206 0.03828277 0.09728236 0.5467076 0.03749521 0.21088889
-0.13369422 -0.16676117 0.3776815 -0.063437656 -0.010196424 -0.13100308 0.1553928 -0.12658067
0.052116822 0.0026503531 -0.18283752 -0.18599604 -0.22369766 -0.12861954 -0.046622943 0.019244999
0.22246744 0.1770752 0.19465356 0.060606465 -0.27810735 -0.5294862 -0.06697474 -0.16082937
-0.038435396 0.13853079 0.08587354 0.33625567 -0.06694129 -0.041744713 -0.16266857 -0.115970425
0.45064402 0.38108987 0.035285696 -0.19227432 -0.18669647 0.1907072 0.20805357 0.1632585
-0.05839896 0.18377256 -0.15637599 -0.16334946 0.18764985 0.3859073 -0.067322746 0.078559816
0.02233589 -0.024695637 -0.0024196075 -0.41592035 0.21261153 0.1467562 0.13705838 0.17203927
0.30762967 0.50665027 0.19840907 -0.13001812 0.014776039 -0.05366283 -0.12779394 0.46535274
0.20243347 0.23322614 0.18559022 0.07742915 0.16402447 0.19709232 -0.05509443 0.025737816

net.0.bias f4 [128]
00000000: 740d 64be be52 af3d 2bfe e4bc 66c6 2cbd
00000010: c468 babd 1564 7a3d 0a75 c53c 5db0 25be
00000020: c226 b5bd 75a3 66bc 185a 4c3e 6031 963d
00000030: a66b 21be 3860 7fbd e821 39be 7c10 35be
00000040: 8015 313e ff0a 19bc 2f84 373e 8ac0 94bd
00000050: ab0f 213e 6217 543e 8943 863d 02de 0d3e
00000060: 8597 883d cf09 2cbd b49a 61bb 8aee 34be
00000070: 7618 5fbc d567 253d 6196 863d c4a4 47be
00000080: e7cb 4c3e c6d6 0fbe f0e8 543e 1de5 edbd
00000090: f28c 473d 71a1 a0bd 496b 443e 17cb 7e3d
000000a0: 7cbc 4cbd 8c53 63be 1d14 c8bc a1d8 d73d
000000b0: 8f0e e23d efb5 1c3e 7093 473e 026e 2dbd
000000c0: 06ec 3abe 68ac e33c 2cad efbd 87b9 6b3e
000000d0: a75c 35be c5a4 553e b76a 403e 72da 39be
000000e0: fc90 2abe f878 343e 98b7 a43d f748 9cbb
000000f0: b5bc fdbd a264 1fbd 133a 5d3e 24ce 11be
00000100: 2184 3a3e 24d7 d43d f1f7 c3bd 3172 5dbe
00000110: ace9 47be be43 5bbe 9495 93bd 3565 b3bd
00000120: 9d22 093d 8a26 473e a444 2b3e 3a64 61bd
00000130: 72f9 ef3d e0c0 023e 762d 00be 5478 7dbd
00000140: 0ed7 1ebe 27d9 61be 82c8 94bd 6962 4a3e
00000150: 4478 893d 5b3a 2ebe 7227 9d3d d97e 5ebd
00000160: 4d77 303e 47ef 533e b664 a33d bfce cb3d
00000170: c3d5 3bbd 7414 883d 7458 58be 7afd f03c
00000180: a9d5 20be b068 063d 8ac4 3abd a1ed 2c3d
00000190: aa0e 5e3e d160 a0bd b3be f8bd 3c54 27be
000001a0: 34a4 1fbe 88e0 0e3e 70d1 5cbe 527c 60bd
000001b0: 7abb 36be 67fd 393e 96ce 99bd df23 8ebd
000001c0: f578 c13d 1bb2 60be 0d00 3abe e24c 15be
000001d0: 2f1c 9dbd d6c6 15be 395d 5f3e a0d1 0cbe
000001e0: ab4e de3b 332e 97bd 5fdc 80bd c024 27be
000001f0: 1399 33bd 2649 4abd defd 1bbd 1698 49be
-0.22270757 0.08560704 -0.027953228 -0.042181395 -0.09102014 0.061130602 0.02410366 -0.16180559
-0.08845283 -0.014077057 0.19956243 0.07333636 -0.15763721 -0.06234762 -0.1807934 -0.1768207
0.17293358 -0.009341001 0.17921518 -0.072632864 0.15728633 0.20712045 0.0655585 0.1385422
0.06669525 -0.04200154 -0.0034424486 -0.1766912 -0.013616672 0.040382225 0.06571651 -0.19496447
0.19999658 -0.14046773 0.20791984 -0.116159655 0.0487184 -0.078432925 0.19181551 0.0622054
-0.04998444 -0.2219984 -0.024423653 0.105393656 0.11037933 0.15303777 0.19489837 -0.04234124
-0.18254098 0.02779217 -0.11702952 0.23019992 -0.17711125 0.20863636 0.18790708 -0.18149737
-0.1665687 0.17624271 0.0804283 -0.0047694403 -0.12389509 -0.03891433 0.21604185 -0.14238793
0.18214466 0.10392597 -0.095687754 -0.21625592 -0.19522732 -0.2141256 -0.07206264 -0.08759538
0.033480275 0.19448295 0.16725403 -0.055027224 0.117175 0.12768888 -0.12517342 -0.061882332
-0.15511724 -0.22055493 -0.07264806 0.19764103 0.06712392 -0.17014448 0.07673539 -0.05432019
0.1723301 0.20696746 0.079781935 0.09951543 -0.045858156 0.06644526 -0.21127492 0.029417742
-0.15706505 0.03281468 -0.04559759 0.042218808 0.21685281 -0.07830966 -0.12145748 -0.16340727
-0.15589982 0.1395284 -0.21564269 -0.05480606 -0.17844954 0.18163072 -0.07510106 -0.069404356
0.09446899 -0.21942942 -0.18164082 -0.1458011 -0.07671391 -0.14626631 0.21812905 -0.1375184
0.0067842803 -0.07381859 -0.062920325 -0.16322613 -0.043847155 -0.049386166 -0.038083903 -0.19686922

net.2.weight f4 [128, 128]
00000000: 5d91 953c d6d2 003c 3b49 f3bd 00b7 09bd
00000010: 3b6b ecbc df63 9cbd e49a c9bd 0807 e13c
00000020: 9132 793d 1353 c73c 3fcb 41bd fe49 8b3c
00000030: 19b6 7e3c d1f5 e1bd 7b53 5e3c beef adbc
00000040: 3534 a03d e752 283d 0d54 d73c 797e ad3a
00000050: 2be9 e43d 5c29 3f3d 98c6 fe3c 6114 b63b
00000060: ecfc 4238 6fc0 0a3d 56b9 143e 1687 a3bd
00000070: c7f3 2cbd 7cb1 2f3d a694 963d a2a0 463d
00000080: a242 d83d 1890 16bd 4779 02ba fa50 97bd
00000090: a847 b63c f821 fabd 5138 7a3d fe5f 12bc
000000a0: b4d2 0a3e 9506 ffbc fc6b 7fbd ea16 99bc
000000b0: 9ba5 89bd f4a5 83bd 5454 c2ba f1e4 97bd
000000c0: 11d2 943d 79a7 0dbe 265d 873d 9be1 813d
000000d0: baba 973d ddbc 68bc fb53 b5bd 13a8 c4bc
000000e0: fd57 893d a8ff 98bd ab97 f43b bf8f c4bd
000000f0: 7ae9 d93d 5a14 15be 538a c73d 271a 9439
00000100: 4f59 c9bd d55a c3bd 820f 2dbc b916 923d
00000110: 308b 093c b4a9 a03d 5ade 36bc 2ab8 d8ba
00000120: d773 1cbd 0152 4fbc d992 a7bc c450 533d
00000130: 3e9c 293c f83f 87bd 5f59 b5bb 9547 efbb
00000140: 6243 cc3c 0a4a 84bd fced babd 65c2 10bd
00000150: 6b00 ffbc f0c5 b0bd 1534 7bb9 2417 093d
00000160: 3b02 783b b734 20bc 9565 f8bc 5170 29bd
00000170: 0113 09bd 648a 053e e05d abba ef6e 973d
00000180: 1c47 99bc ad01 e23c e1f2 d93c 9434 9abb
00000190: fe36 be3a 084c e0bc ff06 f33d 1f96 723d
000001a0: f53a fe3d 6fe9 963d abb9 843d bef9 6a3c
000001b0: c78b 8bba 5434 813d ad77 87bd d82e 4e3d
000001c0: 2299 f63a aa84 dbbd d764 713c 4544 183b
000001d0: 2824 0cbc ecb8 af3d 72f0 b03d dce8 b2bd
000001e0: 9548 65bd 63f3 0fbc 0d34 58bd c6f1 c0bd
000001f0: 6557 063c 1d5e 21bc e761 2a3d 036d 943c
00000200: 1a78 88bc e475 6a3d 5936 76bd 3a76 063e
00000210: abb2 503d b25b 39bc b07c 183d b223 b1bd
00000220: 100d f93c 0211 cabd 2629 b83d eb99 6bbd
00000230: 7554 04bd ac8d 15bd 3b2a 23bd d0da d23d
00000240: c0df 8e3c 1f30 823d 65d7 bcbd 322f 4abd
00000250: 8665 0c3c f9f8 98bb 474a e33d ebfc 733d
00000260: 3a9b 82bb 887f 133d 419d 053e 01a7 e63c
00000270: dd75 13bd f593 263d 208a 323c b093 18bc
00000280: d9b2 783d 324d 7a3b 0e1b 823c e459 cd3c
00000290: 3008 ba3c f123 c33c 983c 643c f845 6abc
000002a0: aab5 fdbc ba7b 1fbd a96a a23d 41d2 5c3c
000002b0: bdd3 773c 4efb 0abd f67e 233b cb19 61bd
000002c0: c5a5 8a3d 79d3 2e3c b57f f4bc a8c9 04bd
000002d0: 93b7 cabd a2ba 43bd da0f 07bd 4d29 6c3c
000002e0: e9b8 a7bd 01d0 48bc 8efe 093d 5114 9a3c
000002f0: 14a5 353d 849a ddbb d1e9 d7bc 5112 d83c
00000300: 1a76 9a3d 0c1b 3dbd fcd4 243d e8c4 bf3d
00000310: 7ce9 afbc 720f 903b 7a08 0bbe b555 2dbc
00000320: 7db7 07be a85c 583d 655a 30bd 69f2 e53d
00000330: 8e23 a4bd effa bebd 78f0 e6bd 024e 89bc
00000340: 38d3 b8bd 92e1 85bd 8853 80bd 4da3 363d
00000350: 20cd c2bd c2f9 08bd 3d92 b03d 9f23 16bc
00000360: 6871 97bd a7b4 8cbd db48 95bc 6485 fdbd
00000370: 5143 d73c b468 053e 25ba dabc 8c7a 303d
00000380: 5291 233d 7933 e1bc cc5b 16be 0fc1 423d
00000390: 5e31 3fbc 40e5 9cbd 8436 9e3d 70b9 b3bb
000003a0: d41f c03d 344f 3bbd 0395 823d 9b9d c3bc
000003b0: 5df0 743d 55de 5bbd 7ffc bbbd 66ba 01bd
000003c0: 9b79 8e3d 7125 07bd 26a4 dd3d 8861 49bd
000003d0: eb67 39bd aac3 1d3d 7107 a1bd 2bfc 79bd
000003e0: 5684 b2bc 5dab 703d 5761 a23d 1f36 85bd
000003f0: 91cf 93bd a9ee f23d 4732 47bd 4175 1c3d
0.018257791 0.007862767 -0.11879202 -0.033621788 -0.028859725 -0.076362364 -0.09843996 0.027469173
0.06083924 0.024331605 -0.04731297 0.017003056 0.015546345 -0.11033214 0.013569708 -0.021232482
0.07822458 0.041094687 0.026285196 0.0013236544 0.11177286 0.046670303 0.031100556 0.0055566286
4.6488756e-05 0.033874925 0.14523825 -0.0798475 -0.04222467 0.04289387 0.07352571 0.048493035
0.10559584 -0.036758512 -0.0004977178 -0.07388492 0.022250965 -0.1221351 0.061088864 -0.008934019
0.1355694 -0.031131068 -0.06235884 -0.018687684 -0.0672104 -0.064281374 -0.0014826157 -0.07416714
0.072666295 -0.13833417 0.066095635 0.06341859 0.07408662 -0.014205185 -0.08853909 -0.024005925
0.067062356 -0.074706376 0.0074643693 -0.0959773 0.10640235 -0.14558545 0.0974318 0.00028248245
-0.098314874 -0.09538809 -0.010562779 0.0713324 0.008395001 0.07844868 -0.011161411 -0.0016534377
-0.03819641 -0.012653829 -0.020455765 0.051590696 0.010352192 -0.06603998 -0.0055343355 -0.0073022344
0.024934474 -0.06459434 -0.09127423 -0.03534164 -0.031128129 -0.086315036 -0.00023956627 0.033469334
0.0037843126 -0.009778193 -0.030321876 -0.04136688 -0.03346539 0.13041073 -0.0013074242 0.07394206
-0.018710665 0.02758869 0.026605071 -0.004705975 0.0014512239 -0.027380005 0.11866569 0.059225198
0.12413589 0.07368743 0.06480726 0.01434177 -0.0010646515 0.06308809 -0.06614623 0.050337642
0.0018813948 -0.10718663 0.014733515 0.0023234051 -0.008553542 0.08580193 0.08639611 -0.08735821
-0.055977423 -0.008786055 -0.052784014 -0.094211146 0.008199547 -0.0098490985 0.041597273 0.018118387
-0.016658831 0.057241336 -0.060110424 0.13131037 0.05095164 -0.011313366 0.037228286 -0.086493865
0.030401736 -0.09866525 0.089922234 -0.057519834 -0.032307107 -0.036512062 -0.039835196 0.102956414
0.017440677 0.063568346 -0.09220771 -0.049361415 0.008569127 -0.0046683517 0.11098152 0.059567373
-0.0039857896 0.036010295 0.13048269 0.028155806 -0.036001075 0.040668447 0.010897189 -0.009312555
0.060717437 0.0038192985 0.015882041 0.025067277 0.022708982 0.02382085 0.013930462 -0.014298908
-0.030970413 -0.038936354 0.079305 0.013477863 0.015126166 -0.03393107 0.00249475 -0.05495624
0.06769899 0.010670536 -0.029846052 -0.032418877 -0.09898295 -0.04778541 -0.0329741 0.014414144
-0.08189566 -0.012256623 0.033690028 0.018808516 0.044346884 -0.0067628045 -0.02635661 0.026375921
0.07542057 -0.046168372 0.04024218 0.09363729 -0.021473639 0.0043963725 -0.13577452 -0.010579516
-0.13253589 0.05282274 -0.043054957 0.11227877 -0.08014594 -0.093252055 -0.112763345 -0.01676083
-0.09024662 -0.06537165 -0.06265932 0.04458933 -0.09511781 -0.033441313 0.08621643 -0.009163766
-0.073946774 -0.06870394 -0.018223217 -0.12378958 0.026277216 0.13028222 -0.026700089 0.04308562
0.03993351 -0.027490364 -0.14683455 0.047547396 -0.011669485 -0.076609135 0.07725242 -0.0054847524
0.09381071 -0.04572983 0.06376078 -0.023878863 0.05979954 -0.05367883 -0.09179019 -0.031671904
0.06956788 -0.03299469 0.108223245 -0.04916528 -0.04526512 0.038516678 -0.078627475 -0.0610315
-0.021791618 0.058757175 0.07928722 -0.065044634 -0.072173245 0.11861927 -0.048631933 0.03819776

net.2.bias f4 [128]
00000000: caa6 e7bc de4a 79bd 329b b83d ceeb 5cbc
00000010: 070d 013d ee02 2e3d 5c90 77bd b433 bc3c
00000020: a89a 3d3d 613f 5f3d 6ae0 15bd ed62 ab3d
00000030: 1c51 85bd ef0e b5bd 4cac 9cbb ce46 2a3d
00000040: 66f8 9b3d 8f8a b43d bd8f 893d 502d 933d
00000050: 38f1 093d 02a3 923c 110e 0fbd 82ea aebc
00000060: 5d19 bcbd 6210 ef3c 85ce 93bd df72 613d
00000070: c947 5abd 50ee 85ba d30d c8bb 2c22 b9bc
00000080: 925c 9dbd a3d1 aa3d 0b3f 5ebc fa04 413c
00000090: f1a3 3f3d e8b3 9bbb 92fe 3e3d 4328 b93c
000000a0: 88a4 48bd cb8f 7b3d 956d 8b3d 1c44 9e3d
000000b0: 14c6 4f3d 8583 693d 984e 903d 6463 5c3b
000000c0: 10cc da3c a650 50bb 7d6c 473d 5a1f 4ebc
000000d0: cada d23c 8a02 32bd ecd2 72bd d831 8d3b
000000e0: 18b0 b03d 5fb3 d43b 4433 903d 77af 9e3d
000000f0: 2420 91bd b2bf 953d b8d1 9fbd bb30 403b
00000100: d36c 7dbd 848a 933d 395c 7d3d 434b 0c3c
00000110: bd7b 973d fe22 383d d2e7 9ebc 86b8 98bd
00000120: d167 793d 3323 2abd f1c4 77bd eb81 8b3d
00000130: c016 953d e118 b8bd acd2 80bd e986 a9bb
00000140: af7c 9b3c 7676 a13d 469c e93c b25b 07bd
00000150: 4b0a 643d 386b 013d 8186 afbd 88cd 57bc
00000160: 59f3 4c3d 3a60 f9bc eb6a 8fbd 2b9f a6bd
00000170: 8e90 f2ba c76b 42bc f561 7cbd fcde 87bd
00000180: 32d2 b43d d660 6c3d c624 233d 72ca b93d
00000190: 33eb c5bb 3504 703d a809 7f3d 3421 1eba
000001a0: 2eb7 2abd 3f3d 77bc 4498 503d 1ff4 153c
000001b0: 616c 9dbd 8e43 81bd 935c 5b3d 9b02 113d
000001c0: eaf6 2cbd 2f36 423d 467f 313d 7f11 ca3c
000001d0: 07c3 b0bd 02e3 bebb 5df4 3bbc cdff 6fbd
000001e0: f275 1c3d 649e 57bd 61d5 92bd 700a 9fbc
000001f0: 94b9 a2bd 3d39 923d e13c 9e3d f43f 0dbd
-0.028277773 -0.060862415 0.09013976 -0.013483955 0.031506564 0.042483263 -0.060440406 0.022973873
0.04629007 0.054503802 -0.03659097 0.08368478 -0.06509611 -0.08840739 -0.0047812816 0.04157143
0.076157376 0.088154905 0.06716869 0.07186377 0.03367731 0.017899994 -0.034925524 -0.021352056
-0.09184525 0.029182617 -0.07217125 0.05504119 -0.053291116 -0.0010218117 -0.0061051636 -0.022599302
-0.07683672 0.08340766 -0.013564835 0.011780972 0.046787206 -0.004751671 0.046629496 0.022602206
-0.048985034 0.06141643 0.068080105 0.077278346 0.05072601 0.057010192 0.070462406 0.0033628577
0.026708633 -0.0031786351 0.048687447 -0.012580717 0.025739092 -0.043459453 -0.059283182 0.0043089204
0.08627337 0.0064911093 0.07041028 0.07748311 -0.070862085 0.073119536 -0.078036726 0.002932592
-0.06187136 0.07204154 0.06185553 0.008562866 0.07396648 0.044955246 -0.01939765 -0.0745707
0.060890023 -0.041537475 -0.060490552 0.06811889 0.0727973 -0.0898912 -0.062901825 -0.0051735532
0.018980352 0.07883923 0.0285169 -0.03304643 0.05567388 0.031596392 -0.085705765 -0.013171561
0.050036762 -0.030441392 -0.07002815 -0.08135828 -0.0018506215 -0.011866516 -0.061616857 -0.06634328
0.08829154 0.057709537 0.03982999 0.090718165 -0.006040001 0.058597762 0.06226507 -0.00060321693
-0.0416786 -0.015090286 0.05092646 0.009152441 -0.07686687 -0.06311713 0.053555083 0.035402875
-0.042227663 0.047414955 0.043334268 0.024666546 -0.086309485 -0.0058254013 -0.011471835 -0.05859356
0.03819842 -0.052641287 -0.07169605 -0.019414157 -0.079455525 0.071398236 0.077264555 -0.03448482

net.4.weight f4 [3, 128]
00000000: 23b6 40be 37e9 02be fbed 8c3e cd62 dfbd
00000010: 5e47 10bd b3d0 eebd 75f6 3e3d 33d8 04be
00000020: 9867 a53d 9845 ab3b 89da 22be 42d9 0d3e
00000030: c7e0 fe3d 5bd7 2dbe 749b 663c 6e8b 26be
00000040: a2f7 9d3d 275c 5ebc 8042 c3bd 13d6 dc3d
00000050: fc7d c93d 0a63 453d ba95 18be 0a35 bdbd
00000060: d989 2dbe d056 263e f08a 8e3e 44ed eebd
00000070: 5031 6d3e 409e ec3d 5d9e 493e 835f 25be
00000080: 8b88 08be 603d 053e 2aa4 6abd 3101 d7bd
00000090: b636 2bbe 4820 6dbd 1322 e03d 5235 693d
000000a0: 1f18 37bc 5f02 cb3d 707e 17be e74c 0f3e
000000b0: e564 ed3d bcce 45be 0875 16be f7b9 bdbd
000000c0: 5729 643e 84bc 8cbe 5f02 b1bc 786d 2abe
000000d0: a166 1fbe e37c 7b3e 1a11 ff3d c717 db3d
000000e0: 2eff 4a3e 1a8d 76bc a6c1 8a3d 521e 223d
000000f0: e8dd f43d 007a fa3d 57ed f5bd 21f5 cdbd
00000100: 80fa 423d 962e 24bd d617 c53d 7bd1 afbd
00000110: b51f f43d 4d1d 18be 7d15 19be f1a8 273d
00000120: e0bc b1bb a853 703d 8351 293e 8e16 62be
00000130: ebba 983c 4f5c 123e 1939 343d 336f 9f3d
00000140: b8d0 58bc 972c e6bd 2e1d ac3d 5121 4cbe
00000150: bb01 643d c39e 573e b68f 55be aab5 b43d
00000160: dce0 9a3d e400 36be 9b1e fd3d b2f7 f0bd
00000170: 10f3 293e 394a 1a3e a095 e43d e0a1 7c3c
00000180: bc41 253e 44d2 843d 280f 4bbd 95d9 af3c
00000190: 8961 1c3e ee9d 88bd eb68 34be 5121 2bbe
000001a0: bf3a 88be 454a f1bd 9fd2 e3bd 55b3 a73d
000001b0: 932e bd3d 43dd 1b3d 8851 ee3d 428d cb3d
000001c0: 0c4d dc3d 1410 6f3d 5caf 5c3e 1b45 a7bd
000001d0: 7d56 2fbe ca01 ea3d 1ff4 18bc d108 4dbe
000001e0: 5e57 78bd f098 923c 0803 65be 42ee c7bb
000001f0: 31ad 19be 09f6 e13c 45f5 f23d 5f47 0fbe
00000200: 4f85 213e 5b3b 2dbd 5c5f 943d 626f d5bd
00000210: 8138 a43d 40b1 5dbe 4239 92bd 9d01 ebbd
00000220: 6e10 e9bd cbe8 a03d 8e6d 50bd bb63 9dbd
00000230: 0cc4 88bc 34e7 de3d 5eed db3d f046 d33d
00000240: da63 92bd 9d6f 303e 4d57 4fbb e345 ba3d
00000250: 0ec2 c03d fa45 753d 9702 3e3d e27e e43d
00000260: 8a06 41be 9f74 29bd 2ffe a2bc 653c 01be
00000270: 965c a03d 9c67 90bd 1602 013e d593 1b3d
00000280: de12 a4bc 72a7 84bd 096a 3bbe 89cf 0ebe
00000290: c018 193e 441b 053e 4da8 853d 87ab 7dbc
000002a0: b8fc 91bd 70b9 ccbd 1a1f dbbd c905 7f3e
000002b0: cfd7 2cbe 1b64 15bd 70a4 22bc 5c44 16bd
000002c0: 1a68 9fbc 5657 c5bd 7673 213e 75b9 c3bd
000002d0: a18e 80bd 1908 313e 0dd1 573d f26a 08be
000002e0: a4af 19bd 6fff 203e abb9 063e 600c 2dbd
000002f0: ab1a 9cbc f735 bc3d 05a7 c63d 32d3 073d
00000300: 4f74 933e db03 c0bc 6acd 6fbd 253a 4e3e
00000310: 9596 e0bd 0136 31be 1926 eb3d 834d 173e
00000320: 5e9e f4bd 8c06 303e 75e3 d3bd 8bce 25bd
00000330: 341b 00bd 7d22 753d 7bab 4fbd acec 2dbe
00000340: e7bc bd3d 8ea6 263e 355a fcbd 483c a13b
00000350: 5f07 123e 1d74 b63d 905c b3bd da4c db3c
00000360: ffb9 bbbc a6d8 2d3e daca 383e 5dd6 9b3c
00000370: ab89 c1bc af86 763c 1e40 c13d ca6d 673d
00000380: 0586 d1bd 3a64 cebc 752b f5bd 6d3d 23bc
00000390: 5191 0e3e 3573 b6bd b219 20be 24c5 c03d
000003a0: 8138 023e 0cbe 74bd 72f0 0a3e 280c 343e
000003b0: c239 7e3d 3864 67bd 7405 c5bd 2999 0cbd
000003c0: 3fde 36bd efe1 e43d 99af a1bd 485d b6bd
000003d0: ba90 40bd eb46 52bd 952d 7d3e 0370 72be
000003e0: b18e 36be edca bcbc f597 57ba a3ed 77bd
000003f0: 7fda c03d 07b9 763e 797c 923c 2b7f 913d
-0.1881948 -0.12784277 0.27525315 -0.10907517 -0.03522431 -0.116609 0.04662176 -0.12973098
0.080763996 0.005226802 -0.15903677 0.13852409 0.124452166 -0.16976683 0.014075149 -0.16264126
0.07713248 -0.0135717755 -0.09534168 0.10783019 0.09838483 0.048190154 -0.14900866 -0.09238632
-0.16947116 0.16244054 0.27840376 -0.116663486 0.23163342 0.11553621 0.19689317 -0.16149716
-0.13333337 0.13011694 -0.057285465 -0.10498274 -0.1672009 -0.057892114 0.10943999 0.056935616
-0.0111751845 0.099125616 -0.14794326 0.1399418 0.1159151 -0.19317144 -0.14693081 -0.092639856
0.22281395 -0.27487576 -0.021607576 -0.16643322 -0.15566494 0.24559359 0.12454434 0.106978945
0.19823906 -0.01504829 0.06775217 0.039579697 0.11956388 0.12230301 -0.120081596 -0.1005652
0.047602177 -0.04008349 0.09623687 -0.08584877 0.1192011 -0.14854927 -0.14949603 0.0409326
-0.005424127 0.05867353 0.16535 -0.22078916 0.018643817 0.14293025 0.043999765 0.077848814
-0.013233356 -0.112389736 0.08404003 -0.19934584 0.055665713 0.21056657 -0.20855603 0.08823712
0.0756242 -0.17773777 0.12359353 -0.11765994 0.16596627 0.15067376 0.11161351 0.015419453
0.16138357 0.064854175 -0.049575 0.021466056 0.15271582 -0.06670748 -0.17618148 -0.16711928
-0.2660732 -0.11781744 -0.11124157 0.08188502 0.09237399 0.03805281 0.116366446 0.09939052
0.10756883 0.058364943 0.2155127 -0.08167478 -0.17122836 0.114261225 -0.009335547 -0.20022894
-0.060630195 0.017895192 -0.22364438 -0.0061014006 -0.15007474 0.027583139 0.11863188 -0.1399207
0.1577351 -0.042292934 0.07244751 -0.10421635 0.0801859 -0.21649647 -0.07139827 -0.11474917
-0.11380087 0.07856902 -0.05088573 -0.07685038 -0.016695045 0.10883942 0.107386336 0.10316265
-0.071479514 0.17230077 -0.0031637729 0.09095361 0.09412013 0.059881188 0.04638919 0.111570135
-0.1885015 -0.041370984 -0.019896595 -0.12620695 0.07830159 -0.07051012 0.12598452 0.03798278
-0.020028528 -0.0647725 -0.18302168 -0.13946356 0.14950848 0.12998682 0.065262415 -0.01548279
-0.071282804 -0.09996307 -0.106992915 0.2490455 -0.168792 -0.03647242 -0.0099269 -0.036686286
-0.01945882 -0.09635799 0.15766701 -0.095568575 -0.06277204 0.17288245 0.0526896 -0.13322046
-0.03752102 0.1572244 0.13156764 -0.04224813 -0.019055685 0.091899805 0.09699825 0.033160396
0.28799674 -0.023439338 -0.058545507 0.20139368 -0.10966221 -0.17305757 0.11481876 0.14775662
-0.11944269 0.17189997 -0.10346118 -0.040480178 -0.031275943 0.059847344 -0.050700646 -0.16984814
0.09264546 0.16274473 -0.12321893 0.004920516 0.14260624 0.089088656 -0.08757889 0.026770044
-0.022915838 0.16977176 0.18046132 0.019023115 -0.023625216 0.0150467595 0.094360575 0.056501187
-0.1023064 -0.025194276 -0.119711794 -0.0099633755 0.13922621 -0.08908693 -0.15634802 0.094126016
0.12716867 -0.059751555 0.13568285 0.17582762 0.0620668 -0.05649206 -0.09620181 -0.034325752
-0.044645544 0.11175906 -0.07894821 -0.08904511 -0.047013022 -0.051337164 0.2472442 -0.23675542
-0.1782787 -0.023045981 -0.00082242425 -0.060529362 0.09416675 0.2409402 0.017881619 0.071043335

net.4.bias f4 [3]
00000000: afe8 573c d7ba 873b ff6e c93c
0.013178035 0.004142146 0.02458906

net.0.weight f4 [128, 18]
00000000: 7706 823d f81c f7bc 8a50 673d c02f 68bc
00000010: af80 a9bd 73a5 703e f973 973d 7d18 94bd
00000020: 885e 2e3c ecd9 92bc b5a0 75bd 2475 5c3e
00000030: a80d 9dbe b276 14be c270 70bd e451 15be
00000040: e55b d0bb 2b37 4abd d58a 92bd a45e c3bd
00000050: 0798 1bbc f348 08be 4df2 8a38 3ff3 2fbe
00000060: 2377 1bbe c97b 463d 31eb 29bd 5c6a 043e
00000070: 8337 18be 99a6 12be a89d 573d 317a d3bd
00000080: b04a 9fbd 7378 423e d368 c8bd 75b9 e8bd
00000090: 18b2 1cbe e239 4f3e caae dd3c 6d13 333e
000000a0: 3ec5 1b3e 272a 23be 895f c63d 55d0 1b3e
000000b0: de06 67bc 4295 8b3d 8528 633e dccf d0bb
000000c0: 129c 39be efe8 01bd a175 2ab9 3778 5f3e
000000d0: f9e8 7fbb 5f12 053d 68b9 44be 8cd4 f03c
000000e0: 9403 a3bd 03e9 e13d 896c 9739 2ede edbd
000000f0: 9a27 b23d 53cb 47be cb16 9bbd 8c16 49be
00000100: 0f35 893d b091 89bd 2428 ffbd 4409 1bbe
00000110: 3f86 c73c bf0b 87bd 9499 bdbd 22d6 093d
00000120: 703a 64be 737a c0bd ce45 d8bd dc81 d93d
00000130: f2d2 ccbd 90e1 05be 4225 d43d c4ba 4cbe
00000140: 0305 983b d733 263e f428 ad3d 12db 573e
00000150: 074e 063e ffeb 12be 1314 e03c 7b89 663e
00000160: 7d65 6bbe f067 163d 8126 693e 3b9b 0ebe
00000170: 35c3 963d 3672 9f3b e321 cbbd d96e 35be
00000180: 2dec 61bd 380e fd3d 1237 333c d6ba f9bd
00000190: b99a 2a3e 338b d23d fa2e 473d 8593 b83d
000001a0: e6ad b3bd 6ea5 3dbe 8a0f 723d c536 2d3e
000001b0: 1ea9 803e cd1d 7a3c c705 0d3c 4649 043e
000001c0: 1f31 3c3e 6b06 3dbe e448 013d ebbc e23d
000001d0: f055 11bd 0246 ee3d edd4 2dbe e5a0 d73d
000001e0: f37e a6bc 98e6 31be a642 183c 436e 2c3d
000001f0: 46a8 643e f037 75bd a519 c8bc abf5 d23d
00000200: 3c0a 293d d6da 27be cc47 11be eb36 6fbe
00000210: 13b1 aabd 86a3 cfbd c3d0 e9bc ac7e 3b3e
00000220: 4b71 5b3e b6cb ccbd 226d 323e a66a 043e
00000230: fd2f aa3d eda0 a63d 1f22 0a3e de72 88bd
00000240: 4942 173e 209c fdbd 59b7 0f3b ae14 c13d
00000250: a713 36be 4414 10be b8ee 5a3d ef22 463e
00000260: 8b15 49bd bdec 2dbe e352 d43c 1070 5ebe
00000270: 07ed 053e 0674 033e 47af df3c dcdd c5bd
00000280: 49d2 e23d 4d34 e83d 1567 0ebe d5ca 50be
00000290: e1bd 703d fccf 8fbb 1032 be3d 72e0 bbbd
000002a0: ec89 91be f45d 913d 0392 1f3d 8260 6bbe
000002b0: aaee b53d 1b81 9f3d 0293 b5bd 0b2d 21be
000002c0: dbcb a8bd 25a3 6ebe 9abb 003e 2459 01be
000002d0: be2f c5bd db73 cdbd b7ea a93b cdf3 c1bc
000002e0: 327c 6e3e 9d80 1cbe 516d 6d3c 0dee b33b
000002f0: 1c36 36bc db76 33be 579d 103d 37e9 cb3b
00000300: 7a92 07bc 543b e43c 4a83 8d3d 65d8 f5bc
00000310: 5350 9dbd ff27 63be 7fb5 c8bb 00d1 0a3e
00000320: a4bd 86bd f8af 4b3e ea73 6cbe 4cb5 42be
00000330: e59d 10be 09a5 453e e3f9 0dbb d4f3 c7bd
00000340: 2546 1abe 02f3 19bd 066f 8e3d d198 f7bd
00000350: 7f6c 19bd 37ca 023d 8f85 26be 82a5 503e
00000360: a01e 6bbd 0cc2 3fbe e8f3 8b3b e38a 233e
00000370: dbcc 23be c630 6f3e 8eec 183d 45b2 1a3e
00000380: 77ea 15bd ccb8 e93d de55 2dbe 30ee 6dbe
00000390: b08d 56bd eca5 4ebe b3fc c2bd 218d e7bd
000003a0: c447 433e ee8d 0e3e cd5c d43d 539d 4d3e
000003b0: 00b1 a23d c96f 9b3d 18f3 ce3d b565 1d3e
000003c0: bd3b 023e b816 5abd 3bbf 85bd 5004 dcbd
000003d0: af1b bebd 5f1a 7b3c 3b1a 09be 3adc c3bd
000003e0: f8c8 b83d 550b 103e d3dc dfbd bbdb 5dbd
000003f0: 1897 2fbd 6b64 d5bd d01b ec3c 459d e43d
0.06348889 -0.03016518 0.056473292 -0.014171541 -0.082764976 0.23500614 0.07395167 -0.07231233
0.010642655 -0.017926179 -0.059967715 0.2152906 -0.3067448 -0.14498404 -0.058701284 -0.1458202
-0.006358611 -0.04936902 -0.07155386 -0.09539536 -0.009496695 -0.13309078 6.625485e-05 -0.17182635
-0.15182166 0.048457894 -0.04148406 0.12931198 -0.14864926 -0.14321364 0.052640587 -0.103260405
-0.077779174 0.1899126 -0.09785619 -0.11363498 -0.15302312 0.20236924 0.027060885 0.17487879
0.1521196 -0.15934049 0.09686191 0.15216191 -0.014100758 0.06815578 0.22183426 -0.006372435
-0.18125942 -0.031716283 -0.00016256284 0.21823202 -0.0039048775 0.032488223 -0.19211352 0.029398225
-0.07959667 0.110307716 0.0002888183 -0.11614643 0.0869896 -0.19511156 -0.07572707 -0.19637507
0.06699573 -0.06717241 -0.12458828 -0.15140253 0.024356006 -0.06594037 -0.09257808 0.03365148
-0.22287917 -0.09398355 -0.10560189 0.10620472 -0.10001172 -0.13074327 0.10358669 -0.1999312
0.0046392693 0.16230713 0.08455077 0.21079662 0.13115703 -0.14347838 0.027353322 0.22513382
-0.22987933 0.036720216 0.22768594 -0.13926403 0.073614515 0.00486591 -0.09918573 -0.17718066
-0.055156875 0.12356228 0.010938423 -0.12193839 0.16660585 0.102804564 0.048628785 0.09012512
-0.08773403 -0.18520138 0.05909685 0.16915424 0.25129026 0.015265894 0.008607334 0.12918577
0.18378113 -0.1845948 0.031563655 0.110711895 -0.035482347 0.11634447 -0.16975756 0.10528735
-0.020324206 -0.17373121 0.009293234 0.04209734 0.22329816 -0.0598678 -0.02442629 0.10300764
0.041269526 -0.16392073 -0.14187545 -0.23360793 -0.083345555 -0.101386115 -0.028541928 0.1831004
0.21429937 -0.09999792 0.17424443 0.12931308 0.08309934 0.08136163 0.13489579 -0.06662534
0.1477138 -0.12383294 0.0021929352 0.094277725 -0.17780934 -0.1407023 0.053450316 0.19349264
-0.04909281 -0.1698484 0.02591843 -0.21722436 0.130787 0.12837228 0.027305258 -0.09661457
0.11075265 0.113381006 -0.1390651 -0.20389874 0.058774833 -0.0043888073 0.092868924 -0.09173669
-0.2842554 0.07097998 0.038957607 -0.22986034 0.08883412 0.07788297 -0.0886593 -0.15739839
-0.08242007 -0.23304422 0.12571564 -0.1263166 -0.09628247 -0.10031863 0.005185451 -0.023675824
0.23289564 -0.15283437 0.014491395 0.0054910243 -0.011121299 -0.17525809 0.0353063 0.0062228697
-0.008274669 0.027860321 0.06909807 -0.030010412 -0.07681336 -0.22183226 -0.0061251516 0.1355629
-0.0657914 0.19891346 -0.23091093 -0.19014472 -0.14122732 0.19301237 -0.0021663837 -0.097633034
-0.1506582 -0.037585266 0.0695477 -0.12089694 -0.037456986 0.03193113 -0.16261886 0.20375636
-0.057402253 -0.18726367 0.0042710193 0.1597095 -0.15996115 0.2335845 0.03733497 0.15107067
-0.036600556 0.114122 -0.16927287 -0.23235393 -0.052381217 -0.20180482 -0.09520855 -0.11306215
0.19070345 0.1392133 0.10369263 0.20079546 0.07943916 0.07589681 0.1010496 0.1537083
0.12718101 -0.053244323 -0.06530615 -0.1074301 -0.09282624 0.015326112 -0.13388912 -0.09563489
0.09022707 0.14066823 -0.10930791 -0.05416463 -0.042868704 -0.10419544 0.028821856 0.11162809

net.0.bias f4 [128]
00000000: 69e0 9ebe f4b4 ad3e 7361 5bbe 2eaf 92be
00000010: d1a6 68be 1630 a43e a92e b73e 62c4 c53e
00000020: 1eb6 a03e cc58 50be e25d 873e c2bb 823e
00000030: 546d 5ebe 36a0 80be f4f6 72be 5152 c33e
00000040: e8b9 a73e b224 973e 5f64 c6be 2907 a2be
00000050: 633c a23e 347f aebe cf46 77be faa8 c5be
00000060: 7825 a5be 5ed7 b6be 7939 883e 360a 953e
00000070: 631b a03e 033f adbe bc41 ae3e 73f2 643e
00000080: 4a3e a6be 6309 c3be 4c07 783e bb5a 87be
00000090: 6063 9d3e 7be9 a93e 1b5b bfbe aaa9 92be
000000a0: 16a4 73be 6da1 59be 0a7a c43e f571 bd3e
000000b0: 276c 87be e825 a3be 1c0c 58be f649 bb3e
000000c0: 175c bf3e c608 813e 527d ab3e 4b11 a0be
000000d0: bac7 49be be90 97be 6fde abbe a7b8 ca3e
000000e0: e36d c5be 42e6 933e d4b0 ad3e 9ff7 8dbe
000000f0: 6eaf 71be f700 aebe 434a bf3e 42a6 703e
00000100: f99f 7fbe cc16 6abe 83ee 8d3e a960 74be
00000110: f3c0 c2be 5f55 993e d4de c93e 98db a2be
00000120: 08dd 7ebe 3f32 9fbe 4fb5 c03e 7366 be3e
00000130: 1223 97be 4766 8b3e b89e 71be b631 6cbe
00000140: fcf2 b1be 566e bc3e 8a76 83be 0f91 803e
00000150: 3775 863e 39a8 bb3e 1862 803e 19df 8ebe
00000160: 6f35 c4be c14a 71be aa9a 93be 68ae 85be
00000170: 3c0c cd3e 1779 b5be bcae 403e e81d 7cbe
00000180: 50b1 adbe a9d2 623e 90fb bdbe 64cd 973e
00000190: 2ad9 913e f3a3 a53e c357 9ebe 3fc6 6bbe
000001a0: 4046 9fbe d49b 9d3e 49a4 85be bb40 83be
000001b0: a1dc b2be 0eab 753e ad4b b7be eb72 b1be
000001c0: 1b19 9fbe d555 b1be 43f4 863e c97b c0be
000001d0: 60a3 b83e b16a 553e f350 c23e 327a 933e
000001e0: 143b 7a3e fe86 cbbe 8197 9abe ce6f 993e
000001f0: 3661 b43e 67db 833e b2e5 b8be e42c 82be
-0.31030586 0.3392712 -0.21423893 -0.28649276 -0.22719885 0.32067937 0.35777786 0.3862639
0.31388944 -0.20346373 0.26438814 0.25533873 -0.21721393 -0.2512223 -0.23727018 0.3814874
0.32759023 0.29520184 -0.38748452 -0.31646088 0.31686696 -0.34081423 -0.24148105 -0.3860548
-0.3225515 -0.35711187 0.26606348 0.29109353 0.31270894 -0.33837137 0.34034526 0.22358112
-0.32469398 -0.380931 0.24221534 -0.2643641 0.3073988 0.33185944 -0.37374195 -0.28645068
-0.23793063 -0.21252985 0.38374358 0.37001005 -0.264497 -0.31864858 -0.2109837 0.36579865
0.37374946 0.25202006 0.3349405 -0.31263193 -0.19705096 -0.29602617 -0.3356814 0.39594004
-0.385604 0.2888661 0.33923972 -0.27727982 -0.23602077 -0.3398511 0.37361345 0.23500922
-0.24963368 -0.22860259 0.27721033 -0.23864998 -0.38037834 0.29947945 0.39427817 -0.31808162
-0.24889004 -0.31093022 0.37638327 0.37187538 -0.29518944 0.2722647 -0.23595703 -0.23065838
-0.34755695 0.3680293 -0.25676376 0.2511067 0.26261303 0.3665178 0.2507484 -0.27904585
-0.38322017 -0.23563673 -0.28828937 -0.26109624 0.40048397 -0.35443947 0.18816656 -0.24620783
-0.3392434 0.22150673 -0.3710599 0.29648888 0.28485996 0.32351646 -0.30926332 -0.23024844
-0.31108284 0.3078295 -0.26101902 -0.25635323 -0.34933951 0.23991033 -0.35799924 -0.34657988
-0.3107384 -0.34635797 0.26358232 -0.3759444 0.36062145 0.20841481 0.37952384 0.28804165
0.24436599 -0.39751428 -0.30193713 0.29968113 0.35230416 0.25753328 -0.36112744 -0.25424874

net.2.weight f4 [128, 128]
00000000: df22 c93c a889 e2bd 3bc8 723e 09e5 053e
00000010: 1ad6 723d e37c 12bc a38e ccbd f335 ddbd
00000020: 5002 6cbd 9ca1 043e 864e 88bd 1d5d 0cbe
00000030: dc19 6a3d 2563 ee3d 5b6f d13d 03e6 80bb
00000040: 0f53 c0bd 4121 2cbe 8b8a 9f3d 55b1 403c
00000050: 2c68 9ebd 9b3e 0f3e f86f 2e3e f0ca 1d3e
00000060: caad d23c 5751 7f3d bc78 f1bd 5929 07bd
00000070: ea46 f0bd 3f77 de3c eec0 20bc c45e 2cbe
00000080: b465 283e 36cb 3f3c d7ae 39be 6523 a43d
00000090: d6e7 93bd 0cf5 29be 9486 4c3a c7f7 9e3d
000000a0: e102 7e3e 98a1 053e 55ce aebb f4ec fbbd
000000b0: e6fa 2a3e c7bc 7e3d 8bc5 f23d 2ba2 c7bc
000000c0: 35f4 b3bd 06c6 8bbd ea5d 113a 8e33 213e
000000d0: 02f6 663e 4d7e de3d 653e 1f3e 5235 f9bd
000000e0: c1d8 c83d 4919 f2bd 050e 92bd b5c5 343e
000000f0: 9ea9 623e 97ff 2e3e e1fe f4bd dfc4 45be
00000100: c8a3 4c3e 0fe7 333e 5b02 07be 884e 183e
00000110: 6a95 233e 9956 13be 64ae 04bd b405 0a3e
00000120: 2907 1f3e 735c f13d 25bc 0abd 250a 90bd
00000130: 123b 433d 7ad9 14be 2e53 9c3d 8b0b 1e3e
00000140: 8a02 303e 7629 dbbc ac80 513d 12f6 45bd
00000150: 1cc7 cbbd c7e8 a5bd 2119 22be 313b 013d
00000160: ea2c 683d a731 673e 404c 073e b084 373e
00000170: 97a6 0cbe 81ff 923d 39e3 70be 6497 453e
00000180: d32f 1d3d 21ef 46be 6a44 213e f0e0 cfbd
00000190: 3d79 f2bd 11b9 2fbe 204a 373e 42a5 543e
000001a0: e247 133e f9d2 24be 44c5 1e3e 4f16 583d
000001b0: 2808 b73c 8e93 7abd bf4f 613b a9c3 e53d
000001c0: 911b f23d 0c4e 173e 2697 3ebe 84b5 043e
000001d0: 8cf1 2ebe 154a a2bd 6754 c2bd f234 2bbd
000001e0: 4141 0fbe 4a67 233e ba50 0f3e fd71 66bd
000001f0: af5b c6bd fda8 f9bd d580 0d3e 1e60 593d
00000200: 5779 18be 866f 413e c95a 85be aca8 43be
00000210: 5c52 b8bd 1f61 3c3d 848d e83d 9f91 dd3d
00000220: 8072 f93d 664f 6ebe 82b4 553e c205 d43d
00000230: 7ec4 dbbd facd 60be d0dd febd 7485 2e3e
00000240: d52d 223e 0b45 523e 7a03 04be c3ed 08be
00000250: 30cb 263e 310f 13be 25d9 09be 3f57 a9bd
00000260: 91e3 21be fae3 87bd 83d8 d83d d92a 833d
00000270: 5e25 a53d 09e6 e2bd 05ca 4b3d 5741 7e3e
00000280: c911 2dbe 8f18 37be 5d11 083e 192a 0ebe
00000290: cccf 9e3d 13a6 c33d 9b2a 37be 1887 4dbe
000002a0: f898 54be c921 73be 2d42 183e 82e4 463e
000002b0: 30ca 02be 82d7 14bd 1323 d5bd 150f 0e3e
000002c0: 3adc 063d 792c 273e 7798 f13d 3a5b 33be
000002d0: 0c1b 06be 3c6c 15bd f9e1 fcbd bdff 3e3d
000002e0: 65a1 8abd 31b4 1b3e 121e 513d 3b15 19be
000002f0: f408 32be e92e 19bd c8b2 d73d 7757 813e
00000300: d094 64be e0a8 fdbd aeef 513e 3615 19be
00000310: 16e0 fdbc 7131 443e 8c4d 0a3d eaa1 e7bd
00000320: 8074 27be 5add 05be 6a15 8e3d 7012 1e3d
00000330: cf79 24bd bc26 403e cfbb 2dbe 9770 3abe
00000340: e4f1 f0bd 59d4 d73c 3e00 dcbd 78b0 053e
00000350: ae45 b13d 7574 503e c200 073e 798e 1cbe
00000360: d62c 7bbd 9b9c 7dbe 55df 1cbe 6525 5cbe
00000370: 0bdf 623d 2a1c 68bd 6602 293e cb04 2abe
00000380: c32c 5fbd e01b 083e 4b4e 19be 546c 2f3e
00000390: 0354 173e d776 393e 3bd5 5fbd 64e3 19be
000003a0: 851d 2ebe 6fa3 3a3e 1f50 b3bd bf4e 39be
000003b0: 9390 79bd 4b17 673e cd36 2ebe f185 2fbe
000003c0: 088e f2bd 97b6 9fbd 9577 db3d caef cfbd
000003d0: 42ae 973d 12d4 803d 0706 b03d 3354 413d
000003e0: 9d0f fe3d de35 3fbe 380b 1dbe 7221 1c3e
000003f0: 1a6f 133e 975e c73d 88e7 16be 8b8a 2ebe
0.02455276 -0.11061412 0.23709194 0.13075651 0.059286214 -0.008940908 -0.09988143 -0.108013056
-0.057619393 0.12952274 -0.06655602 -0.13707395 0.057153568 0.11640004 0.102263175 -0.0039336695
-0.09390842 -0.1680956 0.07790097 0.011761029 -0.07734713 0.13988726 0.170349 0.15409446
0.025717635 0.06233343 -0.117906064 -0.032998417 -0.11732276 0.02715647 -0.009811623 -0.16833025
0.16445047 0.011706164 -0.18133102 0.080145635 -0.072219536 -0.16597384 0.0007802036 0.077621035
0.24805786 0.13049924 -0.0053346553 -0.123010546 0.16697273 0.06219175 0.118540846 -0.02436932
-0.08786813 -0.06824879 0.00055453053 0.15742323 0.22554782 0.10863934 0.15551145 -0.12168373
0.098069675 -0.11821229 -0.0713158 0.17653544 0.22135016 0.17089687 -0.11962677 -0.19313382
0.19984353 0.1756861 -0.13184492 0.14873707 0.15974966 -0.14388503 -0.032392874 0.13478738
0.15530075 0.117852114 -0.033870835 -0.07033185 0.047663756 -0.14536086 0.07633053 0.15434091
0.17188469 -0.026753169 0.0511481 -0.048330374 -0.099500865 -0.081010394 -0.15829898 0.03155059
0.05668346 0.22577535 0.13212681 0.1792171 -0.13735424 0.0717764 -0.23524179 0.19296032
0.038375687 -0.19427158 0.15748754 -0.10150325 -0.118395306 -0.17160441 0.1789937 0.20766166
0.1438289 -0.16096105 0.15504938 0.05275565 0.022342756 -0.061175875 0.0034379808 0.1121896
0.11821664 0.14775866 -0.18612346 0.12959868 -0.1708433 -0.07924286 -0.09488755 -0.04179854
-0.13989736 0.1595737 0.13995638 -0.05626105 -0.09685456 -0.12190435 0.13818677 0.05307018
-0.14890037 0.18890199 -0.26045826 -0.19107312 -0.09000084 0.04599106 0.11355117 0.10818791
0.12180042 -0.23272476 0.2086964 0.10352661 -0.10730837 -0.21953574 -0.12444651 0.17043096
0.15837796 0.2053415 -0.12891951 -0.13371949 0.16288447 -0.14361264 -0.1346174 -0.08268594
-0.15809466 -0.0663528 0.10588171 0.06404657 0.08063768 -0.11079032 0.049753208 0.24829613
-0.16901316 -0.17880462 0.13287874 -0.13883246 0.07754478 0.095531605 -0.17887346 -0.20071065
-0.20761478 -0.23743357 0.14868994 0.19423106 -0.12772441 -0.036338337 -0.104070805 0.13872941
0.03292487 0.16325559 0.117966585 -0.17515269 -0.13096255 -0.036480173 -0.12347788 0.04663061
-0.06769065 0.15205456 0.051054068 -0.14949505 -0.17386228 -0.037398253 0.10532147 0.25262043
-0.22322392 -0.12385726 0.20501587 -0.14949498 -0.030990642 0.19159485 0.03376536 -0.113101795
-0.16353035 -0.1307272 0.06937678 0.038591802 -0.04015523 0.18764776 -0.16966175 -0.18207012
-0.11764887 0.026346372 -0.10742234 0.13055599 0.086558685 0.20356925 0.13183883 -0.15288724
-0.061322056 -0.24766771 -0.1531957 -0.2149864 0.05538849 -0.056667484 0.16504821 -0.16603391
-0.054486047 0.13291883 -0.14971273 0.17131168 0.14778142 0.1811174 -0.05464671 -0.15028149
-0.17003448 0.18226407 -0.08755516 -0.18096446 -0.060928892 0.2256748 -0.17013092 -0.17140938
-0.118434966 -0.07798498 0.10716168 -0.10153158 0.07406284 0.06290449 0.085948996 0.04719944
0.12405322 -0.18672892 -0.15336311 0.15247133 0.1439785 0.097348385 -0.1473676 -0.17045037

net.2.bias f4 [128]
00000000: 10f8 15bd 708a 303d 3608 aa3b f170 273e
00000010: 8ccb 043b e4c8 9a3d a58e e1bd c63e f83d
00000020: 5719 d2bc 101a 03be 3c51 323d f81e e5bd
00000030: d8de e6bd be5c 29bc e946 08be 39d8 943c
00000040: 29eb 00bd f11e 1b3e 75f2 1cbe eceb 14be
00000050: b4a7 02bd 5e4f 16be 63af 18be e67e efbd
00000060: 04e2 b03a dff1 df3d f930 07be 3954 023e
00000070: 108a 28bc f22c d73d db1b 833d 7572 eb3d
00000080: e44b 99bc 1939 ffbd d22f f4bd 461b 12be
00000090: 9dd7 ccbd 9f60 e1bb f005 62bd a6cd 313c
000000a0: 7079 0ebe 8cde dcbd 1fc2 283d 777b f43d
000000b0: f294 f4bd a70b dfbd 48f2 91bc 3c4a bbbc
000000c0: 9a35 2e3c 8dce c6bd 32cf ab3d 233c 1fbe
000000d0: d00c 07be e242 7dbd dbe2 00be 5dcc 333d
000000e0: 934e c13d 4012 e33d e77e ce3d 8d52 263e
000000f0: 540a 503d 17be 973c 6c80 803b 319a 083d
00000100: 97e9 ea3d b432 0f3d 863d 8abd 112f 33bd
00000110: 70bc 8bbc 655d 133e 4245 b03c 5d48 383c
00000120: d745 d53d 9bc8 67bd a35e 2dbd 536c 1e3c
00000130: 3419 19bd e8bf ba3d 71d6 cebd 9f60 9abd
00000140: e9d9 023d 69c4 193d b15f 87bc 88a9 f53d
00000150: f79a f3bd e701 143e a706 b2bd af66 05be
00000160: 6c80 acbc 94c2 a43b 2bac ff3c 9d5e 1abe
00000170: f063 cabd 9a3c d43d 27e0 353d 2de8 413c
00000180: 7be6 b83c c18e 1abe 173e cd3c 3b3b df3d
00000190: 8270 22be a4a5 20bb 4bdb cabd b00e f93d
000001a0: 6532 e83d 3577 093e aaa2 b23d ee56 16bc
000001b0: d486 92bd 6405 e93d 58ac 693d c0de c13d
000001c0: eb23 523d 980c 123c 790e 76bd feda bc3d
000001d0: 6641 fc3d 45ec 03be b0ff 0cbc 5614 2d3e
000001e0: c7d2 b23d a0f7 19be a3b9 70bd fd7f a53d
000001f0: 1a9f a03d 5275 8dbd cc2e 77bd 5c30 0abd
-0.036613524 0.043100774 0.005188967 0.16351677 0.0020262925 0.07557848 -0.110135354 0.12121348
-0.025646849 -0.12802911 0.043534502 -0.111875474 -0.11272973 -0.010337053 -0.133083 0.01816951
-0.031474266 0.15148522 -0.15326865 -0.14543122 -0.031898215 -0.14678714 -0.14910655 -0.11694126
0.0013495092 0.10934805 -0.13202275 0.12727441 -0.010286823 0.105066195 0.064017974 0.1149644
-0.018712945 -0.124620624 -0.119231835 -0.14268216 -0.100020625 -0.006877973 -0.055181444 0.010852253
-0.13913512 -0.10784635 0.041200753 0.119376116 -0.119424716 -0.108908944 -0.017815724 -0.022862546
0.010632897 -0.09707365 0.08389129 -0.15550284 -0.13188481 -0.061831363 -0.12586538 0.043896068
0.09438815 0.11087465 0.100827985 0.16242428 0.0507911 0.01852326 0.003921559 0.033350173
0.11470335 0.034960464 -0.06750016 -0.043746058 -0.017057627 0.14391096 0.0215174 0.0112477215
0.104137115 -0.056587797 -0.04232658 0.009669381 -0.03737755 0.091186345 -0.10099495 -0.0753796
0.031946097 0.037540827 -0.016525121 0.11995226 -0.118947916 0.1445385 -0.08692675 -0.13027452
-0.02105733 0.0050280783 0.031210026 -0.15075155 -0.09882343 0.10363121 0.04440322 0.01183514
0.02257084 -0.15093519 0.02505402 0.10899969 -0.15863231 -0.0024512792 -0.09905108 0.121610045
0.11337737 0.1342438 0.08722432 -0.009175999 -0.07154623 0.11377981 0.057049125 0.09466314
0.051303785 0.008914135 -0.060072396 0.09221457 0.12317161 -0.12883098 -0.0086058825 0.16902289
0.08731609 -0.15035868 -0.058770787 0.080810525 0.07842846 -0.06907143 -0.060347363 -0.033737525

net.4.weight f4 [1, 128]
00000000: c2d8 0c3f a861 02bf 719e 14bf b939 11bf
00000010: 5f03 01bf 5c9f 14bf e1c9 fc3e 1b41 0bbf
00000020: bdde 093f 703a 123f 46ac 17bf b1e7 103f
00000030: 98a6 0a3f 0c03 13bf f1e2 fc3e 8243 0cbf
00000040: b26d 143f c89c 01bf a3d4 013f b903 083f
00000050: fb95 113f 72a3 033f bcf5 003f e0e2 fe3e
00000060: 6826 0a3f 29e4 f5be d16e 023f 462a 09bf
00000070: 1fb2 0cbf 5e66 febe 6b58 07bf f1ec 06bf
00000080: 21f6 0a3f a8db 103f b44f 033f 8037 f73e
00000090: 04e6 083f c744 103f 52e8 043f 56ab 0d3f
000000a0: 9053 073f 9516 ff3e 5c0d f4be 253b 02bf
000000b0: 7c6b f93e 3901 f83e 913f 0f3f f666 0a3f
000000c0: 0df9 0dbf ad35 063f ec58 0bbf 3a06 163f
000000d0: 0bb6 063f 274e 0f3f 8685 0a3f e28a 0bbf
000000e0: 4675 f3be ae29 01bf 4f28 00bf d1cd e5be
000000f0: 53ea 10bf 9aeb 193f 1d97 183f e0aa 02bf
00000100: 9c37 0cbf 3ab2 04bf 5db4 083f 12c9 0e3f
00000110: 1efc 173f c363 15bf 526f 11bf fead 11bf
00000120: d43e 07bf 58c8 083f 88e7 153f 29aa 073f
00000130: ca67 113f e710 0dbf a4cf 123f e61c 053f
00000140: 2002 04bf 489f 02bf 9d4d 113f 1b20 06bf
00000150: 0edb f83e f9eb 04bf aac9 0c3f def1 033f
00000160: 28a2 083f 2f50 00bf 8087 02bf 8ced 023f
00000170: dad3 0d3f 5a6c 0cbf ffd0 10bf 4c6a 193f
00000180: 8c5b 0fbf ee08 103f 966a 08bf ba99 febe
00000190: 7a3b 0d3f 4f89 0e3f 6bfd 0e3f d79a 04bf
000001a0: 4346 17bf dde7 0bbf 124f 0fbf 2154 023f
000001b0: 7c5a 0a3f 3edb 05bf a913 18bf 647f 0cbf
000001c0: 83cc 08bf 2abb 0abf c128 093f f7b5 0abf
000001d0: fe91 05bf 52fb 0e3f 0da8 093f 7a13 02bf
000001e0: 3863 02bf 4005 013f c192 143f 183a 05bf
000001f0: cb7e 0ebf 53eb 183f 989e 133f 9605 173f
0.55018246 -0.5093026 -0.5805426 -0.567287 -0.5039577 -0.58055663 0.4937277 -0.5439622
0.53855497 0.5712042 -0.59247243 0.56603533 0.5416045 -0.57426524 0.49391893 -0.5479051
0.5797988 -0.50629854 0.5071508 0.5313068 0.5686948 0.5142127 0.5037496 0.49782467
0.53964853 -0.48025635 0.5095034 -0.5358013 -0.5495929 -0.49687475 -0.5286929 -0.52705294
0.5428181 0.5658517 0.5129349 0.4828453 0.53475976 0.56354946 0.5191699 0.5533956
0.5286188 0.49821916 -0.47666442 -0.508715 0.48714817 0.48438433 0.5595637 0.54063356
-0.55458146 0.5242565 -0.5443256 0.5860325 0.52621526 0.55978626 0.5410999 -0.54508793
-0.4755041 -0.50454223 -0.50061506 -0.44883588 -0.5660755 0.60125124 0.5960558 -0.51041985
-0.54772353 -0.5183445 0.5340021 0.5577556 0.59369075 -0.5835535 -0.56810486 -0.56906116
-0.52830243 0.534307 0.58556414 0.5299402 0.56798995 -0.55103916 0.57348084 0.5199722
-0.5156574 -0.51024294 0.56759053 -0.5239274 0.48604625 -0.51922566 0.54995215 0.51540935
0.5337243 -0.5012235 -0.50988007 0.5114372 0.55401385 -0.5485283 -0.565689 0.5992782
-0.55999064 0.56263626 -0.5328764 -0.4972666 0.5516888 0.55678266 0.55855435 -0.51798767
-0.59091586 -0.5465067 -0.55980027 0.5090962 0.5404432 -0.5228766 -0.59405 -0.5488188
-0.5343706 -0.5419184 0.5357781 -0.54183906 -0.5217589 0.55852234 0.5377205 -0.5081097
-0.50932646 0.50398636 0.5803643 -0.5204177 -0.5566222 0.59734076 0.5766387 0.589929

log_std f4 [3]
00000000: 1c55 f7bd dc36 e0bd 6883 b6bd
-0.1207678 -0.109479636 -0.089117825
